mlagentlearn/results/02Run/airHockey.onnx (onnx, 85043 bytes, 8 tensors)

action_model._discrete_distribution.branches.0.bias f4 [3]
00000000: 0000 0000 0000 0000 0000 0000
0.0 0.0 0.0

action_model._discrete_distribution.branches.0.weight f4 [3, 128]
00000000: 2623 a9bc dfdf 133b 4586 853c d362 793b
00000010: 20b7 103c 02ab 3c3c 0318 9d3c d6e2 a43a
00000020: 6fb3 42ba edb3 fa3b e387 afb9 f698 b43b
00000030: def8 8a3b 6be5 2e3b f752 753b b85b d3bb
00000040: b8ec cfb9 f387 9c3b df76 95ba ead5 3e3c
00000050: 9965 c23b b0a1 fd3b 30f6 3e3c d028 dfbb
00000060: 957d 96bb abdb 41bc 3724 eabb 3826 46bb
00000070: 9347 283b a0e6 b0bb 557f f4bc ee03 c03b
00000080: 37ac c33a df53 d93b 9306 e33a 2888 8bba
00000090: 4009 c83b e3f5 81bc 006b a9bb b4b4 b239
000000a0: 1780 b3ba 0f23 383c 118f afba 629b d9bb
000000b0: df75 693b eb8c 8c3c 76dc 3739 354e ad3c
000000c0: 935f d53b 2866 9a3c 2b0a 4ebb fd9d 5e3b
000000d0: 4b98 aa39 55e6 67bb 67dc cfba 3b14 0bbc
000000e0: ab2f 473c 7356 f43c 4eec 08bc a7e3 8abc
000000f0: 7f67 bdbb db04 e2bb 9adb 49bb 9c42 86bc
00000100: 6b55 77bb 0806 f5bb 2c21 b63c 9fe0 2e3c
00000110: 9037 a73b af6f d53b 66d3 c1bb 00ef 163c
00000120: c3f0 9e3b 47c4 36bb fa06 593b 9ae7 d6bb
00000130: a58f 513b 973f 30bc fbc7 7dba 08cf d738
00000140: d51c 173c e1d5 4a3b e8ed c9bb b4db 08bc
00000150: 0b51 03bc f0c5 223c c0b1 93bc 8f50 b3bc
00000160: 6b62 453c 45b6 5c3c 2158 a0bb c3c7 08b9
00000170: d55c 3fba bdb0 dcbb 3c25 1ebc f264 8bbb
00000180: 962c 833b 6be9 b9bb 3c93 31bc 2ffa 3abc
00000190: d7b3 47bc c8fa 573b ff5d fbba 4f60 6fbc
000001a0: 7ee1 4bba e532 043c 5a25 0b3c 1184 b83c
000001b0: 658a 5d3c 5abc bf3b 8f17 2bbb bbcb 22bc
000001c0: 4917 b5ba 6b4a 15bc f796 8dbc b377 9e3a
000001d0: 081a 52b9 0b74 6d3a f34b 7e3c 6c6f 313c
000001e0: eb4d f73b ebe5 703b 77ec 18ba 8be4 b7ba
000001f0: 4eb1 443b 0dd5 fabb c851 ae3b 9f17 e7b7
00000200: 457b 963a e575 bdba 6ce5 43bc fb24 d5ba
00000210: bf9d 923c 1cdc 28bc eb3b 213c bce6 3fbc
00000220: e31e 94bb 2219 5a3c cbde 7fbc 9d07 5e3c
00000230: 115c 8d3b f7cb 1d3c dff5 523b 08a3 533b
00000240: 16bc 413c 9fe8 7ebc 88fe 57bc 13fb ff3b
00000250: 6b17 4a38 5e81 c43b 90d5 4fbc fdd3 583c
00000260: 4946 a23c 9533 53bb bae6 a0bb 0cdb 053c
00000270: af70 bb3c 86e0 9cb9 920f 64bc a78d 5cbb
00000280: 4242 7bbc d537 4239 d7e7 343c 1083 683b
00000290: 7623 353c f213 79bb 8773 623b 924a a93b
000002a0: aa95 353c 40b3 deba 0c93 843b 2429 babc
000002b0: 0f26 09bc 35ff 40bb f8b9 39bb 2903 bc3b
000002c0: bf87 9639 b8c6 5d38 d681 373a fab1 af39
000002d0: 6bdf 49bc 5fde c13b 624e e53b c813 083c
000002e0: d35d 6c3c 7c73 203c b719 c13b a6e4 14bc
000002f0: db17 d63b 63d8 453c c308 203c 9fac 8c3b
00000300: 824d 2a3b 6a42 6ebb 86db 1ebc 683e c4ba
00000310: 7a0f e1bb eadc 853c 533d 18bc eb3d c4ba
00000320: 028b febb 2d02 673c d8d0 6f3b a07d 623b
00000330: 3c80 043c 3d8a 113a 1805 403c 4bfa 8c3a
00000340: f08a b33c c9d3 3e3c 4d35 dd39 60aa 513c
00000350: b363 fabb 230c 2a3c 95b8 6f3a 4f6d e3bb
00000360: 9f29 b83b 0fb6 00bb 5f3d 10bb f7fe 163b
00000370: 0916 943b b671 09bc cd75 e43b a04b 25bc
00000380: 0a12 373c 15aa 233c ce89 2d3c aba7 85bb
00000390: 64cd b53b 1536 f53a 03e1 e9bb 3465 06bb
000003a0: 7508 02bc fd48 e3bb 9f7b 38bb f032 d83b
000003b0: 7a1d e5bb 97c3 843b 6f56 c7bb 74e8 b5ba
000003c0: b128 b93b 6769 2abc 8264 e03a 2a1e abbb
000003d0: dd11 cf3c 7f2f 47bb 8373 903b 3533 ccba
000003e0: 3246 5739 be48 993b f9ef 2cbc 434b 57bb
000003f0: 1b67 9c3b cdb5 563c 2b52 bb3b 429a 7d3c
-0.020646643 0.0022563857 0.016299376 0.0038053289 0.008832723 0.011515381 0.019176489 0.0012579809
-0.00074272504 0.0076508434 -0.00033479845 0.0055113984 0.004241093 0.0026687037 0.0037433484 -0.0064501427
-0.00039658486 0.0047769486 -0.0011403224 0.011647681 0.0059325215 0.007740222 0.011655375 -0.006810285
-0.0045926073 -0.011832158 -0.0071454304 -0.0030235182 0.0025677427 -0.0053985864 -0.029845873 0.0058598435
0.0014928643 0.0066323127 0.0017320685 -0.0010645436 0.0061046183 -0.015864318 -0.005170226 0.0003408544
-0.001369479 0.011238827 -0.0013394078 -0.0066408375 0.0035623235 0.017157039 0.00017534368 0.021155456
0.0065116375 0.01884754 -0.0031439166 0.003396868 0.00032538394 -0.0035385091 -0.0015858532 -0.00848871
0.012157361 0.029826378 -0.008357121 -0.016954256 -0.00578016 -0.0068975515 -0.0030801059 -0.016389184
-0.0037740122 -0.0074775256 0.022232614 0.010673671 0.005103059 0.006513558 -0.0059150932 0.0092122555
0.0048504784 -0.0027887987 0.003311573 -0.006558371 0.0031976488 -0.0107573485 -0.00096809835 0.000102905615
0.009223183 0.0030950236 -0.006162394 -0.008353163 -0.008014928 0.009934887 -0.018029094 -0.021889
0.01204739 0.013471191 -0.0048933183 -0.00013044388 -0.0007299905 -0.006734936 -0.009652432 -0.004253977
0.004003118 -0.0056735775 -0.010838326 -0.0114121875 -0.012188873 0.0032955874 -0.0019177793 -0.014610364
-0.00077774364 0.008068775 0.008492792 0.022523912 0.013521765 0.0058513107 -0.0026106571 -0.009936268
-0.0013816144 -0.009111981 -0.0172839 0.0012090117 -0.00020036858 0.0009058124 0.015521037 0.010829788
0.0075471303 0.0036758136 -0.0005833576 -0.0014029903 0.0030012908 -0.007654792 0.0053198077 -2.7548345e-05
0.0011480829 -0.0014454691 -0.011956554 -0.0016261631 0.017897485 -0.010306384 0.009840946 -0.011712726
-0.0045202835 0.013311656 -0.015617083 0.01355162 0.0043139537 0.009631149 0.0032190008 0.003229322
0.011824628 -0.015558391 -0.013183244 0.007811913 4.8182363e-05 0.005996867 -0.012685195 0.013234136
0.019808905 -0.003222679 -0.0049103172 0.008169901 0.02288088 -0.00029921922 -0.013919728 -0.0033653767
-0.015335621 0.00018522081 0.011041603 0.003547851 0.011055818 -0.0038006273 0.0034553723 0.00516636
0.011083046 -0.0016990677 0.0040458497 -0.022724696 -0.00837089 -0.002944899 -0.0028339606 0.0057376814
0.00028711368 5.2875577e-05 0.0007000243 0.00033511204 -0.012321333 0.0059164013 0.0069978694 0.0083054975
0.014426666 0.009793159 0.005892958 -0.009087717 0.0065336055 0.012075516 0.009767714 0.004293039
0.002598614 -0.0036355504 -0.009695893 -0.0014972212 -0.0068683 0.016340692 -0.009291965 -0.0014972066
-0.007768036 0.01409964 0.0036592986 0.0034559742 0.008087214 0.000555191 0.011719964 0.0010755745
0.021916837 0.011647173 0.00042192117 0.012796968 -0.0076412796 0.01037887 0.00091446313 -0.006940521
0.005620196 -0.0019639765 -0.0022009236 0.0023040154 0.0045192284 -0.008388927 0.0069720508 -0.010088831
0.011173734 0.009989281 0.010591937 -0.0040788255 0.005548166 0.0018708134 -0.007137419 -0.00205071
-0.007936587 -0.006936191 -0.0028149856 0.006597869 -0.0069920393 0.0040516364 -0.0060833017 -0.001387848
0.0056506027 -0.010401106 0.0017119797 -0.0052221017 0.025277073 -0.00303933 0.0044083013 -0.0015579226
0.00020530148 0.004677861 -0.010555261 -0.0032851256 0.0047730333 0.013104868 0.0057165823 0.015478672

action_model._discrete_distribution.branches.1.bias f4 [3]
00000000: 0000 0000 0000 0000 0000 0000
0.0 0.0 0.0

action_model._discrete_distribution.branches.1.weight f4 [3, 128]
00000000: 3fe3 65ba bf1c d63b 6da0 fb3a 786e da3b
00000010: 1049 a3bb 7fb4 123a 5ffd 2bbc f8b0 963b
00000020: 2cc3 243c 2256 d1ba 5ad2 143c 15ce fd3b
00000030: be90 19bc 92a6 3d3c cb0e da3a 6b6f 243c
00000040: e51a 12bc dba0 31bc 1b9c 2a3b bbe3 3cbb
00000050: 35ba f5ba 147b 913c fd92 cd3b 3b78 543b
00000060: 32bf 843a 0e49 293c 9d71 adba 87c8 733c
00000070: 3f0e 8fbc 3a1c 5b3c c375 e6bb 78fb 59bc
00000080: 3e24 c23b b14b c0bb 7fc8 573b be2e 17bb
00000090: 69a5 c9bb 2f42 763c 01ea 41ba 3e28 cbbb
000000a0: 9ac4 923b cd84 4dbc 55b0 1ebc 0f7f 673c
000000b0: 4ab5 1b3c 50a0 64bc ac6d 1bbb bd4b eebb
000000c0: 5150 90bb 7155 2a3c 31e7 39bc 46c5 273c
000000d0: 5fbe 3bbb 2f22 2ebc 0ad7 593b e873 dc3b
000000e0: b5e3 b9ba bff9 6abc 2b5a 1fbc 5c3d 4b39
000000f0: 058b 51bc 2dde 98ba 6a4e 7ebc 6799 5f3c
00000100: 6bc9 453c 5b54 783c df7e 093c a38f 5abc
00000110: b217 0c3c 0233 233c 7f34 b93b 8727 943c
00000120: 2223 083c 0022 0b3c 4bfc 1abc eb1f ddbb
00000130: a52c b03b eacc ee3b 3706 c9bb d7c3 6cbb
00000140: c2d1 3b3c 45cf 27bc 6359 2d3b af72 18ba
00000150: 4095 67bb 6130 0dba 9d73 ae3b 3f3e daba
00000160: 72dd 36bc 4385 273c 68df 4cbb e369 4f3c
00000170: 97c2 913b 3f7c 843c 51bd 943a 522b 9fbb
00000180: 3c38 24bc ed51 433b 910b 293c 4b37 9cbb
00000190: 71fa ae3c d9ab 8d3a 2dc3 b83a 6f76 cabb
000001a0: 0be9 363c 18b6 423a 91d1 3a3a 12dd 0dbc
000001b0: efea 043c 4d2c 76bc ceea 91bc ea2a b9bb
000001c0: 3fb2 803b 9a6b 6dbc 6403 293c 7b46 283c
000001d0: df81 9cbb 4f8f 3abc 81e7 8c3b ad2a e7bb
000001e0: 7fcc f93b af38 bdbb dd87 33bc 0a6a ffba
000001f0: 9179 1e3b 4a57 5d37 3112 b8bc 5bd8 283c
00000200: ddaa 26bc 5382 713c abf1 49bc e7d6 a9ba
00000210: 5686 00bc 09c2 293c 07d1 2a3b b9b5 c43b
00000220: e72c 1b3b 3638 8cbb 537e 9e3c 084a 24ba
00000230: 2b11 fbbb 7fcb e038 a770 a4bc 9134 103c
00000240: 756a 233c 3e8a b2bb 3ae4 d83c 2721 7fbc
00000250: 5cea 813c 4dc9 aabb 1316 633b ca6b 55bb
00000260: a0ec f93b 0299 bdbb d35f 383b 92c5 543c
00000270: c336 173b 5a35 e4bb 4547 0f3c 43f0 923a
00000280: 5f32 773a 6f7c 383c b79f 153c f367 153c
00000290: a085 52bc 53d5 1dbb 3ab0 5c3b 72da c4ba
000002a0: 9b55 0c3c a825 793c b3a3 3a3c 98a4 1fbc
000002b0: 7f49 d73b 1f29 37bc d338 1fbc 19c6 adbb
000002c0: 7a4e 63ba 9c57 1dbc 29b4 04bc 4f0f 983b
000002d0: efe7 213c 0be7 363c 6be1 19bc 5b1d 833b
000002e0: d90b 2d3c 4f65 6c3c fb2f 083a f7a6 28bc
000002f0: e487 9ebc 7cd0 b5ba ad9a 40bc 082e 4f3c
00000300: 4992 0e3c 1a3f 763b 573d 243c a5ce 743a
00000310: 512a 14bb e876 713b 726d 3d3a dff2 2cbb
00000320: c6a9 0b3a 1f39 41bc ea6f 1f3c 2af5 41bc
00000330: 75d9 25bb 8578 d13c 070f 1e3c 8d80 863c
00000340: bb0e ad38 4ed7 bb3b 83b3 2dbb 4519 d1bb
00000350: 0f1a e8b6 abdf 01bc 5dd0 403b 351d f03a
00000360: f3d9 f4bb d750 8f3b 3af4 e43a 02aa dc3b
00000370: 4bf4 dabb f790 873b 4da2 1c3c 981f af3a
00000380: 4621 463b 4d9a 2bbb f76c 583c 1d94 833c
00000390: 38aa 90ba 5bb9 3d3a d8e3 d63c 2273 19bb
000003a0: 4ba4 c73b 3cc7 403b d233 6dbc 8f09 8b3c
000003b0: 8368 04bc 0066 b8b9 fafc db3b 0aff 09bc
000003c0: c82e 04bc ccb8 8f3a 8756 583c 2653 a8bb
000003d0: ea8d 843c 8eff 833c 6304 f0bb e59b cbbb
000003e0: d8a1 9dbc 1b12 cdbb 887a 883c 9ca5 3fbc
000003f0: 97fd c03a 057f 043c 8ad3 e5bb 79af 823c
-0.0008769519 0.0065341885 0.0019197591 0.006666001 -0.004983075 0.0005596354 -0.01049742 0.004598733
0.010056298 -0.0015971104 0.009083355 0.007745514 -0.009372888 0.011575358 0.0016636489 0.01003633
-0.008917545 -0.010841574 0.0026032988 -0.0028822261 -0.0018747511 0.017758884 0.006273626 0.0032420296
0.0010127781 0.010332359 -0.0013232712 0.014879352 -0.017462848 0.013373429 -0.0070330813 -0.013304584
0.0059247306 -0.005868398 0.0032925901 -0.0023068632 -0.0061537516 0.015030428 -0.0007397235 -0.0061998656
0.004479003 -0.012543869 -0.0096855955 0.014129414 0.009503672 -0.013954237 -0.0023716493 -0.0072722123
-0.0044041057 0.010396347 -0.011346624 0.010239905 -0.0028647406 -0.010628267 0.0033239746 0.0067276843
-0.0014182242 -0.014341771 -0.009726088 0.00019382447 -0.0127894925 -0.0011662893 -0.015521625 0.013647414
0.012071948 0.015156831 0.008392065 -0.01333991 0.008550571 0.009960892 0.00565201 0.018085254
0.008309158 0.008491993 -0.009459565 -0.0067481897 0.005376416 0.0072876113 -0.006134774 -0.0036127472
0.011463584 -0.010242288 0.0026450984 -0.0005815429 -0.0035336763 -0.0005385932 0.005323841 -0.0016650631
-0.011161195 0.010224643 -0.003126109 0.012659523 0.0044482457 0.016172526 0.0011347925 -0.004857459
-0.010023173 0.002980347 0.010317699 -0.0047673336 0.021359654 0.0010808661 0.0014096253 -0.006178669
0.01116396 0.0007427647 0.0007126565 -0.008658664 0.008112653 -0.015025211 -0.017812159 -0.0056508677
0.0039274986 -0.014490986 0.01031575 0.01027071 -0.004776224 -0.0113867065 0.0043000584 -0.007054648
0.007623255 -0.0057745795 -0.010957685 -0.0019486558 0.0024181346 1.319295e-05 -0.022469612 0.010305489
-0.010172573 0.014740544 -0.012325685 -0.0012957723 -0.007844528 0.010361203 0.0026064531 0.0060031083
0.0023677887 -0.004279162 0.019347345 -0.0006267135 -0.0076619587 0.000107190564 -0.020073248 0.008801595
0.009974112 -0.0054486087 0.026476014 -0.015571869 0.015858822 -0.005211985 0.0034650608 -0.0032565468
0.007627085 -0.005786062 0.0028133288 0.012986558 0.0023073412 -0.006964368 0.008745019 0.001121052
0.0009429808 0.011260136 0.009132317 0.009119022 -0.0128492415 -0.002408345 0.0033674375 -0.0015018715
0.008565332 0.015206732 0.011391568 -0.009743832 0.0065700407 -0.011179238 -0.009718138 -0.005303156
-0.0008671057 -0.009603407 -0.008099594 0.004640497 0.009881957 0.011163483 -0.009392123 0.004001302
0.010561907 0.014428451 0.0005195138 -0.010293714 -0.019351907 -0.0013871337 -0.011755628 0.012645252
0.008701869 0.0037574233 0.01002439 0.0009338654 -0.002260823 0.0036844555 0.00072260865 -0.002638988
0.00053277274 -0.011793404 0.009731272 -0.011838237 -0.0025306616 0.025570164 0.0096471375 0.01641872
8.2520266e-05 0.0057324534 -0.0026504702 -0.006381186 -6.9171724e-06 -0.007926862 0.002942107 0.0018319251
-0.0074722706 0.0043736505 0.0017467805 0.0067341337 -0.006681954 0.004137154 0.00956018 0.0013360856
0.0030232235 -0.00261845 0.013209573 0.016061837 -0.0011037057 0.0007237398 0.026231691 -0.0023414572
0.0060925833 0.0029415628 -0.014477687 0.016972331 -0.008081558 -0.0003517121 0.0067135068 -0.008422622
-0.008067794 0.0010965108 0.0132042235 -0.005136865 0.016180951 0.016113069 -0.0073247417 -0.0062136524
-0.019242212 -0.006258262 0.01665999 -0.011697199 0.0014724013 0.008086924 -0.007013743 0.015952813

network_body.linear_encoder.seq_layers.0.bias f4 [128]
00000000: 0000 0000 0000 0000 0000 0000 0000 0000
00000010: 0000 0000 0000 0000 0000 0000 0000 0000
00000020: 0000 0000 0000 0000 0000 0000 0000 0000
00000030: 0000 0000 0000 0000 0000 0000 0000 0000
00000040: 0000 0000 0000 0000 0000 0000 0000 0000
00000050: 0000 0000 0000 0000 0000 0000 0000 0000
00000060: 0000 0000 0000 0000 0000 0000 0000 0000
00000070: 0000 0000 0000 0000 0000 0000 0000 0000
00000080: 0000 0000 0000 0000 0000 0000 0000 0000
00000090: 0000 0000 0000 0000 0000 0000 0000 0000
000000a0: 0000 0000 0000 0000 0000 0000 0000 0000
000000b0: 0000 0000 0000 0000 0000 0000 0000 0000
000000c0: 0000 0000 0000 0000 0000 0000 0000 0000
000000d0: 0000 0000 0000 0000 0000 0000 0000 0000
000000e0: 0000 0000 0000 0000 0000 0000 0000 0000
000000f0: 0000 0000 0000 0000 0000 0000 0000 0000
00000100: 0000 0000 0000 0000 0000 0000 0000 0000
00000110: 0000 0000 0000 0000 0000 0000 0000 0000
00000120: 0000 0000 0000 0000 0000 0000 0000 0000
00000130: 0000 0000 0000 0000 0000 0000 0000 0000
00000140: 0000 0000 0000 0000 0000 0000 0000 0000
00000150: 0000 0000 0000 0000 0000 0000 0000 0000
00000160: 0000 0000 0000 0000 0000 0000 0000 0000
00000170: 0000 0000 0000 0000 0000 0000 0000 0000
00000180: 0000 0000 0000 0000 0000 0000 0000 0000
00000190: 0000 0000 0000 0000 0000 0000 0000 0000
000001a0: 0000 0000 0000 0000 0000 0000 0000 0000
000001b0: 0000 0000 0000 0000 0000 0000 0000 0000
000001c0: 0000 0000 0000 0000 0000 0000 0000 0000
000001d0: 0000 0000 0000 0000 0000 0000 0000 0000
000001e0: 0000 0000 0000 0000 0000 0000 0000 0000
000001f0: 0000 0000 0000 0000 0000 0000 0000 0000
0.0 0.0 0.0 0.0 0.0 0.0 0.0 0.0
0.0 0.0 0.0 0.0 0.0 0.0 0.0 0.0
0.0 0.0 0.0 0.0 0.0 0.0 0.0 0.0
0.0 0.0 0.0 0.0 0.0 0.0 0.0 0.0
0.0 0.0 0.0 0.0 0.0 0.0 0.0 0.0
0.0 0.0 0.0 0.0 0.0 0.0 0.0 0.0
0.0 0.0 0.0 0.0 0.0 0.0 0.0 0.0
0.0 0.0 0.0 0.0 0.0 0.0 0.0 0.0
0.0 0.0 0.0 0.0 0.0 0.0 0.0 0.0
0.0 0.0 0.0 0.0 0.0 0.0 0.0 0.0
0.0 0.0 0.0 0.0 0.0 0.0 0.0 0.0
0.0 0.0 0.0 0.0 0.0 0.0 0.0 0.0
0.0 0.0 0.0 0.0 0.0 0.0 0.0 0.0
0.0 0.0 0.0 0.0 0.0 0.0 0.0 0.0
0.0 0.0 0.0 0.0 0.0 0.0 0.0 0.0
0.0 0.0 0.0 0.0 0.0 0.0 0.0 0.0

network_body.linear_encoder.seq_layers.0.weight f4 [128, 24]
00000000: 7edc 2a3e 9ad1 5c3d 74b9 673d fee1 5a3e
00000010: 1c45 87be badd 103d 0b75 473d 1f45 a2be
00000020: 971d f0bd 1c35 b5bd 83bb 01be 505b 153d
00000030: ab01 60be 3a62 85bd 553a a7be ddcd ecbd
00000040: 9e88 e8be 1760 8abe 33e3 cdbd 6b97 1d3e
00000050: 28b9 0dbe 3330 973e c677 0f3e ac25 3a3e
00000060: f01b 253d c335 34be 71f7 4b3e 1c83 213d
00000070: a99f fc3e 7d61 19bd fe1c c83c d825 b93d
00000080: 7b6c bd3d 52bb 503e ecf6 b03e d8d4 95be
00000090: fbf3 29bd 67ff 0a3f 1892 923e 70be 0cbe
000000a0: c566 143e 1755 08be 4c50 f7be 0d53 32be
000000b0: a08d 86be 8f17 93be b631 fdbd aee3 70be
000000c0: 4f4c 933c 9440 4b3e b68b 363d ca43 a8bd
000000d0: 381f e4bd 2388 97bd c4db 49bc ab50 183e
000000e0: a558 a0bd b3c7 f8bd 2936 6cbd 8b85 4a3e
000000f0: 7272 dcbd 24ad 6cbe a4ff aebc f064 3a3d
00000100: 4e19 0d3e 7500 393e caa5 823e 3bca 0c3e
00000110: 2ac7 a93d d394 9dbe d820 a1be 7159 81be
00000120: a46a 06be 2522 273d 3f29 f9bc 9b88 0a3e
00000130: 82a4 d6bd 04b4 2fbe 9913 53be b407 71be
00000140: 9dbf 1c3e b5d7 1fbe f652 f0bd fbb9 aa3d
00000150: 93b9 523f 9c52 16bf e967 903e ec07 3c3b
00000160: aa45 afbd df5c 81be b486 0a3e 970c 35be
00000170: e753 97be cdbd b23d d399 8bbe c7d2 0e3e
00000180: 5cc5 aabe bb70 1e3b e0fa bc3e 05ed d93d
00000190: 4a72 85be d8c8 b33c adf9 9e3c 078e a4be
000001a0: e5da 6cbd ade7 8b3e 511e de3d ea80 49be
000001b0: 43d4 313e 9552 243e 59a7 cd3d f6e9 d73d
000001c0: 013b de3d 8da0 f1be 0070 66be 1321 f23d
000001d0: 3d3f 823e 3f4a 6c3e 3c15 d4be fc38 8c3e
000001e0: 71f7 22be 4332 043d 0f2b 16be d09d 08be
000001f0: fc9e d93d 946d 33be c43a 773e 4dc2 2dbd
00000200: 21cb 1c3e ae1b afbd 329d bbbe a45f 013d
00000210: 8b04 b03e c591 c9bd 36b4 883e b1f6 0fbe
00000220: c1a4 283d 6211 eb3d aae9 f03b 453d 073f
00000230: 74bb 603e d528 c6bc d3b0 7abe dc9c f5bd
00000240: c0d2 73bc 6312 5abe 3049 99be 7423 6e3e
00000250: 3813 f43d 4c12 44bd 377e 9cbe 6c9d 45be
00000260: 375c fdbd 08bb 2fbe a35e 9ebd 662f 41be
00000270: b6a7 75be 44c4 793e e5d6 003e 7ce4 00bd
00000280: d1fb acbd 121a 853d 3e95 0fbe 1bfd 4abd
00000290: 4eda 353e 27fa 093e b6be 18bd eec9 edbc
000002a0: 0981 75be 74e1 283e 2476 943d f393 383e
000002b0: 8be9 15be 9b9b 03be 4926 eebd fff9 9bbe
000002c0: 2628 6fbe 8832 14be e429 fb3c 61cb 9b3c
000002d0: 3875 973e 37ee 2c3e 0461 fb3a 1111 cfbe
000002e0: 0426 7a3d b485 ffbd f975 be3d e00a 663e
000002f0: 0b13 f53e 7e25 c23d 285c 283e 1c94 a23e
00000300: 1c45 83be 84f9 9c3e 8d84 113e 2529 1bbe
00000310: 9c4a 45bc 2b4d 10be b983 d23d 8ca4 8dbe
00000320: d943 1cbd 9abf 6e3e fb48 953d fe0f d1bd
00000330: a0a1 7a3e b26b 99be 6108 a03d adb1 32be
00000340: f36f 913d 8889 c3bd 417a 763c fe61 4ebe
00000350: d7d8 be3e 0811 77be 9087 45bd d967 7b3d
00000360: 1298 873e 2fe6 74be 29c0 363e d789 99bd
00000370: e31d ab3d d020 603e c92f cdbd 416f df3d
00000380: 1204 f2bd 40b5 babd dd3d ed3d 3f6b a1bc
00000390: 7c8b 3c3e 2260 3fbe 03da 523e 766b 5dbe
000003a0: 3969 73bd 2521 d63d fe77 95be a6e3 d5bc
000003b0: e877 c23e fb47 b8bd c6ee d5bd 996f 3dbe
000003c0: fb3c 6c3e 5eab 893e 7072 003d 1e75 9cbd
000003d0: a0bb 083f 69f5 a8be d9f6 0abe 48f3 93be
000003e0: 3d76 053e e1b6 c7be f516 17be b474 0e3e
000003f0: 5743 12bc fd1d 293e 6260 503e e1bb 87be
0.16685674 0.05391083 0.056573346 0.21375272 -0.26419914 0.035367705 0.048695605 -0.3169336
-0.11724394 -0.088480204 -0.12669186 0.036464036 -0.21875636 -0.06512876 -0.3266169 -0.11562703
-0.4541673 -0.27026436 -0.100531004 0.15389793 -0.13840163 0.2952896 0.14010534 0.18178433
0.040309846 -0.17598633 0.1991861 0.039431676 0.4934056 -0.037446488 0.024427887 0.09040421
0.09249207 0.20383957 0.34563386 -0.2926395 -0.041492444 0.54295963 0.28627086 -0.13744521
0.14492328 -0.13313709 -0.4830345 -0.17414494 -0.26279926 -0.2872891 -0.12362997 -0.23524353
0.017980723 0.19848853 0.044566832 -0.08216055 -0.11138767 -0.07399013 -0.012320463 0.14874522
-0.078294076 -0.121474646 -0.05766884 0.19777505 -0.10764016 -0.23112923 -0.021362133 0.045506418
0.13779184 0.1806658 0.25517112 0.1374902 0.08289941 -0.30777606 -0.3147037 -0.2526355
-0.13126618 0.040804047 -0.030415175 0.13528673 -0.10480596 -0.17158514 -0.20612945 -0.23538095
0.1530747 -0.1560963 -0.117345735 0.08336254 0.82314414 -0.587198 0.28204277 0.0028691245
-0.08558209 -0.25266168 0.13527948 -0.17680584 -0.295562 0.08727608 -0.27265796 0.13947593
-0.33353698 0.002417608 0.36910152 0.10640911 -0.26063758 0.021946356 0.019406164 -0.32139608
-0.05782594 0.27325192 0.10845626 -0.19678083 0.17366128 0.16047128 0.10041685 0.105426714
0.10851098 -0.47192803 -0.22503662 0.11822715 0.25438872 0.23075198 -0.4142245 0.27387226
-0.15914704 0.032274496 -0.14664863 -0.1334145 0.10626027 -0.1752227 0.24143511 -0.042421628
0.15311863 -0.08550201 -0.36643368 0.03158535 0.34378466 -0.098422565 0.2669999 -0.14058949
0.041172747 0.11477925 0.0073520737 0.52827865 0.21946508 -0.024189392 -0.24481516 -0.11992809
-0.01488179 -0.21296076 -0.2993865 0.23255712 0.11917728 -0.04786901 -0.30565044 -0.19298333
-0.12371104 -0.1716119 -0.07732894 -0.18865737 -0.23989758 0.24391276 0.12581976 -0.0314679
-0.08446468 0.06499113 -0.14021775 -0.049557786 0.17759058 0.13474332 -0.03729125 -0.029026952
-0.23975004 0.16492254 0.07249096 0.18025188 -0.14639871 -0.12852328 -0.11628396 -0.3046417
-0.23355159 -0.14472401 0.030659623 0.019017877 0.29581618 0.16887747 0.0019178693 -0.40442708
0.06107141 -0.12476674 0.09299845 0.22465086 0.4786609 0.09479807 0.16441405 0.31753623
-0.25638664 0.30659115 0.1421072 -0.15152414 -0.012041714 -0.14091937 0.1027903 -0.27664602
-0.038150642 0.23315278 0.072893105 -0.102081284 0.24475718 -0.29964978 0.07814098 -0.1745059
0.07101431 -0.095477164 0.015043796 -0.20154569 0.3727481 -0.2412759 -0.048224986 0.061378334
0.26483208 -0.23915933 0.17846741 -0.07496994 0.0835531 0.21887517 -0.1001888 0.10909892
-0.118171826 -0.09116602 0.11584065 -0.01970446 0.18412584 -0.18689016 0.20590977 -0.21623024
-0.05942652 0.104555406 -0.2919311 -0.026109528 0.37982106 -0.08998104 -0.10445933 -0.18499602
0.23070137 0.26888555 0.031359136 -0.07639526 0.53411293 -0.32999733 -0.13570727 -0.28896546
0.13033386 -0.39006713 -0.14754851 0.13911706 -0.008927188 0.16515346 0.20349267 -0.26510528

network_body.linear_encoder.seq_layers.2.bias f4 [128]
00000000: 0000 0000 0000 0000 0000 0000 0000 0000
00000010: 0000 0000 0000 0000 0000 0000 0000 0000
00000020: 0000 0000 0000 0000 0000 0000 0000 0000
00000030: 0000 0000 0000 0000 0000 0000 0000 0000
00000040: 0000 0000 0000 0000 0000 0000 0000 0000
00000050: 0000 0000 0000 0000 0000 0000 0000 0000
00000060: 0000 0000 0000 0000 0000 0000 0000 0000
00000070: 0000 0000 0000 0000 0000 0000 0000 0000
00000080: 0000 0000 0000 0000 0000 0000 0000 0000
00000090: 0000 0000 0000 0000 0000 0000 0000 0000
000000a0: 0000 0000 0000 0000 0000 0000 0000 0000
000000b0: 0000 0000 0000 0000 0000 0000 0000 0000
000000c0: 0000 0000 0000 0000 0000 0000 0000 0000
000000d0: 0000 0000 0000 0000 0000 0000 0000 0000
000000e0: 0000 0000 0000 0000 0000 0000 0000 0000
000000f0: 0000 0000 0000 0000 0000 0000 0000 0000
00000100: 0000 0000 0000 0000 0000 0000 0000 0000
00000110: 0000 0000 0000 0000 0000 0000 0000 0000
00000120: 0000 0000 0000 0000 0000 0000 0000 0000
00000130: 0000 0000 0000 0000 0000 0000 0000 0000
00000140: 0000 0000 0000 0000 0000 0000 0000 0000
00000150: 0000 0000 0000 0000 0000 0000 0000 0000
00000160: 0000 0000 0000 0000 0000 0000 0000 0000
00000170: 0000 0000 0000 0000 0000 0000 0000 0000
00000180: 0000 0000 0000 0000 0000 0000 0000 0000
00000190: 0000 0000 0000 0000 0000 0000 0000 0000
000001a0: 0000 0000 0000 0000 0000 0000 0000 0000
000001b0: 0000 0000 0000 0000 0000 0000 0000 0000
000001c0: 0000 0000 0000 0000 0000 0000 0000 0000
000001d0: 0000 0000 0000 0000 0000 0000 0000 0000
000001e0: 0000 0000 0000 0000 0000 0000 0000 0000
000001f0: 0000 0000 0000 0000 0000 0000 0000 0000
0.0 0.0 0.0 0.0 0.0 0.0 0.0 0.0
0.0 0.0 0.0 0.0 0.0 0.0 0.0 0.0
0.0 0.0 0.0 0.0 0.0 0.0 0.0 0.0
0.0 0.0 0.0 0.0 0.0 0.0 0.0 0.0
0.0 0.0 0.0 0.0 0.0 0.0 0.0 0.0
0.0 0.0 0.0 0.0 0.0 0.0 0.0 0.0
0.0 0.0 0.0 0.0 0.0 0.0 0.0 0.0
0.0 0.0 0.0 0.0 0.0 0.0 0.0 0.0
0.0 0.0 0.0 0.0 0.0 0.0 0.0 0.0
0.0 0.0 0.0 0.0 0.0 0.0 0.0 0.0
0.0 0.0 0.0 0.0 0.0 0.0 0.0 0.0
0.0 0.0 0.0 0.0 0.0 0.0 0.0 0.0
0.0 0.0 0.0 0.0 0.0 0.0 0.0 0.0
0.0 0.0 0.0 0.0 0.0 0.0 0.0 0.0
0.0 0.0 0.0 0.0 0.0 0.0 0.0 0.0
0.0 0.0 0.0 0.0 0.0 0.0 0.0 0.0

network_body.linear_encoder.seq_layers.2.weight f4 [128, 128]
00000000: fee5 12bd 661e 21bd 8275 e6bc 3e47 ea3c
00000010: 2505 f33b 06ad 553e e8e5 ceb9 b56f 95bd
00000020: 8088 3d3b b2eb 0f3e 3406 6f3d d955 913d
00000030: 3e24 dbbd d1b6 06bd fcf3 9bbd 5bc7 e2bc
00000040: 03af 923d 9b4d 17be 8065 55bd 601f 0abd
00000050: 4663 803d 54d4 d53d ef7f 853a 67ff c4bc
00000060: ab61 993d ca59 003e 383d 363d 9796 afbd
00000070: 91eb 80bd 070b 803d f4fa 943d 0bad f9bd
00000080: 7547 f6ba 65d8 b23c 39a4 333d fede 883d
00000090: bf28 c7bb f5d5 59bd ea57 66bd f0dd b43d
000000a0: 81cd 8b3c 0f3d de3d 5895 64bd f5fa d4bd
000000b0: 5abe 51bc a046 eabc 5877 aebd a1eb f6bd
000000c0: 5188 903c 91d5 c23c 2d4a b8bd d335 7e3d
000000d0: c6f3 98bd 72e5 3dbd 32e3 4c3c 5b69 e5bd
000000e0: 28ee c83b 4b9f 3ebd 280b 0b3a 0b12 3e3e
000000f0: 7afe fdbd dfec 4f3d 10d2 8c3d 4cc4 d93d
00000100: bf03 11be c918 32be 4336 403d 09d5 663d
00000110: 22a1 f2bd 6712 37bd 64de 81bd af45 65be
00000120: 3def c03d 3c40 fc3d 79bc e8bd 94b9 a43d
00000130: 1791 77bd 4d9d f03d 868a 303e 8e8e 93bc
00000140: 9160 7f3c 5fa9 b3bd 27ef 19bd 6db7 a6bc
00000150: cbcd 94bd 7ffb 5cbd 99dd 903d ebd1 643d
00000160: 4a43 2fbd 28fb 2abb 1cb2 bfbd dc25 bbbc
00000170: c2b3 7abc 8059 a43d 6074 98bd d588 0f3e
00000180: 8361 48be 0ef6 d4bd b43a 10bd 69a5 cf3d
00000190: 3224 cb3d 2c4c 33be 5570 5e3d f594 16be
000001a0: c7f5 873d de5d 903d b0f8 24bd 1e66 67bd
000001b0: 070d 03be b57d a6bc 9058 c33b d5dd 6f3d
000001c0: 11e5 ce3d 3a4f bebd f1a6 193d 90c0 81bd
000001d0: 43e4 48bc 71f6 c9bd 6d68 70bd 151a fbbc
000001e0: a49f 0b3e 9954 043d 181c 1c3c be4d 6cbc
000001f0: bb9a 343d b192 ef3c 9b53 0c3e b835 ba3c
00000200: dfcc 883d 0bda bc3d 12f3 59bd 9b4c 813c
00000210: af31 5e3d 012d c13b 2446 babd 7547 68bd
00000220: 036f d13d 716c a7bc 370c 2dbc 0b12 fc3c
00000230: 330b 783d 78c1 e7bd 6130 433e c3ed 32be
00000240: 0378 643b 31f2 2bbd 8b70 3ebc 8a2a ebbd
00000250: 433e 533d d1df d13b 6e0f d1bd 8c10 05be
00000260: b468 98bd 57a7 39bc 0423 b13d 367a 6dbd
00000270: e6b6 603d 10bc 59be c750 4dbc 083d 59bd
00000280: d9f7 93bd d507 843c 0f35 5c3c 290c 68ba
00000290: dc94 4f3c 5de9 67bc 740d 3d3d 55b7 b6bd
000002a0: ee3e 0ebd 1980 e53d e3fa 55bd bb29 8bbd
000002b0: 631c 8c3d 7029 86bd 8338 043c 6488 9bbd
000002c0: f3e8 853d 433f 313e e60c 223e ec35 a43d
000002d0: 52ff 1cbe 3025 95bd 7b2c 75bc 6e70 5e3d
000002e0: ae64 3c3d 9d29 f7bd 6db2 8e3d 7a64 d4bb
000002f0: 4657 233c 26a9 fa3c 461f 623d c400 fc3d
00000300: 9227 933e 9d8d 37bd 763f c83d 188c 04bb
00000310: 530e f13c 7d9d 103e 89de 78bc dedc 573d
00000320: 9ade 16be 5a38 963d e67d 46be ce73 373b
00000330: ae31 b5bb 3dcd df3d d8c2 a73c 28e7 9abd
00000340: 76bf 1239 209c c53d 71df 55bd ce73 9b3c
00000350: 0a4b 2ebd 1f80 523d 42cf 193d bcaf 9dbd
00000360: 20bb aebd 5bbc 71bd 29f6 1ebe 00ae b13d
00000370: 7af9 1fbe f9ce 743d 8d31 26be 1dcf 013d
00000380: f9f1 afbb a8f9 6bbe 5215 963d 9ea0 303b
00000390: f7fd e93d a4e0 933d 6037 1d3d b8c3 1dbd
000003a0: d5f7 073e 786d 803d 0330 ab3d d718 9fbd
000003b0: 30d0 363d 37e6 6d3d a7b3 1c3e 3e7a 223e
000003c0: 435e 043d 188d 813d 8b38 c33d 4ade ec3c
000003d0: 952b 8dbd 7093 08bd c587 25bd a854 6d3d
000003e0: 14bc dabd fc0e 793d b482 913d b433 3ebd
000003f0: cc89 91bd a573 78bc 8138 053e 15c7 07bd
-0.03586387 -0.03933563 -0.028132204 0.028598424 0.0074163848 0.20866784 -0.00039462675 -0.07296697
0.0028920472 0.14054754 0.058355525 0.07096452 -0.10700272 -0.03288919 -0.07614896 -0.02768295
0.07162287 -0.14775698 -0.05209875 -0.033721328 0.06268935 0.10440889 0.0010185222 -0.024047567
0.07489332 0.12534252 0.044491976 -0.085736446 -0.06294931 0.06252103 0.07274428 -0.121912085
-0.0018789606 0.0218317 0.043857787 0.066831574 -0.0060778554 -0.05318256 -0.056236185 0.08831394
0.017065765 0.1085149 -0.055806488 -0.10399429 -0.012801731 -0.02859813 -0.08518857 -0.120566614
0.017643126 0.023783477 -0.08998523 0.06206305 -0.07468371 -0.046361394 0.012505339 -0.112017356
0.006131906 -0.046538632 0.00053040916 0.1856157 -0.12402053 0.050763007 0.06876004 0.10633144
-0.14161585 -0.17392267 0.046926748 0.05635551 -0.1184714 -0.044695284 -0.06341246 -0.22389863
0.09420631 0.12316939 -0.11364073 0.08043209 -0.060441103 0.11748753 0.17240342 -0.018012311
0.015586988 -0.08772539 -0.03758159 -0.020351136 -0.072658144 -0.053950783 0.070735164 0.055864256
-0.04278878 -0.0026089642 -0.093601435 -0.022845201 -0.015301647 0.08024883 -0.07444072 0.14017041
-0.19568448 -0.10398494 -0.035212234 0.10138971 0.09919013 -0.17509526 0.054306347 -0.1470526
0.06638675 0.07049154 -0.04027623 -0.05649387 -0.12797938 -0.020323614 0.005961485 0.058561165
0.10102285 -0.09292455 0.037512723 -0.063355565 -0.012261453 -0.09861458 -0.05869334 -0.030652085
0.13635117 0.03230724 0.009528182 -0.014422832 0.044092875 0.029244753 0.13703768 0.022730693
0.06679701 0.09221276 -0.053210326 0.015783599 0.0542466 0.0058952575 -0.090954095 -0.05670877
0.10226252 -0.020437451 -0.010561994 0.030770322 0.060557555 -0.11316198 0.19061424 -0.17473511
0.0034861572 -0.04197902 -0.011623512 -0.11482723 0.05157305 0.006404855 -0.10208021 -0.12994593
-0.074418455 -0.011331401 0.08649257 -0.057977878 0.054861926 -0.21263146 -0.012531466 -0.05303672
-0.072250076 0.016117016 0.0134403845 -0.00088519097 0.012669768 -0.014154759 0.046155408 -0.089216866
-0.034727983 0.11206073 -0.052241217 -0.06795069 0.06841352 -0.06550872 0.008070114 -0.07594374
0.06538572 0.17309289 0.15825233 0.08018097 -0.15331772 -0.072824836 -0.014964218 0.05430644
0.045994453 -0.12068484 0.06967626 -0.0064817043 0.009969538 0.030598234 0.055205606 0.123048335
0.28741127 -0.044812787 0.09777729 -0.0020225104 0.029425776 0.14122577 -0.015189775 0.05270087
-0.14733353 0.07334967 -0.19383964 0.002799261 -0.005529604 0.10927818 0.02047865 -0.07563621
0.0001399497 0.09648919 -0.052215043 0.018976118 -0.04255203 0.051391717 0.037551172 -0.07699534
-0.08531785 -0.05901752 -0.1552359 0.08675766 -0.15622512 0.059767697 -0.1622984 0.03169166
-0.0053694216 -0.23044455 0.07328285 0.0026951204 0.11425393 0.07220581 0.038382888 -0.03851673
0.13278134 0.062708795 0.08358767 -0.0776841 0.044632137 0.058080878 0.15302907 0.15866944
0.032316457 0.063257396 0.09532269 0.02891459 -0.06893078 -0.033343732 -0.040412683 0.057942063
-0.10680404 0.060805306 0.07105008 -0.046436027 -0.07106361 -0.015164291 0.13009836 -0.033148844
