Assets/results/Run01/airHockey.onnx (onnx, 85463 bytes, 10 tensors)

75 f4 [24]
1.0 1.0 1.0 1.0 1.0 1.0 1.0 1.0
1.0 1.0 1.0 1.0 1.0 1.0 1.0 1.0
1.0 1.0 1.0 1.0 1.0 1.0 1.0 1.0
00000000: 0000 803f 0000 803f 0000 803f 0000 803f
00000010: 0000 803f 0000 803f 0000 803f 0000 803f
00000020: 0000 803f 0000 803f 0000 803f 0000 803f
00000030: 0000 803f 0000 803f 0000 803f 0000 803f
00000040: 0000 803f 0000 803f 0000 803f 0000 803f
00000050: 0000 803f 0000 803f 0000 803f 0000 803f

action_model._discrete_distribution.branches.0.bias f4 [3]
0.0 0.0 0.0
00000000: 0000 0000 0000 0000 0000 0000

action_model._discrete_distribution.branches.0.weight f4 [3, 128]
0.0016460232 -0.004065283 -0.010674846 -0.010234576 -0.012944107 -0.0009375957 0.0018496069 -0.0023823774
0.008850648 -0.009109386 0.016759897 -0.003018015 -0.0030234843 -0.006639216 -0.019387579 0.0051452694
-0.003823512 0.005958649 -0.0058982354 0.005044618 0.0022210162 0.00043172156 -0.0028499768 -0.0042786943
-0.010962971 0.004572538 0.013084995 -0.008117839 -0.01418823 0.0004340415 -0.01395482 0.0037066191
0.001976107 -0.023789285 0.00067604904 -0.0030176907 -0.0009685142 -0.00075112534 -0.014253042 -0.0018985535
0.026304925 -0.010372878 0.0029750753 0.004891832 0.0021515943 -0.011936158 0.008337869 -0.0054287403
-0.0013340433 0.005406262 0.014014271 0.0035502638 0.0069715464 0.0018224812 0.011103917 0.0025522527
0.011882116 -0.00223774 -0.0044016954 0.014969562 0.010903894 0.008623181 -0.014518551 0.0017497874
-1.8267796e-05 -0.004866329 -0.002273469 0.007279612 -0.0056163357 0.0064185667 0.0063691335 0.005244887
-0.022669176 -0.0075680874 -0.016696563 -0.008610208 0.0023931232 0.0004278978 -0.01686349 -0.00065321155
-0.012606807 0.011474547 -0.005475954 0.0014143334 0.021417914 0.0068513714 0.030368585 0.0064211944
-0.0018294099 0.006921403 -0.01605693 0.0018798778 -0.012058617 -0.008720866 -0.011734703 0.012780443
0.0010913962 -0.00066319975 0.008745139 0.013776905 -0.015345928 0.004778898 0.011357749 0.014137131
-0.0030374425 0.010801643 -0.00545656 -0.010887162 0.013959887 3.4902165e-05 0.004832178 -0.0013022084
0.00042137346 0.0017158045 -0.0054883906 -0.003326602 0.010646421 -0.010288086 0.018366627 -0.0076464354
0.0025623755 0.00368519 0.0059955395 -0.0058923173 -0.008044005 0.00089330546 0.00061050674 -0.00427254
0.0031302243 -0.004461713 -0.020055553 0.0033674487 0.0031343184 0.0071635856 -0.007926013 -0.009864472
-0.0040528015 -0.01510102 -0.001316219 -0.0050670817 -0.015927367 0.0055976734 0.019602064 -0.015214576
0.009774736 -0.012544614 0.02063546 -0.0098406775 -0.001186376 0.008506972 0.0040052775 -0.0040199156
0.0027191956 0.0014152584 0.006499912 0.003986762 -0.0009591367 0.014253086 -0.004834985 -0.00019955041
-0.0032081332 -0.015145709 -0.0016566074 -0.0066453065 -0.006554915 0.0053444062 0.007723546 -0.011198583
0.009273761 0.0010524906 -0.0038178635 0.0032452343 -0.0034329034 -0.020805238 0.015404123 -0.00057563576
0.00032355182 0.0025521743 -0.0120421015 0.004538313 0.010281014 0.0066716457 -0.006336981 3.3271546e-05
0.001611757 0.0037448443 -0.011596043 0.0032622237 0.01997189 0.011980082 -0.0022093775 -0.0073462646
-0.019463481 -0.00037437223 0.0043490552 0.0025871126 -0.001832957 -0.024213886 0.0075544873 -0.010356507
0.008538 0.0073004826 0.008055129 0.0019157588 -0.0039424156 -0.0021255163 -0.00022052322 0.01469631
-0.007204763 0.019241674 -0.00659377 0.0021576395 0.0019518611 0.013104639 -0.015165783 0.01113328
-0.0016512651 -0.0082321325 -0.001849438 0.0115821315 0.01073062 0.007660641 -0.004221751 -0.007936897
-0.012581247 -0.0032289445 0.009132367 0.004408859 0.0009711329 0.00208367 -0.005806232 0.0019043125
0.0002857542 0.012937588 0.008848758 0.0019592894 0.011633629 -0.004835857 -0.0058285086 0.002389265
-0.0051451367 0.0025802061 -0.012383045 -0.0055932323 0.012151447 0.0023585584 -0.004646681 -0.013701837
0.014126605 0.0083515085 -0.014437157 -0.0055731684 0.0043012104 0.008431689 0.0076438896 -0.015705965
00000000: 60bf d73a 1136 85bb 8de5 2ebc ecae 27bc
00000010: 8513 54bc fbc8 75ba 826e f23a a921 1cbb
00000020: 4f02 113c 893f 15bc 0d4c 893c e4c9 45bb
00000030: a625 46bb c88d d9bb b3d2 9ebc a699 a83b
00000040: e393 7abb c540 c33b fc45 c1bb 534d a53b
00000050: 788e 113b b058 e239 adc6 3abb 4a34 8cbb
00000060: 089e 33bc 3bd5 953b 7262 563c af00 05bc
00000070: c075 68bc 1090 e339 c2a2 64bc c0ea 723b
00000080: 9381 013b bfe1 c2bc e238 313a 73c4 45bb
00000090: e3e3 7dba 2be7 44ba 9785 69bc e2d8 f8ba
000000a0: 6d7d d73c 01f3 29bc 7bf9 423b a94b a03b
000000b0: c301 0d3b e08f 43bc 8f9b 083c 93e3 b1bb
000000c0: 11db aeba 0327 b13b 1d9c 653c 8bab 683b
000000d0: 9271 e43b 52e0 ee3a 34ed 353c b243 273b
000000e0: 35ad 423c 0ca7 12bb 193c 90bb e542 753c
000000f0: 3fa6 323c 3e48 0d3c 37df 6dbc 1f59 e53a
00000100: cb3d 99b7 ba75 9fbb 7bfe 14bb d089 ee3b
00000110: 3d09 b8bb d752 d23b 2ab4 d03b 4ddd ab3b
00000120: b5b4 b9bc b8fd f7bb 3bc7 88bc d411 0dbc
00000130: f2d5 1c3b 7857 e039 4d25 8abc 493c 2bba
00000140: c88c 4ebc bdff 3b3c a26f b3bb 2761 b93a
00000150: 9f74 af3c 7881 e03b 8ac7 f83c e268 d23b
00000160: cfc8 efba f0cc e23b d389 83bc 3b66 f63a
00000170: 8191 45bc f7e1 0ebc e942 40bc 1065 513c
00000180: 2e0d 8f3a 95da 2dba c647 0f3c 87b8 613c
00000190: 7d6d 7bbc 4d98 9c3b da15 3a3c 6d9f 673c
000001a0: d40f 47bb 60f9 303c f1cc b2bb 1160 32bc
000001b0: 03b8 643c ea63 1238 3f57 9e3b ddae aaba
000001c0: caeb dc39 d8e4 e03a f5d7 b3bb 1f03 5abb
000001d0: 546e 2e3c 5c8f 28bc 9c75 963c f38e fabb
000001e0: 87ed 273b 3b83 713b 3b76 c43b 5714 c1bb
000001f0: 01cb 03bc b72c 6a3a 6a0a 203a aa00 8cbb
00000200: 7324 4d3b 9033 92bb 8b4b a4bc 6ab0 5c3b
00000210: 2369 4d3b 83bc ea3b 1cdc 01bc 989e 21bc
00000220: 5dcd 84bb 456a 77bc fb84 acba c309 a6bb
00000230: 1c7a 82bc b06c b73b 8294 a03c 8f46 79bc
00000240: 3726 203c ed87 4dbc b20b a93c cb3a 21bc
00000250: 2c80 9bba d460 0b3c b43e 833b 7fb9 83bb
00000260: 8834 323b 3180 b93a 37fd d43b 62a3 823b
00000270: 936e 7bba c785 693c cb6e 9ebb 683e 51b9
00000280: 8b3f 52bb b525 78bc 8522 d9ba dfc0 d9bb
00000290: 9dca d6bb 2120 af3b cd15 fd3b 437a 37bc
000002a0: f9f0 173c b9f3 893a 1f35 7abb ffad 543b
000002b0: 90fa 60bb bf6f aabc 9361 7c3c 43e6 16ba
000002c0: 64a2 a939 6142 273b 3c4c 45bc 21b6 943b
000002d0: b371 283c d29d da3b 73a6 cfbb 0d8d 0b38
000002e0: 9741 d33a 106c 753b 54fd 3dbc 08cb 553b
000002f0: 179c a33c 1b48 443c 34cb 10bb efb8 f0bb
00000300: e171 9fbc 6447 c4b9 8582 8e3b 8c8c 293b
00000310: d53f f0ba 335c c6bc a28b f73b 57ae 29bc
00000320: f8e2 0b3c e338 ef3b a9f9 033c 331a fb3a
00000330: 612f 81bb 3f4c 0bbb 403c 67b9 cbc8 703c
00000340: ef15 ecbb b7a0 9d3c 8d10 d8bb 2f67 0d3b
00000350: 97d5 ff3a d7b4 563c e879 78bc 5c68 363c
00000360: 436f d8ba 11e0 06bc d768 f2ba fbc2 3d3c
00000370: 7bcf 2f3c 1d06 fb3b 9d56 8abb c209 02bc
00000380: 9321 4ebc b39c 53bb ec9f 153c 3178 903b
00000390: a093 7e3a 2f8e 083b 3442 bebb 209a f93a
000003a0: 48d1 9539 2df8 533c 62fa 103c 6c67 003b
000003b0: fa9a 3e3c 1c76 9ebb 13fd bebb 3795 1c3b
000003c0: 8998 a8bb ad18 293b 41e2 4abc 6f47 b7bb
000003d0: dd16 473c 0b92 1a3b 2f43 98bb ab7d 60bc
000003e0: 4773 673c c4d4 083c d389 6cbc 209f b6bb
000003f0: 2bf1 8c3b 1125 0a3c 9879 fa3b cca9 80bc

action_model._discrete_distribution.branches.1.bias f4 [3]
0.0 0.0 0.0
00000000: 0000 0000 0000 0000 0000 0000

action_model._discrete_distribution.branches.1.weight f4 [3, 128]
-0.012592944 0.0033320517 0.010209359 -0.004674624 -0.0025290453 -0.0030231269 0.0018178755 -0.014828384
-0.009225639 0.0014470024 -0.010688244 0.020120194 0.017295746 -0.013307938 -0.008231676 0.009823495
-0.010865389 0.0017548159 -0.001276747 -0.005715474 0.001266898 -0.007859991 -0.0143067865 -0.0029543873
-0.0034334876 0.007832046 -0.0040487624 -0.006469118 -0.0028975026 -0.013790183 0.0005785916 -0.00442653
0.0037958038 -0.005427117 -0.0001516248 -0.0017703612 0.017688777 -0.01148603 -0.0024536813 -0.007570152
-0.01424927 -0.004368634 -0.00039874032 -0.0011672502 0.004249064 -0.0032362528 -0.013907184 0.011506662
0.0071160197 -0.0077171805 -0.0064054118 0.013833678 0.004961076 -0.003366931 0.013587019 0.0052028145
0.0035259605 -0.0061729313 -0.0064742053 0.011390755 0.007755168 -0.0060883723 -0.008644895 0.008073221
0.009203437 0.0007887638 0.008772235 0.0010697547 -0.00736056 -0.007839059 -0.0061772964 -0.02344498
-0.006450075 0.01805072 0.004845185 4.2281317e-05 0.002274401 0.0045720004 -0.006564021 -0.010477883
0.0056698406 -0.0042410786 0.013870599 -0.009842198 -0.001968767 0.0039814254 0.00033796226 0.002062768
-0.0029912936 0.007742934 -0.0025350102 0.0054931403 0.005244549 -0.002792782 0.0037026808 -0.007994655
-0.025532717 -0.00893378 0.009809765 0.007957632 0.0069978214 0.008758101 -0.009996973 -0.006556829
0.009059086 0.0037419759 0.0063962154 -0.00039362992 -0.013747602 0.0017376554 -0.0021321035 -0.004631913
-0.007635479 0.00043806975 -0.008868724 0.002862933 0.014019138 0.0025044007 -0.0048777326 0.00428306
-0.0013599502 -0.009420114 0.014946696 -0.00024064924 0.0059799114 0.0056719496 0.0024875624 0.009116045
-0.0093897665 0.0015750809 -0.0073646354 0.012473096 -0.018967476 -0.008973241 0.008261084 -0.0098611405
-0.0025705057 0.0008896134 -0.0034465536 0.00012593216 -0.001981958 -0.0053513036 -0.0023051568 0.008692007
-0.0014636781 0.0004695109 -0.01143492 0.014533346 -0.008827594 0.003013955 0.006246666 -0.004431046
0.0017038089 -4.265348e-05 0.005365483 0.0119669875 -0.007753027 0.013520302 0.0021962428 -0.0018699564
-0.020015232 -0.014321714 -0.0030264407 0.005082119 -0.010336804 0.009435341 -0.009698848 0.0013033164
0.0102159465 0.0023662616 0.008450241 0.011425218 0.022619983 0.011811132 -0.005378769 0.002769624
-0.009165086 -0.004576991 0.0052712816 0.00012108578 -0.009475255 -0.0045583523 0.008601594 -0.0023555248
0.0026209152 -0.00014533247 0.0014930972 -0.010677605 0.0014547762 -0.0027862096 0.011895166 0.008220989
-0.0039662845 -0.006168243 0.013036151 0.011994661 0.005678948 0.00040503193 -0.0007891275 0.0074241892
-0.003925104 -0.006859855 -0.0060463576 0.0053613293 -0.014757353 0.0006622582 0.0071593868 0.0020850634
-0.008180663 0.005627093 0.0147788245 -0.0041883104 -0.013914429 0.009256853 0.008688777 0.0021602928
0.0101642655 -0.0082131615 -0.004690724 -0.002954357 -0.009785756 0.012339465 -0.0026342701 -0.0034750064
0.0041335574 0.012847765 0.0017481933 0.01296813 -0.007734678 0.008392662 0.012648917 0.0043763774
0.0007131299 -0.0050146305 0.0039107264 0.010937195 -0.0081374645 0.017037863 0.007864573 0.0125536
0.004167 -0.009850592 -0.028657435 0.008137466 0.00013420545 0.008172049 0.020000499 -0.015529017
0.0018224977 -0.0056159995 0.0061072283 -0.008106701 -0.0032791514 0.007191571 0.00048117407 0.013487157
00000000: a352 4ebc 8d5e 5a3b 2845 273c 972d 99bb
00000010: 57be 25bb a71f 46bb c845 ee3a c0f2 72bc
00000020: 2227 17bc 58a9 bd3a bf1d 2fbc 1bd3 a43c
00000030: cfaf 8d3c 8a09 5abc 27de 06bc b9f2 203c
00000040: bf04 32bc da01 e63a 8558 a7ba df48 bbbb
00000050: 0b0e a63a 31c7 00bc 0367 6abc 659e 41bb
00000060: 5d04 61bb fb51 003c 7bab 84bb e5fa d3bb
00000070: 07e4 3dbb 38f0 61bc a0ac 173a 6d0c 91bb
00000080: 05c3 783b f5d5 b1bb 79fd 1eb9 770b e8ba
00000090: 0ee8 903c e72f 3cbc f1cd 20bb 0a0f f8bb
000000a0: c575 69bc c226 8fbb 050e d1b9 6bfe 98ba
000000b0: bb3b 8b3b 5017 54bb f5da 63bc 7086 3c3c
000000c0: 802d e93b 67e0 fcbb 7de4 d1bb a7a6 623c
000000d0: 8690 a23b bba7 5cbb 179c 5e3c 5f7c aa3b
000000e0: cd13 673b 4d46 cabb 9225 d4bb 4aa0 3a3c
000000f0: 101f fe3b f880 c7bb 51a3 0dbc 8b45 043c
00000100: 03ca 163c 0bc5 4e3a 6cb9 0f3c 0337 8c3a
00000110: da30 f1bb 666f 00bc eb6a cabb b00f c0bc
00000120: 275b d3bb 1bdf 933c 5cc4 9e3b 3857 3138
00000130: 1e0e 153b b8d0 953b 0017 d7bb 6dab 2bbc
00000140: 12ca b93b bff8 8abb 8241 633c 2c41 21bc
00000150: 6e06 01bb 9e76 823b 8730 b139 812f 073b
00000160: 9409 44bb 70b8 fd3b 6a22 26bb cdff b33b
00000170: 77da ab3b 1b07 37bb ada8 723b 03fc 02bc
00000180: fd29 d1bc fd5e 12bc 23b9 203c ba60 023c
00000190: fb4d e53b 237e 0f3c 58ca 23bc abda d6bb
000001a0: 906c 143c f03b 753b 5897 d13b 1d60 ceb9
000001b0: 9f3d 61bc 0ac2 e33a c3ba 0bbb 4dc7 97bb
000001c0: 0a33 fabb baac e539 204e 11bc 0ca0 3b3b
000001d0: 87b0 653c df20 243b 63d5 9fbb e958 8c3b
000001e0: 5b40 b2ba d256 1abc fde2 743c ca56 7cb9
000001f0: 22f3 c33b c3db b93b 5f06 233b 775b 153c
00000200: 89d7 19bc f272 ce3a 0a53 f1bb f55b 4c3c
00000210: ae61 9bbc 8004 13bc 7f59 073c 9f90 21bc
00000220: ee75 28bb f234 693a 93df 61bb a80c 0439
00000230: bde3 01bb fd59 afbb 1d12 17bb eb68 0e3c
00000240: e3d8 bfba b028 f639 8859 3bbc 451d 6e3c
00000250: 9da1 10bc c685 453b d5b0 cc3b 4f32 91bb
00000260: 5752 df3a d3e6 32b8 efd0 af3b 2f11 443c
00000270: 1b0d febb 4284 5d3c d7ee 0f3b 5319 f5ba
00000280: fcf6 a3bc 9fa5 6abc 4057 46bb e787 a63b
00000290: b35b 29bc b096 1a3c ebe7 1ebc 0bd4 aa3a
000002a0: c960 273c 4813 1b3b e172 0a3c d630 3b3c
000002b0: 8b4d b93c 7a83 413c 6240 b0bb 9582 353b
000002c0: 2829 16bc 95fa 95bb b7ba ac3b 6fef fd38
000002d0: 1a3e 1bbc 3b5e 95bb b3ed 0c3c 265f 1abb
000002e0: a9c3 2b3b 6364 18b9 07b4 c33a 1ff1 2ebc
000002f0: 30ae be3a d798 36bb f1e3 423c 54b1 063c
00000300: 9bf7 81bb f91e cabb 9595 553c 4185 443c
00000310: 7816 ba3b 775a d439 73dd 4eba 9d46 f33b
00000320: 299e 80bb a2c8 e0bb 8620 c6bb 17ae af3b
00000330: d3c8 71bc 659b 2d3a 4a99 ea3b 8fa5 083b
00000340: 3008 06bc 7a63 b83b e222 723c 183e 89bb
00000350: 58f9 63bc 0eaa 173c 5f5b 0e3c b393 0d3b
00000360: 0588 263c 7f90 06bc a5b4 99bb e39d 41bb
00000370: 6f54 20bc 782b 4a3c b8a3 2cbb efbc 63bb
00000380: cb72 873b 6f7f 523c a223 e53a 4878 543c
00000390: 2f73 fdbb 6081 093c 673d 4f3c b767 8f3b
000003a0: 56f1 3a3a c551 a4bb 8d25 803b ec31 333c
000003b0: 0053 05bc fd92 8b3c 69da 003c 9dad 4d3c
000003c0: 548b 883b 6164 21bc ffc2 eabc 0253 053c
000003d0: 80b9 0c39 0fe4 053c 16d8 a33c 6b6d 7ebc
000003e0: e0e0 ee3a 6b06 b8bb 251f c83b f8d1 04bc
000003f0: 08e7 56bb 45a7 eb3b 1746 fc39 3df9 5c3c

network_body.linear_encoder.seq_layers.0.bias f4 [128]
0.0 0.0 0.0 0.0 0.0 0.0 0.0 0.0
0.0 0.0 0.0 0.0 0.0 0.0 0.0 0.0
0.0 0.0 0.0 0.0 0.0 0.0 0.0 0.0
0.0 0.0 0.0 0.0 0.0 0.0 0.0 0.0
0.0 0.0 0.0 0.0 0.0 0.0 0.0 0.0
0.0 0.0 0.0 0.0 0.0 0.0 0.0 0.0
0.0 0.0 0.0 0.0 0.0 0.0 0.0 0.0
0.0 0.0 0.0 0.0 0.0 0.0 0.0 0.0
0.0 0.0 0.0 0.0 0.0 0.0 0.0 0.0
0.0 0.0 0.0 0.0 0.0 0.0 0.0 0.0
0.0 0.0 0.0 0.0 0.0 0.0 0.0 0.0
0.0 0.0 0.0 0.0 0.0 0.0 0.0 0.0
0.0 0.0 0.0 0.0 0.0 0.0 0.0 0.0
0.0 0.0 0.0 0.0 0.0 0.0 0.0 0.0
0.0 0.0 0.0 0.0 0.0 0.0 0.0 0.0
0.0 0.0 0.0 0.0 0.0 0.0 0.0 0.0
00000000: 0000 0000 0000 0000 0000 0000 0000 0000
00000010: 0000 0000 0000 0000 0000 0000 0000 0000
00000020: 0000 0000 0000 0000 0000 0000 0000 0000
00000030: 0000 0000 0000 0000 0000 0000 0000 0000
00000040: 0000 0000 0000 0000 0000 0000 0000 0000
00000050: 0000 0000 0000 0000 0000 0000 0000 0000
00000060: 0000 0000 0000 0000 0000 0000 0000 0000
00000070: 0000 0000 0000 0000 0000 0000 0000 0000
00000080: 0000 0000 0000 0000 0000 0000 0000 0000
00000090: 0000 0000 0000 0000 0000 0000 0000 0000
000000a0: 0000 0000 0000 0000 0000 0000 0000 0000
000000b0: 0000 0000 0000 0000 0000 0000 0000 0000
000000c0: 0000 0000 0000 0000 0000 0000 0000 0000
000000d0: 0000 0000 0000 0000 0000 0000 0000 0000
000000e0: 0000 0000 0000 0000 0000 0000 0000 0000
000000f0: 0000 0000 0000 0000 0000 0000 0000 0000
00000100: 0000 0000 0000 0000 0000 0000 0000 0000
00000110: 0000 0000 0000 0000 0000 0000 0000 0000
00000120: 0000 0000 0000 0000 0000 0000 0000 0000
00000130: 0000 0000 0000 0000 0000 0000 0000 0000
00000140: 0000 0000 0000 0000 0000 0000 0000 0000
00000150: 0000 0000 0000 0000 0000 0000 0000 0000
00000160: 0000 0000 0000 0000 0000 0000 0000 0000
00000170: 0000 0000 0000 0000 0000 0000 0000 0000
00000180: 0000 0000 0000 0000 0000 0000 0000 0000
00000190: 0000 0000 0000 0000 0000 0000 0000 0000
000001a0: 0000 0000 0000 0000 0000 0000 0000 0000
000001b0: 0000 0000 0000 0000 0000 0000 0000 0000
000001c0: 0000 0000 0000 0000 0000 0000 0000 0000
000001d0: 0000 0000 0000 0000 0000 0000 0000 0000
000001e0: 0000 0000 0000 0000 0000 0000 0000 0000
000001f0: 0000 0000 0000 0000 0000 0000 0000 0000

network_body.linear_encoder.seq_layers.0.weight f4 [128, 24]
0.109725215 -0.2139432 -0.16554438 -0.062390145 0.049409878 -0.28154236 -0.07252279 -0.029890886
-0.06752409 -0.00047016048 -0.105179064 -0.2898671 -0.041662987 0.09288936 0.020358415 0.024811335
-0.03788164 0.02636811 -0.45025152 -0.17930114 0.28433818 0.3176463 0.28692508 0.31500536
0.07036422 0.021510543 -0.10548132 -0.23343019 -0.33612037 -0.18390676 -0.21334946 -0.0055873026
0.4157052 -0.02818731 -0.044546753 0.068763815 0.16778122 0.27761447 -0.108986795 -0.062738284
-0.01588676 -0.08213495 0.20913018 0.16047587 -0.2309601 0.19887322 0.20482542 -0.076166384
0.22004867 -0.0038924657 0.3326861 0.18263963 0.023933353 0.0032885673 -0.28285593 -0.32967886
-0.15301359 -0.13817577 0.0049251583 -0.091133095 -0.2854956 -0.042467568 -0.060633905 0.24613383
-0.015362467 -0.21206442 0.027199546 -0.21064113 0.0050948397 -0.42533138 -0.09069097 0.1639453
0.20149736 0.13474388 -0.16103293 -0.36223376 -0.21905635 -0.14768761 -0.1279632 -0.18326367
-0.24008152 0.5673741 0.086112134 -0.28407216 -0.046083607 -0.20935634 -0.21274994 -0.06274241
0.07036289 -0.03621054 0.20280659 0.16080108 -0.1223215 -0.22257945 -0.11529641 0.123312175
0.18275695 0.088414006 -0.05779913 -0.33421376 -0.1484647 0.23750749 -0.16714473 0.087159626
0.40439963 -0.26901224 0.3858173 0.15094468 -0.22490194 0.14609258 0.25139493 0.30886424
-0.021684704 0.14184444 0.10401772 -0.15486896 -0.049783953 0.21045847 0.089089125 0.24152525
-0.27120465 -0.19908383 0.12619461 -0.00028779672 0.059037287 0.2730259 -0.3409599 -0.5928988
0.014837607 0.13912277 -0.022875752 0.054146558 0.24992634 0.023529993 -0.001192825 0.023565397
-0.11866191 -0.22327255 -0.4670268 0.04935137 -0.098555885 0.36565918 0.03203024 -0.040970765
0.06020646 0.04140801 -0.06604232 -0.25092882 -0.45672575 -0.081621476 0.12914975 0.01351425
-0.053193703 -0.05201967 0.14644368 0.016293183 0.1305581 0.06998192 -0.298873 -0.06359662
0.088304274 0.06136444 -0.18802516 0.18259971 0.18038546 0.045756843 0.20105812 -0.195119
0.28953147 -0.22424749 -0.26767662 0.020483114 -0.074994564 0.018987685 -0.15803267 0.43334344
-0.12772226 0.044550337 0.12018526 -0.1598457 -0.002703373 -0.026460288 -0.081400454 0.29642043
-0.03715579 -0.21775633 -0.18748891 -0.27038068 0.19566344 -0.08643368 0.083079256 -0.47516736
0.33427897 0.18696158 0.091380775 0.23221672 0.1868176 0.17668507 0.1976467 0.012773587
0.043533143 0.09205369 -0.094081014 0.0017522401 -0.048515726 -0.060077354 -0.20166217 -0.003642541
-0.18015362 -0.052325696 0.15878576 0.051370893 0.03901212 -0.027717018 -0.14788535 -0.26174617
0.24838002 -0.37094802 -0.13783692 0.11548531 0.10242968 -0.15438537 -0.21949662 0.17884119
-0.002836089 0.15337339 -0.12949663 -0.32822818 0.018421402 -0.18655518 -0.39836413 -0.19161794
-0.41875872 0.14146145 0.18450426 -0.21379946 0.20606193 -0.24568225 0.25168514 -0.32390758
0.25232697 -0.30364195 -0.061353434 -0.046686027 -0.08374039 0.044167317 0.4171007 0.17886576
-0.000610455 0.14616342 0.001813843 0.19539411 -0.19814283 0.004874305 0.14778575 -0.11394812
00000000: 9db7 e03d ed13 5bbe 7784 29be cf8c 7fbd
00000010: 0362 4a3d 5226 90be d486 94bd bbdd f4bc
00000020: 124a 8abd df7f f6b9 1f68 d7bd 7669 94be
00000030: cfa6 2abd c73c be3d b1c6 a63c 2441 cb3c
00000040: c729 1bbd ef01 d83c 5e87 e6be b89a 37be
00000050: c694 913e 89a2 a23e d8e7 923e 6248 a13e
00000060: 1e1b 903d e136 b03c 9706 d8bd 5308 6fbe
00000070: f817 acbe 0e52 3cbe 4878 5abe b115 b7bb
00000080: 50d7 d43e 13e9 e6bc a876 36bd 0bd4 8c3d
00000090: d7ce 2b3e 7c23 8e3e 7834 dfbd ee7c 80bd
000000a0: f324 82bc 5e36 a8bd 3926 563e c953 243e
000000b0: ce80 6cbe 6ca5 4b3e c1bd 513e 1ffd 9bbd
000000c0: 7054 613e bd18 7fbb d555 aa3e e205 3b3e
000000d0: e10f c43c 0185 573b 7ed2 90be abcb a8be
000000e0: 98af 1cbe f37d 0dbe 3963 a13b fda3 babd
000000f0: 7b2c 92be 79f2 2dbd 425b 78bd 820a 7c3e
00000100: dbb2 7bbc 6a27 59be 95d1 de3c 4fb2 57be
00000110: 9df2 a63b 09c5 d9be 30bc b9bd 47e1 273e
00000120: 5355 4e3e 4dfa 093e d1e5 24be b476 b9be
00000130: 4f50 60be 6c3b 17be c908 03be 79a9 3bbe
00000140: eed7 75be 6e3f 113f 8f5b b03d e871 91be
00000150: 2ac2 3cbd 8261 56be 1fdb 59be 187f 80bd
00000160: 6b1a 903d 8151 14bd 88ac 4f3e 0aa9 243e
00000170: b283 fabd deeb 63be 8620 ecbd 188b fc3d
00000180: a324 3b3e 6712 b53d c8be 6cbd 111e abbe
00000190: 2107 18be 2a35 733e fd27 2bbe bf80 b23d
000001a0: 780d cf3e f9bb 89be d889 c53e 3e91 1a3e
000001b0: b24c 66be 4b99 153e d6b6 803e 7423 9e3e
000001c0: 1fa4 b1bc ab3f 113e 3e07 d53d f895 1ebe
000001d0: 42ea 4bbd 6d82 573e 5c74 b63d 6552 773e
000001e0: 56db 8abe a2dc 4bbe 2939 013e 6ce3 96b9
000001f0: 15d1 713d 0dca 8b3e 4c92 aebe 37c8 17bf
00000200: 6f19 733c 3376 0e3e ee65 bbbc c8c8 5d3d
00000210: b1ec 7f3e f9c1 c03c 9158 9cba 380c c13c
00000220: 0405 f3bd 8fa1 64be 231e efbe aa24 4a3d
00000230: abd7 c9bd ae37 bb3e 2432 033d f6d0 27bd
00000240: 0d9b 763d 729b 293d 3241 87bd be79 80be
00000250: f5d7 e9be 2929 a7bd d53f 043e df6a 5d3c
00000260: a4e1 59bd 9412 55bd 55f5 153e 4879 853c
00000270: 06b1 053e ae52 8f3d e205 99be f23e 82bd
00000280: dfd8 b43d 4759 7b3d ab89 40be 6bfb 3a3e
00000290: f7b6 383e 876b 3b3d 2ee2 4d3e 46cd 47be
000002a0: 783d 943e 22a1 65be e90c 89be 34cc a73c
000002b0: c096 99bd 108c 9b3c 51d3 21be 31df dd3e
000002c0: a0c9 02be 6a7a 363d b123 f63d 97ae 23be
000002d0: 132b 31bb 3fc3 d8bc 48b5 a6bd 6bc4 973e
000002e0: ab30 18bd 84fb 5ebe 18fd 3fbe 566f 8abe
000002f0: ff5b 483e 2404 b1bd 7525 aa3d 2349 f3be
00000300: 9d26 ab3e db72 3f3e d825 bb3d 38ca 6d3e
00000310: 1d4d 3f3e eeec 343e e663 4a3e 4f48 513c
00000320: cf4f 323d a586 bc3d 8cad c0bd 6cab e53a
00000330: 6db8 46bd ac13 76bd 8780 4ebe b2b7 6ebb
00000340: 317a 38be 7853 56bd bc98 223e 496a 523d
00000350: 2ccb 1f3d cd0e e3bc 426f 17be 9803 86be
00000360: 5557 7e3e e6ec bdbe 1f25 0dbe 9083 ec3d
00000370: a7c6 d13d 3317 1ebe b9c3 60be 2522 373e
00000380: aedd 39bb ea0d 1d3e c49a 04be 860d a8be
00000390: 7be8 963c 5208 3fbe 62f6 cbbe 7e37 44be
000003a0: 8b67 d6be 45db 103e afee 3c3e 3fee 5abe
000003b0: e601 533e 2194 7bbe e0dc 803e 37d7 a5be
000003c0: 0031 813e f576 9bbe bd4d 7bbd d939 3fbd
000003d0: 1580 abbd cae8 343d 398e d53e 9628 373e
000003e0: f106 20ba ddab 153e 79be ed3a 6515 483e
000003f0: f4e5 4abe a2b8 9f3b 2655 173e a25d e9bd

network_body.linear_encoder.seq_layers.2.bias f4 [128]
0.0 0.0 0.0 0.0 0.0 0.0 0.0 0.0
0.0 0.0 0.0 0.0 0.0 0.0 0.0 0.0
0.0 0.0 0.0 0.0 0.0 0.0 0.0 0.0
0.0 0.0 0.0 0.0 0.0 0.0 0.0 0.0
0.0 0.0 0.0 0.0 0.0 0.0 0.0 0.0
0.0 0.0 0.0 0.0 0.0 0.0 0.0 0.0
0.0 0.0 0.0 0.0 0.0 0.0 0.0 0.0
0.0 0.0 0.0 0.0 0.0 0.0 0.0 0.0
0.0 0.0 0.0 0.0 0.0 0.0 0.0 0.0
0.0 0.0 0.0 0.0 0.0 0.0 0.0 0.0
0.0 0.0 0.0 0.0 0.0 0.0 0.0 0.0
0.0 0.0 0.0 0.0 0.0 0.0 0.0 0.0
0.0 0.0 0.0 0.0 0.0 0.0 0.0 0.0
0.0 0.0 0.0 0.0 0.0 0.0 0.0 0.0
0.0 0.0 0.0 0.0 0.0 0.0 0.0 0.0
0.0 0.0 0.0 0.0 0.0 0.0 0.0 0.0
00000000: 0000 0000 0000 0000 0000 0000 0000 0000
00000010: 0000 0000 0000 0000 0000 0000 0000 0000
00000020: 0000 0000 0000 0000 0000 0000 0000 0000
00000030: 0000 0000 0000 0000 0000 0000 0000 0000
00000040: 0000 0000 0000 0000 0000 0000 0000 0000
00000050: 0000 0000 0000 0000 0000 0000 0000 0000
00000060: 0000 0000 0000 0000 0000 0000 0000 0000
00000070: 0000 0000 0000 0000 0000 0000 0000 0000
00000080: 0000 0000 0000 0000 0000 0000 0000 0000
00000090: 0000 0000 0000 0000 0000 0000 0000 0000
000000a0: 0000 0000 0000 0000 0000 0000 0000 0000
000000b0: 0000 0000 0000 0000 0000 0000 0000 0000
000000c0: 0000 0000 0000 0000 0000 0000 0000 0000
000000d0: 0000 0000 0000 0000 0000 0000 0000 0000
000000e0: 0000 0000 0000 0000 0000 0000 0000 0000
000000f0: 0000 0000 0000 0000 0000 0000 0000 0000
00000100: 0000 0000 0000 0000 0000 0000 0000 0000
00000110: 0000 0000 0000 0000 0000 0000 0000 0000
00000120: 0000 0000 0000 0000 0000 0000 0000 0000
00000130: 0000 0000 0000 0000 0000 0000 0000 0000
00000140: 0000 0000 0000 0000 0000 0000 0000 0000
00000150: 0000 0000 0000 0000 0000 0000 0000 0000
00000160: 0000 0000 0000 0000 0000 0000 0000 0000
00000170: 0000 0000 0000 0000 0000 0000 0000 0000
00000180: 0000 0000 0000 0000 0000 0000 0000 0000
00000190: 0000 0000 0000 0000 0000 0000 0000 0000
000001a0: 0000 0000 0000 0000 0000 0000 0000 0000
000001b0: 0000 0000 0000 0000 0000 0000 0000 0000
000001c0: 0000 0000 0000 0000 0000 0000 0000 0000
000001d0: 0000 0000 0000 0000 0000 0000 0000 0000
000001e0: 0000 0000 0000 0000 0000 0000 0000 0000
000001f0: 0000 0000 0000 0000 0000 0000 0000 0000

network_body.linear_encoder.seq_layers.2.weight f4 [128, 128]
0.1478843 -0.05703437 -0.15933181 0.1761623 0.097865015 -0.013709532 0.00031665017 -0.0033096105
-0.19540071 -0.1871837 -0.12727714 -0.1411663 -0.047203198 0.03344992 -0.0132363755 -0.0016093636
-0.057415724 0.10608488 -0.019924719 0.104017384 -0.046572395 0.07783912 0.029627783 0.12133545
-0.098818734 0.026064968 -0.12924735 -0.046463374 -0.025093662 0.06936788 0.2184368 0.07601557
0.052816935 -0.018789276 0.08091334 -0.055279195 0.056005955 0.02604016 -0.074382454 0.08179824
-0.018397273 -0.09687782 0.08950397 -0.07553668 0.14446364 0.06283076 -0.009337772 -0.08356707
-0.08776956 -0.07383977 0.015290991 -0.004952289 0.031148447 0.04456441 -0.038771156 -0.040338825
0.009505529 -0.09686992 0.07091253 0.10322999 0.18832225 -0.047781527 0.011322596 0.010982164
0.0078346785 -0.015065384 -0.06530638 0.19558287 -0.09543168 0.08658439 0.12681052 -0.041841537
-0.06315482 -0.21232234 -0.17763883 -0.00832379 0.19706044 -0.09948599 -0.061260656 -0.059449747
0.122440375 -0.090232566 0.041980553 0.019998912 -0.009759283 0.07719452 0.11046343 -0.067277946
-0.14094415 -0.032860026 0.09987597 -0.18162975 -0.012444129 -0.08165171 -0.058397178 -0.054767832
-0.27189168 0.0071745184 0.14623256 -0.026225151 -0.042327818 0.004525606 0.0017545517 -0.189339
-0.17103662 0.03901065 -0.09740114 0.11215938 -0.13959104 0.15820971 -0.08521424 -0.033327363
-0.17479095 -0.023678549 0.031220127 0.01575328 0.0031016553 0.118345365 0.1773745 -0.13537575
0.14207058 -0.22200808 -0.106137834 -0.20053227 -0.0385417 0.025743041 0.063124955 0.16642442
-0.06264149 -0.029502327 -0.07635358 0.09004655 -0.10208251 -0.06442189 0.044459004 0.03941303
-0.056694843 -0.006344463 0.085274234 0.0018323258 0.18651356 0.13598706 0.004413044 0.09748397
0.06301791 -0.012986153 -0.07509247 -0.07146013 -0.009532713 -0.19965298 0.06768387 0.059742287
0.07160722 0.03291667 0.10654782 -0.10656678 -0.020401306 -0.050751485 0.15013681 -0.1803792
-0.16910923 0.07332519 -0.11817056 -0.059216175 0.10422386 -0.03752029 0.018853305 -0.0020477208
-0.05226648 0.004667898 0.03236973 0.09086714 0.2039506 -0.020792214 0.03079565 -0.096560165
-0.008067285 0.054884247 0.04585102 -0.11555193 -0.091201164 -0.004417182 0.0055673392 -0.039487667
-0.06137879 -0.017934581 0.011438286 0.07942138 -0.069998026 0.11643198 -0.011010578 -0.019222068
0.05772474 0.25034136 -0.056773964 0.10709327 0.13992096 0.060053874 -0.16916606 0.010204664
-0.04944749 0.06553709 -0.032346085 0.11375725 -0.10819323 0.2059261 -0.010497687 -0.15575255
-0.1870312 0.01681083 -0.033766676 0.013653089 -0.10249334 -0.048967503 0.06550596 -0.16482995
-0.09966484 0.022340322 -0.032596763 -0.05619271 -0.03814217 0.08952573 -0.069264054 -0.120649874
-0.110679686 0.037073452 -0.02989412 0.03714361 0.0056959656 0.03434125 0.20571339 0.060810216
-0.048887767 0.045074213 0.018127413 0.07341966 0.004368666 0.0027107617 -0.056232203 0.0043481523
-0.049780473 0.132803 0.1369571 0.120499514 -0.035317134 0.03683922 0.12711512 -0.06490644
-0.015635855 0.0017540298 -0.13517275 -0.09585973 -0.13331002 0.1498801 0.14061801 -0.0293734
00000000: fb6e 173e df9c 69bd e127 23be e463 343e
00000010: 746d c83d f29d 60bc 1104 a639 0de6 58bb
00000020: 2017 48be 15ad 3fbe f054 02be e68d 10be
00000030: 2458 41bd c902 093d 62dd 58bc 48f1 d2ba
00000040: c02c 6bbd 0843 d93d 2a39 a3bc 1107 d53d
00000050: b2c2 3ebd 1e6a 9f3d f7b5 f23c b87e f83d
00000060: 7a61 cabd 3386 d53c 6b59 04be 6150 3ebd
00000070: 3991 cdbc bf10 8e3d e6ad 5f3e 0dae 9b3d
00000080: 9256 583d f8eb 99bc e5b5 a53d 706c 62bd
00000090: 8066 653d 2c52 d53c d455 98bd d685 a73d
000000a0: e1b5 96bc e167 c6bd dc4d b73d fab2 9abd
000000b0: 47ee 133e 6aad 803d 74fd 18bc 3625 abbd
000000c0: 87c0 b3bd 4e39 97bd 1187 7a3c d046 a2bb
000000d0: 072b ff3c 2c89 363d 81ce 1ebd 533a 25bd
000000e0: 14bd 1b3c bd63 c6bd 973a 913d 3f6a d33d
000000f0: 8cd7 403e 90b6 43bd 6982 393c 89ee 333c
00000100: 065d 003c cdd4 76bc 5abf 85bd e046 483e
00000110: af71 c3bd 2853 b13d 9eda 013e 0862 2bbd
00000120: 5057 81bd 076b 59be f4e6 35be 8160 08bc
00000130: 36ca 493e 50bf cbbd 74ec 7abd 9481 73bd
00000140: 05c2 fa3d dacb b8bd cdf3 2b3d c2d4 a33c
00000150: 66e5 1fbc 2918 9e3d a73a e23d 05c9 89bd
00000160: aa53 10be 3c98 06bd c68b cc3d 26fd 39be
00000170: 76e2 4bbc 0339 a7bd e131 6fbd 3c54 60bd
00000180: 6335 8bbe 3918 eb3b fdbd 153e 21d6 d6bc
00000190: ef5f 2dbd 894b 943b fcf8 e53a 15e2 41be
000001a0: 3924 2fbe a2c9 1f3d 407a c7bd d1b3 e53d
000001b0: f4f0 0ebe ba01 223e ce84 aebd 4682 08bd
000001c0: 66fc 32be 84f9 c1bc 5ac1 ff3c 060d 813c
000001d0: 2445 4b3b 0e5f f23d a9a1 353e f19f 0abe
000001e0: f37a 113e 1656 63be cb5e d9bd 5558 4dbe
000001f0: e7dd 1dbd 12e3 d23c a847 813d 2a6b 2a3e
00000200: 2e4a 80bd ddae f1bc 445f 9cbd 536a b83d
00000210: a310 d1bd a0ef 83bd a51a 363d 8f6f 213d
00000220: da38 68bd 37e5 cfbb 42a4 ae3d a72a f03a
00000230: 69fd 3e3e 3140 0b3e 4c9b 903b ada5 c73d
00000240: 890f 813d e0c3 54bc 15ca 99bd b059 92bd
00000250: 192f 1cbc d571 4cbe d79d 8a3d 54b4 743d
00000260: cea6 923d a1d3 063d be35 da3d af3f dabd
00000270: a420 a7bc cae0 4fbd 77bd 193e 53b5 38be
00000280: f82a 2dbe 842b 963d 6803 f2bd a98c 72bd
00000290: 5273 d53d e0ae 19bd 3f72 9a3c 0e33 06bb
000002a0: 6015 56bd 2bf5 983b 1f96 043d 8d18 ba3d
000002b0: 6dd8 503e 6f54 aabc 2947 fc3c 56c1 c5bd
000002c0: a52c 04bc 4ece 603d 47ce 3b3d 7ea6 ecbd
000002d0: adc7 babd 02be 90bb 3a6e b63b d2bd 21bd
000002e0: 5368 7bbd 8beb 92bc a667 3b3c ada7 a23d
000002f0: 205b 8fbd e473 ee3d b665 34bc 9977 9dbc
00000300: c770 6c3d be2c 803e d18b 68bd b753 db3d
00000310: 7147 0f3e 0dfb 753d de39 2dbe 7731 273c
00000320: 7489 4abd 4f38 863d 547d 04bd 90f9 e83d
00000330: 6a94 ddbd 4bde 523e 7efe 2bbc 997d 1fbe
00000340: 1b85 3fbe deb6 893c ed4e 0abd 35b1 5f3c
00000350: 07e8 d1bd 2692 48bd fd27 863d 2fc9 28be
00000360: 141d ccbd 0d03 b73c 2f84 05bd 542a 66bd
00000370: f73a 1cbd 4459 b73d 50da 8dbd 4817 f7bd
00000380: 08ac e2bd 55da 173d 83e4 f4bc e623 183d
00000390: 39a5 ba3b 69a9 0c3d 88a6 523e 2214 793d
000003a0: 8a3e 48bd bd9f 383d f17f 943c 0c5d 963d
000003b0: 0727 8f3b 09a7 313b bd53 66bd f27a 8e3b
000003c0: 9ce6 4bbd 82fd 073e 7b3e 0c3e 73c8 f63d
000003d0: b3a8 10bd b9e4 163d 772a 023e abed 84bd
000003e0: c416 80bc 79e7 e53a ba6a 0abe 1b52 c4bd
000003f0: 6c82 08be 2b7a 193e 2bfe 0f3e 7ca0 f0bc

network_body.processors.0.normalizer.running_mean f4 [24]
0.0 0.0 0.0 0.0 0.0 0.0 0.0 0.0
0.0 0.0 0.0 0.0 0.0 0.0 0.0 0.0
0.0 0.0 0.0 0.0 0.0 0.0 0.0 0.0
00000000: 0000 0000 0000 0000 0000 0000 0000 0000
00000010: 0000 0000 0000 0000 0000 0000 0000 0000
00000020: 0000 0000 0000 0000 0000 0000 0000 0000
00000030: 0000 0000 0000 0000 0000 0000 0000 0000
00000040: 0000 0000 0000 0000 0000 0000 0000 0000
00000050: 0000 0000 0000 0000 0000 0000 0000 0000
