mlagentlearn/results/02Run/airHockey/airHockey-17358.pt (torch, 501081 bytes, 39 tensors)

network_body.linear_encoder.seq_layers.0.weight f4 [128, 24]
000000 6c 8f 0c 3d 8c 09 2e bd 28 8a 22 be 8f ba 61 bd
       0.034316465 -0.042489573 -0.15873015 -0.055109557
000010 40 f8 34 3e 30 82 80 3e cb db 2b 3e a3 7a 81 3e
       0.17672825 0.25099325 0.16783063 0.25288877
000020 47 81 f0 bd 03 f4 db 3e 9c 68 12 bd ba d5 db 3d
       -0.11743408 0.42959604 -0.035744295 0.107341245
000030 54 ca cb 3d 47 8a ee 3d 2c bb 12 be 65 b6 99 3d
       0.099507004 0.11647468 -0.14329213 0.07505492
000040 bf 62 ab be 2d 9a 00 bd 8d 0b 90 3d 9b 73 83 3d
       -0.33473775 -0.031397033 0.07033453 0.06418534
000050 b3 fd f1 bb e4 0f a2 3d 35 a3 fa bd 11 8e b1 3d
       -0.0073849796 0.07913187 -0.122381605 0.08669675
000060 8f 6f e0 3d 16 75 29 3e 02 92 9e bd ce f5 97 3d
       0.10958778 0.16548571 -0.077426925 0.074199304
000070 25 8f b9 be fc 8d 99 3d 63 50 32 3e ca 77 f1 bc
       -0.36242023 0.074977845 0.17413478 -0.029476065
000080 0a 10 23 3e 7a 6d b2 3c 2a b1 76 bc 56 75 3a 3e
       0.15924087 0.021780718 -0.015056888 0.18208823
000090 ff 22 58 3e 99 2f 7d be 03 01 a6 3e e1 b9 66 bd
       0.211071 -0.24725188 0.32422647 -0.05632961
0000a0 e0 7e 83 be 69 b8 89 3d cd 78 89 bc c7 ca 4d be
       -0.25682735 0.067246266 -0.016781235 -0.20096885
0000b0 f2 c7 f5 bd 75 63 af be 8e f0 ac 3d 72 91 34 3e
       -0.12001027 -0.34255567 0.0844432 0.17633608
0000c0 79 d7 1e 3e 0f fd 3f 3c 93 68 eb be 6a f6 14 be
       0.15511884 0.011718049 -0.4597822 -0.14547125
0000d0 3d fa 26 3e 5e 9e e7 3d 24 f3 70 3e 32 89 0f 3e
       0.16306396 0.11309503 0.23530251 0.1401718
0000e0 9d 8d bd 3d 5a 3b 30 bd 9f d0 02 3f 23 4a 97 be
       0.09255526 -0.043025352 0.5109958 -0.2954875
0000f0 28 5f 6f 3e f2 e2 e1 be 32 67 1b 3b c4 f3 6f be
       0.23376143 -0.44118458 0.0023712632 -0.23432833
000100 0c 62 f9 bd ac 9d 02 3e 3f 74 61 bc 3b ca a3 3d
       -0.12176904 0.1275546 -0.013760625 0.07997557
000110 fd 84 1f 3e 85 22 e7 bb ff a5 88 3d 82 12 29 3e
       0.15578075 -0.0070536756 0.06672286 0.16510966
000120 96 fa 91 3c 10 e1 f3 3d e2 6e 5b 3b 10 d8 e2 3e
       0.017819684 0.11908162 0.003348284 0.44305468
000130 f1 81 6e be 11 9c 1f be 04 1e 14 3e 92 ed b7 bd
       -0.23291756 -0.15586878 0.14464575 -0.0898086
000140 05 21 6b 3e 69 42 5d bd 23 09 ea be 0c 3c 00 be
       0.22961815 -0.05401841 -0.45710096 -0.12522906
000150 30 7a 93 bd 51 56 88 bd 6c 0a 5e be 75 c9 04 bf
       -0.0720104 -0.066570885 -0.21683663 -0.518699
000160 3e 3d 07 be f4 d8 06 3e 49 59 05 3e 44 08 81 be
       -0.13206956 0.13168699 0.13022341 -0.2520162
000170 f9 de 6b be ea 34 f6 bd d7 fe 86 3d 5c f5 77 bc
       -0.23034276 -0.12021811 0.065915756 -0.015134182
000180 ab 8a 70 be 55 f4 9e be 5d 2b 07 3e 54 77 00 3e
       -0.23490398 -0.31045786 0.13200136 0.1254552
000190 d1 b6 1d 3d 37 30 1e 3e e5 86 2a 3e 60 55 dc 3c
       0.038504425 0.1544808 0.1665302 0.026896179
0001a0 77 59 be 3d b7 f2 0a 3d de 9d 76 be b7 b9 17 3e
       0.09294408 0.033922877 -0.24083659 0.14816938
0001b0 85 51 3d bb db 31 67 3e 1a 04 a9 bd 91 23 ce bd
       -0.00288877 0.22577612 -0.082527354 -0.100653775
0001c0 13 49 71 be 96 2c 34 be 27 a2 a9 be a2 d9 5c 3d
       -0.23563032 -0.17595133 -0.33131525 0.05391849
0001d0 d9 3e ef bd 0f 6b 7b 3d 91 98 0c 3e 29 6b 6d 3d
       -0.11681909 0.061381396 0.13730074 0.057963524
0001e0 7a cd 82 3c d0 a7 d3 bd b0 48 c0 3d 12 3f b7 3a
       0.01596712 -0.10334742 0.09388864 0.0013980588
0001f0 94 63 45 bd 64 b6 0d 3e e1 ce b0 3d 4f 33 a6 3d
       -0.04819067 0.13839108 0.08633209 0.08115255
000200 32 35 94 be c9 5b 2f 3d b8 e2 c0 bc 49 56 4e be
       -0.28946835 0.042812143 -0.023545608 -0.20150103
000210 7e 19 c7 bd d7 e2 da bd a4 49 1b be 4c b0 f9 bd
       -0.09721659 -0.106877975 -0.1516481 -0.12191829
000220 32 39 78 3e 4c 33 7a be 6f 36 2d 3e fb 42 77 3e
       0.24240568 -0.2443363 0.16915296 0.24146645
000230 ee 05 6e 3e bd 88 80 be 7b 18 a6 3d 20 ce 4b bd
       0.2324445 -0.25104323 0.08110138 -0.049757123
000240 16 3c 58 be ec d5 20 be 3a 92 b4 3c a7 00 44 3e
       -0.21116671 -0.15706605 0.022042383 0.19140874
000250 55 b0 4b be e2 e5 01 3f 5a b6 86 bc 94 b3 0f bc
       -0.19891484 0.507414 -0.016444374 -0.008770842
000260 ed d8 a6 be 30 e7 88 3e 00 5c 4e bc e0 ce 2f be
       -0.32587376 0.26738882 -0.012595177 -0.1716876
000270 3e 12 3b be 75 00 94 3c 06 68 fe bc af 80 0e bd
       -0.18268678 0.018066624 -0.031055462 -0.03479069
000280 50 51 35 3e 58 67 60 be 9d 92 2e 3e 27 97 70 be
       0.177068 -0.21914423 0.17048116 -0.2349516
000290 1d a2 4a 3e 66 99 cc bd 02 d9 01 3e 34 2e b1 bd
       0.19788404 -0.09990196 0.12680438 -0.08651391
0002a0 d8 33 5f 3e ea 6b 17 bc 1a 98 4c 3c e1 47 00 be
       0.2179712 -0.009242037 0.012487436 -0.1252742
0002b0 6a df d6 3e 63 38 aa bd 0d cc 4f be 9f d9 b4 be
       0.41967326 -0.08311536 -0.20292683 -0.35322282
0002c0 b8 e5 a3 3d 7b 9f 9e 3e 4b f1 f3 bd d5 1a cb 3d
       0.080028 0.3098105 -0.11911257 0.09917227
0002d0 5e 05 8a 3e 2f a2 85 3e 20 b9 6a be 2b 55 2e be
       0.2695722 0.261003 -0.22922182 -0.17024677
0002e0 f1 08 71 be 08 97 8a be 3b b3 3b 3e 0c 37 7f 3e
       -0.23538567 -0.27068353 0.1833009 0.24923342
0002f0 ea df 20 be a8 66 ee 3e e3 9a 14 be 46 e1 ca 3c
       -0.15710416 0.46562696 -0.1451221 0.024765622
000300 a5 f1 25 3c e0 0e 32 be 52 23 a3 bd 1b d3 ea 3e
       0.010128413 -0.17388487 -0.07965721 0.45864186
000310 2f a2 6a be 70 f5 cf 3e d7 14 a8 3e af ca 3a be
       -0.2291343 0.4061694 0.328284 -0.1824138
000320 b0 8b 52 3e 4d ae 6f 3d 24 15 aa bd 1b 95 38 be
       0.20561099 0.058515836 -0.083048135 -0.18025629
000330 16 90 66 3e dc 83 a3 be e2 68 b8 bd f5 c7 e3 bc
       0.22515902 -0.31936538 -0.0900438 -0.027805308
000340 74 1e 83 bd 41 18 e0 bd 30 c3 38 be 14 fa 84 3d
       -0.06402293 -0.10942126 -0.18043208 0.06493011
000350 a0 63 e8 bd 9d b1 f4 3b 76 2e d1 3d 46 df a6 3e
       -0.11347127 0.007467462 0.1021394 0.3259222
000360 33 58 b9 3e cf ed 55 3d f9 7e de 3d a8 11 07 be
       0.36200103 0.052228745 0.10864062 -0.13190329
000370 19 d5 d2 3e 4c 7e b8 be 9b a3 f7 be 39 5a 60 be
       0.41178206 -0.36033857 -0.4836701 -0.21909417
000380 52 4e 12 3e 04 38 bf 3d c7 73 ad 3e 4a dd 02 3d
       0.1428769 0.09336856 0.33877394 0.03194932
000390 28 32 79 3e 6b f1 f4 3e 7c 70 87 3e a1 59 7a 3d
       0.2433554 0.47840437 0.26453006 0.061120633
0003a0 64 2d 2d be 7e 56 93 3e e6 3c 23 be 91 ae dc bd
       -0.16911846 0.28776926 -0.159412 -0.107754834
0003b0 f7 79 27 be ca b9 5f bd 8c ff ce 3d a0 6e d6 3d
       -0.1635512 -0.05462054 0.101073354 0.10470319
0003c0 f0 67 89 3e 08 d3 e4 3e 1a a8 c6 bd 06 7c 28 3e
       0.2683711 0.44692254 -0.097000316 0.16453561
0003d0 9f 6b 06 be b2 0f 20 3e 72 d3 81 3e d4 36 a3 bd
       -0.13126992 0.15630987 0.25356632 -0.07969442
0003e0 bf 48 49 3e 53 3b 44 3d 1a bd 4c 3d 6e 42 10 be
       0.19656657 0.04790814 0.04998503 -0.14087841
0003f0 ea 0a 78 be 9a 41 2c be 61 07 1b 3e 64 96 a5 3e
       -0.24222913 -0.168219 0.15139534 0.323413

network_body.linear_encoder.seq_layers.0.bias f4 [128]
000000 44 eb 8f bb 73 48 95 39 ca 76 d3 3a 74 0f d7 3a
       -0.0043920595 0.00028473474 0.0016133424 0.0016407804
000010 54 a4 09 3b 0a ce 0b b9 7a f1 46 3a a6 73 19 bb
       0.0021002488 -0.00013332829 0.00075890834 -0.002341488
000020 99 a2 b1 3a 89 15 58 3b 87 af e8 3a 63 11 78 38
       0.0013552486 0.003297182 0.0017752507 5.9144e-05
000030 ba 4c 41 3b 08 d7 d2 ba 89 80 38 bb b4 f7 54 ba
       0.0029495195 -0.0016085813 -0.0028152785 -0.0008124069
000040 09 9c b8 3a e2 33 a0 b8 ee 1d 55 ba c4 47 b8 3a
       0.0014084588 -7.6390585e-05 -0.0008129765 0.0014059474
000050 31 9d e8 3a 06 b9 88 bb 02 0a 11 ba 8a 08 ad ba
       0.0017747042 -0.004172447 -0.00055328023 -0.0013201397
000060 3e 7b 8e ba 14 44 7b 3b 05 6b 28 bb e5 8c 2b bb
       -0.0010870469 0.0038340138 -0.0025698554 -0.002617651
000070 fd ce e0 ba 82 9d 32 bb 97 60 e9 3a d0 2a b6 3b
       -0.0017151531 -0.0027254527 0.0017805275 0.005559303
000080 13 d0 51 ba 8d b7 81 bb 4a c9 8f 3a bc fc 02 3b
       -0.0008003723 -0.0039586485 0.0010970023 0.0019987067
000090 c7 e1 33 bb bc de 09 3b 19 a5 3d 3b 5a 5d 9a 3a
       -0.0027447806 0.00210373 0.0028937517 0.0011777089
0000a0 e8 04 4b 3a 67 a1 82 3b 50 d1 45 ba 11 43 25 3b
       0.00077445665 0.003986526 -0.00075461436 0.0025216977
0000b0 c4 51 48 bb 9b 08 80 bb ae 94 54 3a 4d 6e b0 ba
       -0.0030566314 -0.003907276 0.0008109313 -0.0013460607
0000c0 4f f1 ae 3b da cc 21 ba 00 99 9f 3b 5b 4c be 3a
       0.005338825 -0.0006172188 0.004870534 0.0014518605
0000d0 6e a2 4a 3b fb 4b 80 ba 7e 1d 11 3b e6 ff 53 3a
       0.003091957 -0.0009788269 0.0022142823 0.0008087143
0000e0 4c 69 b1 3a 31 2c 02 ba ba 04 fd 3a 6e 17 cf 3a
       0.0013535409 -0.00049656915 0.0019303777 0.0015799829
0000f0 a5 f5 ac 3b 75 b5 8c ba 98 c8 71 3a c0 d5 97 ba
       0.0052783065 -0.0010735231 0.0009223311 -0.0011584088
000100 ce 96 30 3b 74 4b 1f 3b ed 51 12 3a e8 f3 c7 3a
       0.0026945355 0.0024306448 0.0005581666 0.0015255185
000110 45 03 11 3b 35 c6 01 3b 36 ea da 3a 4e d9 00 bb
       0.0022127193 0.0019801978 0.001670188 -0.0019660774
000120 0d 62 47 3a 48 38 e3 3a 83 51 08 ba 00 a1 2d 3a
       0.0007605858 0.0017335499 -0.00052001345 0.0006623417
000130 58 0b 54 3b 46 6e a9 3b f3 8a d0 39 b7 2a 23 3a
       0.0032355394 0.0051706163 0.00039776377 0.00062243216
000140 50 b2 c6 b9 e3 41 60 3b 56 c3 5e bb 98 38 cc 3b
       -0.00037898356 0.003421896 -0.003399094 0.0062323324
000150 56 46 f3 3a a0 02 00 bb 8d ad d8 3a 6a 5e 41 bb
       0.001856039 -0.0019532815 0.0016531214 -0.0029505738
000160 61 53 c0 ba 7d 72 87 3a f6 85 c2 ba 84 20 90 3a
       -0.0014673286 0.0010333803 -0.0014840949 0.0010996019
000170 0e e5 8d bb 76 ed 53 3b f3 5a 12 3b 0f d0 0c bb
       -0.004330284 0.0032337583 0.0022332042 -0.0021486317
000180 70 f2 88 b9 ea 15 17 3b ca 63 3e ba 9e 04 46 bb
       -0.0002612057 0.0023053833 -0.00072627945 -0.0030215154
000190 2e 9a b5 3a 27 bf bd ba e4 23 84 ba dd 08 fb 3a
       0.0013855153 -0.0014476524 -0.0010081497 0.0019152422
0001a0 ed fa 80 3a dc d0 d0 3a 1c 47 af b9 22 59 1e 3b
       0.0009840407 0.0015931386 -0.00033431582 0.0024162014
0001b0 08 b3 d2 3a 0e 41 2d bb 99 4f ed ba a8 42 0b 3b
       0.0016075084 -0.002643648 -0.0018105387 0.0021249447
0001c0 4b dc d6 3a db 6e 32 3a 83 47 29 ba ac 85 8a 3a
       0.0016392557 0.000680668 -0.00064574945 0.0010568402
0001d0 bf 8a cc ba cd 2f f5 ba 0f e5 7e 3b 06 73 10 bb
       -0.0015605314 -0.0018706262 0.0038893854 -0.0022041216
0001e0 24 53 a0 3a b5 fe 72 3a 59 1a a2 3b 79 50 de ba
       0.0012231809 0.00092695217 0.0049469885 -0.0016961239
0001f0 7d d4 6f 3a f5 c5 2d bb 84 3c 30 3a 71 6a 39 3a
       0.00091487897 -0.0026515697 0.0006722885 0.0007073051

network_body.linear_encoder.seq_layers.2.weight f4 [128, 128]
000000 75 bb a2 bd dd 5b 27 3e 66 82 4d bd 17 97 8e bc
       -0.07945911 0.16343637 -0.050173186 -0.01740603
000010 f6 19 30 bd 95 a0 71 3d 52 00 b3 bd d8 57 b9 bd
       -0.04299351 0.058991034 -0.087402955 -0.09049958
000020 46 47 b4 bd 25 b9 ff 3d 4b 1a b2 bd 4f 39 f0 bb
       -0.08802657 0.124864854 -0.08696421 -0.0073310505
000030 0a 3c f4 bd 38 fd f0 bd 5d 39 9c 3c 4d 30 5b bd
       -0.11925514 -0.11767048 0.019070322 -0.05351286
000040 7a 48 b1 3d 0c ac 97 3d 68 ec 09 3e 9d 6b f8 3d
       0.08656402 0.07405862 0.13469088 0.121299006
000050 de bc 2d 3d ed 29 d3 3d 4a 97 ca bd 46 f0 db 3d
       0.042416446 0.10310731 -0.09892137 0.10739188
000060 d0 39 cf bb 68 ac a4 3d 06 2e e7 3c ab 9e 34 3e
       -0.0063240305 0.080406964 0.028220188 0.17638652
000070 9d fd 92 3d 28 e6 70 bd 6f 3a 1a 3d 7d 2e c4 bd
       0.07177279 -0.058813244 0.037653383 -0.095791794
000080 ba 54 32 3e ac 8c 71 bc 2c b3 30 3e 22 7d 8c 3d
       0.17415133 -0.014743011 0.17255849 0.06859805
000090 08 b5 b1 3b 7a 14 b7 bc d9 ef cd bd fc 9b 27 be
       0.005423192 -0.022348631 -0.10055513 -0.16368097
0000a0 50 55 10 3d 19 75 38 3e 3a 2d 1a bd 70 10 f5 bd
       0.03523761 0.18013419 -0.037640788 -0.11966026
0000b0 7b 13 09 be db 74 9c 3c b8 4e 26 bc 69 2e 65 3e
       -0.13386337 0.01909869 -0.010150604 0.22380985
0000c0 b1 2a 1b 3d 58 ae fd bc 47 6e d6 bc 79 c4 34 be
       0.03788251 -0.030966923 -0.026175631 -0.17653073
0000d0 db 1c 8b 3c 2d 69 2e bc 37 68 3b 3d d3 df 33 bd
       0.016981533 -0.010645193 0.045753684 -0.043914627
0000e0 fa d2 aa 3d 56 f1 0a 3e 04 f0 2e bd 7c 17 33 bd
       0.08341022 0.13568625 -0.042709365 -0.04372357
0000f0 d2 f5 7c bc ee 2b 67 3d 0f 6e f3 3d da 8b 55 3c
       -0.0154394675 0.05643838 0.118862264 0.0130338315
000100 d3 c1 d4 3c 6e 7b c2 3d f4 df 1b bd d1 5a 86 3d
       0.025971329 0.094961986 -0.038055375 0.065602906
000110 44 43 40 3c 49 13 42 3e 24 ee 6f be b4 55 15 be
       0.011734787 0.18952669 -0.23430687 -0.14583474
000120 fa ae fc 3d 84 1f 37 bd b4 a0 a7 bd 53 39 35 3c
       0.12338062 -0.04470779 -0.081849486 0.01106103
000130 ee 5b 5a bc be a8 98 bd b1 7e 42 bc f3 d8 5b 3e
       -0.013327582 -0.0745406 -0.011871026 0.21469478
000140 1c a5 e8 3c db 3a a3 bd c5 1f c8 3d f1 32 81 bd
       0.028399043 -0.0797021 0.097716846 -0.063085444
000150 b2 35 5d bc 90 65 85 be 85 dd e0 3d ea 41 65 b9
       -0.0135015715 -0.2605405 0.109797515 -0.00021863697
000160 77 18 e4 3c 99 ae af 3d 79 60 58 3d 47 5a 58 3d
       0.027843697 0.08578224 0.05282638 0.05282047
000170 79 19 9b 3d ab 30 9b 3d 86 04 87 3d 56 d3 55 bd
       0.07573218 0.07577642 0.0659266 -0.0522035
000180 2b dc a4 bc eb 78 1c bd 0a 42 b5 bd 9e 02 3b bc
       -0.020124516 -0.038201254 -0.088504866 -0.011414198
000190 af 1c db bb 27 65 21 be 67 9a d7 3d 85 02 64 3d
       -0.006686769 -0.15761243 0.10527497 0.055666465
0001a0 50 a3 d6 bd 0e af 50 bd dd f8 b7 bd 97 87 c5 bb
       -0.10480368 -0.050948195 -0.08983014 -0.0060281265
0001b0 7d 83 e5 3d 3c 16 09 3d bb a5 a2 bc 6f c3 01 bd
       0.1120672 0.03346847 -0.019854417 -0.03168052
0001c0 80 9e 2a 3d c5 0a 76 bd e6 35 ea bc 94 65 50 3e
       0.041655064 -0.060068864 -0.028590154 0.20351249
0001d0 fd 21 a0 bb b6 91 01 be b2 42 10 3d bf ae bb 3d
       -0.004886864 -0.1265324 0.035219856 0.091641895
0001e0 14 3b 37 be 0e d9 4c bc 44 94 31 bd 7e a7 b1 bd
       -0.1789363 -0.012502922 -0.043354288 -0.08674525
0001f0 cb ac 55 3e bc 91 0a 3c ea 2e 65 3c a1 4e ea 3c
       0.20866697 0.008457597 0.013988236 0.028601946
000200 94 a4 2f 3c 18 33 cf bc 05 08 23 3c 00 b8 b6 3d
       0.010720391 -0.025292918 0.0099506425 0.08921814
000210 a0 c3 76 bd 57 c8 05 be b4 22 e1 3c 73 31 51 3d
       -0.060245156 -0.13064705 0.027482368 0.05107255
000220 eb d7 b8 3d 32 24 a1 bd 92 64 49 3d b7 63 b3 bd
       0.09025558 -0.07868232 0.049168177 -0.087592535
000230 c1 98 ec 3c 14 4e 4a 3d 16 d6 03 3d 58 47 ab bd
       0.028881432 0.049390867 0.03218659 -0.08363217
000240 61 e3 03 3e 60 71 cb bd d7 38 a0 bd 50 c8 5a be
       0.12879707 -0.09933734 -0.07823341 -0.21365476
000250 22 96 de b9 6e 3e 73 3d 4c 02 16 be 41 ca 2b 3d
       -0.00042454997 0.05938571 -0.14649314 0.04194093
000260 e0 04 1b 3d c7 d1 c6 bd 49 1e 96 3b 5b 96 1d 3c
       0.037846446 -0.097079806 0.004581247 0.009618367
000270 2b 02 a9 3d 27 8a 78 bd 2c a0 13 be 1a 76 82 3d
       0.08252367 -0.060678627 -0.1441657 0.06370182
000280 4d 8c 54 3e 45 94 ec bc fd 41 f3 bc b9 de ef bc
       0.20756646 -0.028879294 -0.029694552 -0.029281007
000290 8f e0 12 3e 9b c9 b7 ba a2 df 66 bc e7 90 b4 bd
       0.14343475 -0.0014021875 -0.014091404 -0.088167004
0002a0 85 1c 96 bd c7 2a 8f 3d 3a 73 ec 3d 20 72 81 3d
       -0.073296584 0.06990581 0.11545415 0.06320596
0002b0 ea 2e e2 bc 9c 0a d5 bd b1 ef 4c 3a 1b 5d fa 3b
       -0.027610261 -0.10402414 0.0007817699 0.0076404936
0002c0 a9 1a c0 3d 3c c7 7e bd bb c2 f6 bc 4f fb 34 bd
       0.09380085 -0.062201723 -0.030122152 -0.04418498
0002d0 97 1f df bd 26 81 35 be b9 02 c3 3c f6 b3 92 b8
       -0.10894697 -0.17725047 0.02380501 -6.995343e-05
0002e0 cb 93 82 3d b5 16 52 3e 4c 46 b9 bd 7e b2 35 be
       0.063758455 0.20516475 -0.09046611 -0.1774387
0002f0 cf 9c 31 3c 69 cd d7 3d 7b 64 53 bd 68 c8 e8 bd
       0.010840609 0.10537226 -0.051609498 -0.113663495
000300 88 f1 b0 bd 08 c9 2a bd 12 26 e4 bd e9 f2 2e bd
       -0.086398184 -0.041695625 -0.11140074 -0.042712126
000310 c8 4a 83 bc 16 7a 35 bc 8d 72 2b 3d 08 77 a5 bc
       -0.01602687 -0.011076471 0.04185729 -0.02019836
000320 17 8d 66 bd fb ae 9e bd 18 55 de bd 27 68 ea bd
       -0.056286898 -0.077482186 -0.10856074 -0.11445647
000330 af cb 56 bc e5 60 27 3c 71 90 86 3d 5f db 6e bd
       -0.013110085 0.010215973 0.06570519 -0.058314677
000340 78 50 fb bb bc 60 96 bc b7 85 92 3d c4 70 73 bd
       -0.0076695047 -0.018356673 0.0715441 -0.059433714
000350 ff 34 e7 3d 0d 8b da bc 75 f5 02 3d 80 37 df 3d
       0.11289405 -0.026677633 0.031972367 0.10899258
000360 64 bc f5 bd 31 38 99 3e 13 7c 75 bd 73 e4 0b 3d
       -0.11998823 0.29925683 -0.05993278 0.034153413
000370 f4 bb 14 3d e3 42 4d be fb b7 82 bd 11 48 01 3e
       0.03631206 -0.20045047 -0.06382748 0.12625147
000380 4f 86 c9 bd c8 09 56 3c f6 16 0d be 9b 26 a1 bd
       -0.098400705 0.0130638555 -0.1377829 -0.078686915
000390 eb 9f 48 bd 14 44 95 3d 7d 57 69 3d 52 82 de 3d
       -0.048980635 0.072883755 0.0569682 0.108647004
0003a0 4f a4 87 bd 59 ab 06 3e d8 39 41 be 5c 6b fc 3c
       -0.06623136 0.13151301 -0.18869722 0.030812912
0003b0 df 84 0c bd 2e ad 41 be 1f e1 5e bd d4 c3 00 bb
       -0.034306403 -0.18913719 -0.05441391 -0.0019647973
0003c0 02 b9 13 be 9a ac 21 bd db 61 7a 3d 9a 7e 29 3d
       -0.14426044 -0.039471246 0.06112848 0.041380502
0003d0 99 88 7d bc 66 d8 d9 bd 4b 54 95 bd b6 74 9a 3d
       -0.015474462 -0.10636978 -0.07291468 0.07541792
0003e0 b5 cd 28 bd 89 28 b4 bb e8 4a ac bd 5d 4a 9d 3d
       -0.041211803 -0.005497996 -0.08412725 0.07680199
0003f0 e5 c6 06 be a8 24 11 be 18 67 96 be 9f a1 ba 3d
       -0.1316181 -0.1417414 -0.2937553 0.09112858

network_body.linear_encoder.seq_layers.2.bias f4 [128]
000000 80 ae f1 b9 9d 71 57 3a fc 34 5f 3a 97 91 b7 ba
       -0.00046097115 0.0008218529 0.000851467 -0.0014005181
000010 82 8f 0a bb 05 70 53 3b 56 e7 1b bb 57 72 b2 3a
       -0.0021142666 0.0032262814 -0.002378901 0.0013614398
000020 c6 55 b6 b9 89 94 45 ba 52 81 ec ba 0b 33 1a bb
       -0.0003477765 -0.0007537087 -0.0018043912 -0.002352896
000030 44 54 41 3b 06 9c 1d bb bc 34 fc 39 9a 7a 2c 3a
       0.002949969 -0.0024049296 0.00048104476 0.00065795484
000040 9f 1d 17 bb 88 48 61 ba d7 f3 e9 3a ea bb 9d ba
       -0.0023058427 -0.0008593877 0.0017849159 -0.0012034152
000050 c1 57 82 3a 60 2b 62 3b 1c 7b c2 b9 de 29 b9 37
       0.0009944366 0.0034510717 -0.00037094287 2.2073214e-05
000060 50 18 0a 3b dc c2 8d 3a d3 5c 96 ba 7f 65 99 39
       0.002107162 0.0010815519 -0.0011471756 0.00029258055
000070 9a 0a 88 ba c4 9e c6 ba 94 92 db b9 f2 b7 03 3b
       -0.0010379136 -0.0015153517 -0.00041880144 0.0020098654
000080 9e 54 10 bb 7f 67 dc ba b4 d3 ec 38 6b e4 9c bb
       -0.0022023092 -0.0016815512 0.0001129279 -0.0047879717
000090 a6 af 97 bb 3c b5 f4 3a 61 ce c4 3a 40 6b a9 b9
       -0.004629093 0.0018669735 0.0015015119 -0.000323141
0000a0 20 28 c8 b7 23 99 3f bb d2 44 49 b7 34 c6 66 ba
       -2.3860543e-05 -0.0029235564 -1.1996557e-05 -0.0008803338
0000b0 6e 0b 9d 3a 34 c8 24 3a cb dc 13 3b 74 aa db ba
       0.0011981556 0.0006285936 0.0022562023 -0.0016759173
0000c0 40 fb 0f bb e8 64 bf 38 2e a0 00 ba be 55 50 ba
       -0.0021969825 9.126385e-05 -0.0004906681 -0.0007947347
0000d0 e2 74 20 bb f1 e3 25 bb a2 38 c9 b8 b3 c3 bf ba
       -0.002448373 -0.0025312866 -9.5949756e-05 -0.0014630466
0000e0 05 2f 20 ba 4e e9 6a 38 3a 1f c3 ba 64 cd 89 3b
       -0.0006110522 5.600723e-05 -0.0014886626 0.0042053927
0000f0 89 36 e7 38 a4 b8 82 38 fd 8d 89 3a 48 f9 b3 3a
       0.00011025096 6.233275e-05 0.0010494586 0.0013730908
000100 58 db c7 3a 21 da 80 ba ea e7 94 ba c6 b8 14 ba
       0.0015247865 -0.0009830632 -0.001136062 -0.00056732853
000110 67 cf 14 3b af 27 4f 3a 40 f0 7f ba 5c 37 24 ba
       0.002270663 0.00079023367 -0.0009763278 -0.00062643527
000120 70 80 0b 3b 52 ee 48 3a ad 0b c6 3a b5 98 23 3b
       0.0021286272 0.0007664907 0.0015109681 0.0024962847
000130 4c 13 28 bb ce c1 4f ba f0 30 33 bb d6 8e 92 3a
       -0.0025646267 -0.00079253025 -0.0027342401 0.0011181484
000140 8a 75 75 bb cc e5 88 3a f4 d5 1d ba f7 35 0f b8
       -0.0037454092 0.0010444461 -0.0006020956 -3.4144115e-05
000150 6e f6 ad 39 fd 6b b5 3a 76 e6 e6 39 6c 49 37 b8
       0.00033180736 0.0013841387 0.00044040725 -4.369898e-05
000160 e7 45 4d 3a 47 cc 53 bb df f0 94 ba 78 80 83 3a
       0.00078305457 -0.0032317804 -0.0011363289 0.0010032794
000170 87 a1 08 bb 48 dc f4 ba 18 c1 52 3b 60 fc 23 ba
       -0.002084823 -0.0018681372 0.003215855 -0.00062555633
000180 65 da 4e 3a 7e 7a 95 3a bf 8e 60 3a 4c 88 03 37
       0.00078908197 0.0011404303 0.00085661927 7.839943e-06
000190 c8 b3 ba 3a 76 06 37 3b 57 e6 17 39 fa dd 73 3a
       0.0014244253 0.0027927435 0.0001448629 0.00093027914
0001a0 15 23 cf ba 04 26 57 b7 16 76 6a bb 42 d9 03 3b
       -0.0015803302 -1.282385e-05 -0.003577595 0.002011851
0001b0 36 3c 33 39 97 cb fe 3a b8 c8 92 3a 60 d2 bf 39
       0.000170932 0.0019439337 0.0011198735 0.000365871
0001c0 74 e5 47 ba 40 76 f7 39 7a 76 80 3a 6a 3b 02 3a
       -0.0007625439 0.00047199614 0.0009800934 0.000496796
0001d0 72 20 19 b9 4f af 66 bb 17 3e 6e ba c7 0a e6 3a
       -0.00014603304 -0.0035199707 -0.00090882316 0.0017550819
0001e0 23 83 a2 3a b2 16 06 3b 47 2b 9d bb 05 52 15 bb
       0.0012398701 0.0020460305 -0.004796419 -0.0022784483
0001f0 ad 7f ea ba eb ee c7 3a fe 7b 46 3b c6 0c fb 3a
       -0.0017890834 0.0015253698 0.0030286307 0.0019153587

action_model._discrete_distribution.branches.0.weight f4 [3, 128]
000000 b7 9b 8e bc ff e1 ac bc c6 4e 99 3c a3 a1 2f 3b
       -0.017408235 -0.021103857 0.01871432 0.0026799224
000010 a3 38 bc bb 9a bb 9b bb 9c 45 7c 3c 0b 3d ab 3a
       -0.0057440563 -0.0047525885 0.015397456 0.0013064457
000020 9d 49 14 3c aa 79 e5 bb 0e 53 71 bb a7 73 21 bb
       0.009050754 -0.007003029 -0.0036823186 -0.0024635585
000030 40 7a 58 3c 5f 7b 35 3b a6 14 d0 3c f3 55 7d ba
       0.01321274 0.0027691943 0.025400471 -0.00096639915
000040 5f 89 80 b9 ab 70 a0 3b 70 a8 e4 3b 83 0c 94 3b
       -0.00024516412 0.0048962436 0.006978087 0.004518093
000050 16 f4 1b bc a2 fe b8 bb 99 47 4e 39 11 d9 1c bc
       -0.009518644 -0.005645589 0.00019672363 -0.009573237
000060 d2 e7 36 3c d9 3e bf 3b f3 85 4a 3c 55 5a 23 3c
       0.011163669 0.0058363494 0.012361038 0.009970267
000070 18 2c d1 3b eb f4 a7 3c 81 73 5d 3c f6 9e 8e 3b
       0.00638343 0.020502528 0.013516308 0.0043524457
000080 1b 1f f9 ba b7 45 da 3b c9 c0 0a 3c 76 cf ce 3b
       -0.0019006463 0.0066611427 0.008468815 0.0063113524
000090 37 3e 9c bb 48 53 cc 3c fe 4a 5d 3c 92 22 5e bb
       -0.004768159 0.024942055 0.013506649 -0.0033895117
0000a0 44 b2 64 bb a8 5b e2 b9 a7 cb ad 3b 50 9f 8f 3c
       -0.0034896294 -0.00043174368 0.0053038183 0.01753202
0000b0 21 f9 83 bb e6 38 80 bc 68 d6 e8 3b 3b 31 d1 bb
       -0.004027501 -0.015652131 0.0071056373 -0.0063840426
0000c0 3e 34 24 3c c7 9c b9 3b 34 59 ba 3b b0 ad f8 3b
       0.010022221 0.0056644413 0.0056869034 0.0075890645
0000d0 ff dc 25 bb dc 39 77 bc cc 67 c1 b9 33 22 58 bb
       -0.0025308726 -0.015089478 -0.00036889163 -0.0032979369
0000e0 9c d5 1e 3c 87 24 04 3b 39 95 78 3c 49 d8 01 3c
       0.009694483 0.0020163374 0.015172296 0.007925102
0000f0 7b 84 58 3c 77 93 05 3c 74 d1 7c bc 02 52 cb ba
       0.01321518 0.008152834 -0.015430797 -0.0015512111
000100 52 27 a9 bc b0 89 40 bc 42 4a a8 b9 f9 f6 61 3b
       -0.020648632 -0.011751577 -0.00032098783 0.0034479483
000110 bb 98 8f bc 79 32 02 3c 9b 99 a1 3a 7a 40 b8 ba
       -0.017528882 0.007946604 0.0012329103 -0.0014057301
000120 6c 09 a4 39 31 05 1c bc 34 20 16 3c 78 c8 a9 3c
       0.00031287537 -0.009522722 0.009162951 0.020725474
000130 1e f1 45 3b bb 48 24 3c e1 ac 57 bb 8e a7 a5 bb
       0.0030203531 0.010027106 -0.003290944 -0.0050553745
000140 10 1b 3d 3c ab 3d 7f bc 1b 21 50 3b a8 fc 8e 3c
       0.011542097 -0.015578668 0.0031758014 0.01745446
000150 ca 74 7b bb ff dc 64 3c 83 b5 db 3a 0f 8d 63 bc
       -0.0038369172 0.013968705 0.0016762469 -0.013888611
000160 30 df 88 b6 6a 0b c7 3b 0f f7 f9 bb db ac ca bb
       -4.0790983e-06 0.0060743587 -0.0076283286 -0.0061851568
000170 7c 4b 63 3c 5d 85 2c bc 3c 5a 37 ba 1f a9 8a 3c
       0.013872977 -0.010529843 -0.0006994342 0.016926346
000180 1d 88 09 3c c4 fa 96 3c 86 55 8e bb 41 d1 e9 ba
       0.008394268 0.018430121 -0.0043436913 -0.0017838852
000190 f1 90 88 bc 4d d5 be 3b c2 f3 86 bb 0c 86 17 3c
       -0.016670676 0.0058237673 -0.0041184137 0.009248268
0001a0 f7 97 17 3c 21 8d f7 3b 23 10 42 bb 71 e8 09 bc
       0.00925254 0.0075546657 -0.002961167 -0.008417235
0001b0 e3 b8 00 bc 45 74 02 bc c1 ca cb 3c f6 41 48 3c
       -0.00785658 -0.007962291 0.024876954 0.012222758
0001c0 97 d6 82 ba 23 d3 18 3c b4 16 82 bc ba 04 7a bc
       -0.0009982166 0.009327683 -0.015879966 -0.015259916
0001d0 5f df ce 3a 21 f8 d1 3b ce 57 16 39 d6 2e 54 3c
       0.0015783123 0.006407753 0.00014337825 0.01295062
0001e0 1f 81 7e bb 56 98 e1 3b 54 52 02 3c c5 8c e9 3b
       -0.0038834286 0.006884615 0.007954199 0.0071273767
0001f0 a0 da a6 bb a5 15 67 ba 07 08 32 3c 0f 3e c2 bb
       -0.00509198 -0.0008815176 0.010866172 -0.005927808
000200 66 58 77 bb e2 5a de 3b d1 9e 6f bc 74 d6 0d bc
       -0.0037741899 0.0067857364 -0.014625267 -0.008657087
000210 57 ec 18 bc 08 23 a5 3a 56 ea ff 3b a3 8f 82 3c
       -0.009333692 0.0012598941 0.0078099174 0.015937632
000220 7d f1 67 bb 64 b7 a6 ba b9 6e 05 bc d3 6c 0c bc
       -0.003539174 -0.001271945 -0.008144074 -0.008570868
000230 88 40 16 bc 38 ec 26 3c 16 10 f2 3a ab ee 78 bb
       -0.009170659 0.010188155 0.0018467929 -0.0037984054
000240 48 43 20 3c 27 45 04 3b 6e 19 21 3c 69 54 4a 3c
       0.009781666 0.002018282 0.009832723 0.0123492265
000250 a7 a4 fe bb af 74 04 3a 82 e9 17 3b 8f 6c d3 bb
       -0.007771093 0.00050527876 0.0023179953 -0.00645215
000260 5e 3b 79 bb 7b 6c c9 bb 66 84 2e 3c 7f 80 a2 bb
       -0.003802977 -0.006146965 0.010651683 -0.0049591656
000270 73 df 0f bc 3a fb e8 b9 7f 6d fe 3b 77 54 05 bd
       -0.008781302 -0.00044437667 0.007764518 -0.032551255
000280 3e b3 b8 3a f5 09 8b bc ca ef 7b bb 4c 4f 61 3b
       0.0014091504 -0.016972521 -0.0038442486 0.003437954
000290 f5 a1 22 bb 86 ef ac bc 6f 81 2b 3c e4 36 34 bb
       -0.0024815772 -0.021110307 0.010467871 -0.0027498538
0002a0 f5 fb 69 3b 03 74 3a 3b a3 41 34 bc eb 55 90 b9
       0.0035703157 0.0028450496 -0.011001977 -0.00027529834
0002b0 ac 00 00 3a dc e8 92 3c 51 e6 37 bc 66 b9 de bb
       0.00048829126 0.017933302 -0.011224345 -0.0067970036
0002c0 d0 ad 3c bc 43 4a 9f 3b 03 c8 55 3a cd 8f ea 3b
       -0.0115160495 0.0048611476 0.0008155109 0.0071582557
0002d0 8a 07 c1 3b 44 3f 2f 3b f0 b7 d2 bb 27 59 34 bc
       0.0058907913 0.002674059 -0.0064306185 -0.011007584
0002e0 4c e3 96 b9 8b 61 d8 bb 96 cb 8a 39 07 40 5d 3c
       -0.0002877958 -0.006603425 0.00026473094 0.013504035
0002f0 a0 50 7f 3b a5 39 fe bb d0 43 35 3a 84 41 04 bb
       0.0038957968 -0.0077583366 0.0006914707 -0.0020180652
000300 04 1f 88 bb 10 5c c4 ba c7 7b ab 3b 18 d4 f0 bc
       -0.004154088 -0.001498105 0.0052332613 -0.02939801
000310 c3 e0 5d 3a ef 6d 3d 3b f5 41 0b bb 2e a5 44 bc
       0.0008463973 0.0028904637 -0.002124903 -0.0120022725
000320 93 da 93 bb 2d 96 00 3c e2 4e 27 bc 67 f0 fb ba
       -0.00451214 0.007848305 -0.010211678 -0.0019221426
000330 a0 a1 8a bb 52 ef b1 3b dd 99 4e bc bb a5 18 bc
       -0.004230693 0.0054301405 -0.012609926 -0.009316857
000340 1b e5 84 3b af 25 ad bb 79 44 66 bc ca 2b e4 bb
       0.004055632 -0.0052840333 -0.014054411 -0.006963228
000350 8a 03 70 bb 91 e0 39 bb 4a 51 74 bc 8c a5 fd 3b
       -0.0036623203 -0.0028362612 -0.014911959 0.007740682
000360 82 7b c3 3b 31 82 5d bb a4 2e 56 3c 00 c1 c6 bb
       0.005965651 -0.0033799524 0.013072643 -0.006065488
000370 75 1b 33 bb 04 59 e0 ba 6d 4d 8c bb 58 2b 55 3b
       -0.0027329598 -0.0017116372 -0.004281691 0.0032527056
000380 2b 42 b4 3a 3b b4 29 3a b4 22 8c bc 3f 2c 92 3a
       0.001375263 0.0006473695 -0.017106391 0.0011152102
000390 c8 82 68 3b cb 8b 0c bc f1 25 70 ba 4c 49 00 3b
       0.0035478342 -0.008578251 -0.0009160927 0.0019574938
0003a0 34 27 78 3a 14 0c 3f 3c 05 85 9f bb bd 4d 1e 3b
       0.0009466291 0.0116605945 -0.004868152 0.0024155222
0003b0 05 68 0b 3c a5 b0 94 3a 96 08 9c bb 1e 49 d5 3b
       0.008508687 0.0011344148 -0.0047617657 0.0065089604
0003c0 2c 3e 70 ba 3b 9a 06 bc e2 b0 71 bc d9 02 f6 bc
       -0.0009164538 -0.008215482 -0.014751645 -0.030030655
0003d0 16 e8 0e 3c 50 dd e1 3b 47 1a 13 39 fc 8c 05 3c
       0.008722326 0.0068928376 0.00014028802 0.008151289
0003e0 70 b9 8d 3b 89 e2 1d bc e1 b8 1e ba 2b f7 68 3b
       0.0043250844 -0.00963653 -0.0006054771 0.0035547714
0003f0 d3 4c 6e bc e6 3f 15 3c 52 b8 12 bc 37 63 9d 38
       -0.0145446835 0.009109473 -0.008955078 7.5048236e-05

action_model._discrete_distribution.branches.0.bias f4 [3]
000000 84 e6 e8 b9 93 34 9a ba ff c6 78 3a
       -0.00044422236 -0.0011764936 0.0009490102

action_model._discrete_distribution.branches.1.weight f4 [3, 128]
000000 d9 c8 2a bc 09 3f d0 bb d4 9a 03 3c af d9 05 3c
       -0.010423862 -0.0063551706 0.008032519 0.008169576
000010 92 77 3c bc 3c 1b 10 bc 03 4f 9b bb 5a ea 82 3b
       -0.011503117 -0.008795556 -0.0047396435 0.003995222
000020 38 27 b0 bb 44 81 96 bb 2b cf 9e 3b 08 5e 92 3b
       -0.005375769 -0.0045930464 0.0048464737 0.004466776
000030 f2 7d b8 3b 91 c6 1e 3c 52 f0 1d bc 99 27 35 bb
       0.005630248 0.009690897 -0.009639816 -0.002764201
000040 f4 97 39 bb be 6a 0d 3b 08 ba a3 ba 4e 2a 65 3a
       -0.002831933 0.0021578516 -0.0012491355 0.00087419606
000050 a4 b8 a6 bb 72 63 24 bc 99 e6 8f 3c 81 55 11 ba
       -0.005087929 -0.010033475 0.017566012 -0.0005544052
000060 d6 0d 01 3b 79 ea 76 3b 2a 1b 9f 3b 38 93 23 bc
       0.0019692085 0.0037676378 0.004855533 -0.00998383
000070 af 12 b8 3b 4a 5d b7 bb d4 42 c0 ba 55 36 43 bb
       0.0056174616 -0.0055958377 -0.0014668354 -0.0029787023
000080 01 f0 04 3c e6 d1 3b 3b f5 e3 82 3b 40 a4 03 bc
       0.008113862 0.0028659045 0.0039944598 -0.008034766
000090 74 91 f6 3b ac c3 cb bb 87 1a 4d 39 a0 f5 9b bc
       0.0075246636 -0.0062183943 0.00019560206 -0.019038022
0000a0 bc ef d4 3b 16 fe 8f bc c4 e6 1f 3b c4 f8 04 3c
       0.006498305 -0.017577212 0.0024399022 0.008115951
0000b0 ab 58 93 bb 49 97 2c bb de bb fe 3a f1 cb 4b 3c
       -0.004496654 -0.002633529 0.0019434651 0.01243876
0000c0 14 ed 61 3a f5 be 61 bc 03 6b 16 3b 81 5d 0e bc
       0.0008618396 -0.013778438 0.0022951968 -0.008689285
0000d0 3a d8 7e 3b 7c 00 cf bb 80 c4 8a b7 9b 0f c9 38
       0.0038886205 -0.0063171964 -1.6542384e-05 9.5873336e-05
0000e0 e8 da f8 3b e2 30 51 bc d3 61 f1 3b 35 42 c8 bb
       0.007594455 -0.012768002 0.007366398 -0.006111408
0000f0 39 d4 e1 3b 07 39 89 bb 4d 9a 8f bc 17 af 6f bc
       0.006891754 -0.0041877064 -0.017529631 -0.014629147
000100 8a d6 1f bc 19 29 38 3c e6 bf c9 3b 56 be 0a 3c
       -0.00975574 0.011240267 0.0061569093 0.008468231
000110 aa f2 c3 bb 08 ba ee bb bb 7f ff 3b be 87 ab 3a
       -0.0059798555 -0.0072853602 0.007797209 0.0013086719
000120 a9 97 40 bc 98 2e c3 3b a4 84 e8 3b 4f d4 29 bc
       -0.011754909 0.005956482 0.00709589 -0.01036556
000130 db 48 42 bb 24 4a 79 3b 80 fd 3d bc 67 cf 89 b9
       -0.0029645476 0.0038038576 -0.011596084 -0.00026285203
000140 77 c4 59 bb 17 7b 25 3c 67 ec cb ba 29 e6 85 bb
       -0.0033228674 0.010100148 -0.0015558124 -0.004086275
000150 0d da de 3b 0c dd a8 bb 5d 5b 27 3c 48 63 ce 3a
       0.006800896 -0.005153304 0.010214654 0.0015746141
000160 37 92 a1 3b f5 50 e6 3b fe 23 1c 3b 8f 1a af bb
       0.0049307602 0.007028694 0.0023825164 -0.005343742
000170 e6 6e d1 bb 46 de 9d ba ae 30 66 bc a5 f5 9d 3b
       -0.006391394 -0.0012044392 -0.014049692 0.004820543
000180 f9 77 37 bc b2 f2 16 3c c1 b4 07 bc 29 d2 e5 39
       -0.011198037 0.0092131365 -0.008282841 0.00043834865
000190 25 e4 9e 3b e3 d0 fe 3b 67 b4 84 bb 3c 1a 02 bb
       0.0048489743 0.007776366 -0.004049826 -0.0019852063
0001a0 94 c0 bb 3a 7e 5e 0f 3c 74 b1 a6 b9 07 14 fc bb
       0.001432436 0.008750556 -0.000317942 -0.007692817
0001b0 83 cb 1f 3b 57 09 d5 3b c2 bc 8d 3b 14 ee 62 3c
       0.0024382777 0.0065013575 0.00432548 0.013850708
0001c0 d8 35 e5 bb 04 7f 14 bb 2a 9f a6 bb e2 d2 2f bc
       -0.006994944 -0.0022658715 -0.005084892 -0.010731431
0001d0 f5 3d e9 b9 29 5c c5 3a b6 a3 19 3a 57 0c b0 bb
       -0.00044487385 0.0015057373 0.00058608816 -0.005372565
0001e0 74 08 fe 3a ff ec 88 bb 5e a5 63 bb 7f 78 05 bc
       0.0019381181 -0.0041786428 -0.0034736018 -0.008146404
0001f0 26 7a 79 bc ae f0 14 3c bd 34 bb bb 0a 2b 13 bb
       -0.015226876 0.009090586 -0.005713074 -0.0022456073
000200 d4 07 09 bc c1 19 c7 3a c2 fa af bb ec 50 b6 3c
       -0.008363683 0.001519017 -0.005370469 0.022255383
000210 b0 aa 90 bb 5c 2f 94 ba fd 7b b4 3c 76 74 78 bb
       -0.004414879 -0.0011305618 0.022031778 -0.0037911213
000220 cd d3 a1 ba 64 e0 b8 bb 47 b2 2b 3b d2 06 48 3b
       -0.0012346447 -0.005641984 0.002619879 0.0030521643
000230 d1 84 fb bb bc 90 06 3a 70 2e 07 bb 9b 8e 02 3b
       -0.007675745 0.00051332614 -0.0020627044 0.0019921425
000240 22 e1 95 39 96 30 63 bc 29 9c bb 3a bd a8 ef 3b
       0.00028587232 -0.013866564 0.0014313507 0.0073138163
000250 37 e5 d4 ba 63 14 5f bc 2c 49 03 bc 94 12 c7 3b
       -0.0016242628 -0.0136157 -0.008013051 0.0060752127
000260 5b bd 94 bb c2 c1 e8 3b 69 1b 32 bc 04 27 3a 3b
       -0.0045391745 0.007103176 -0.010870793 0.0028404603
000270 06 76 96 3b 82 a7 8e 3c 94 26 97 3b c7 72 2c 3c
       0.004591706 0.017413858 0.004612753 0.010525412
000280 87 47 24 3c e8 40 1d 3c 06 82 9c 3a ce dd 0b bb
       0.010026819 0.009597994 0.0011940605 -0.0021341923
000290 fb 05 25 3c 93 a6 32 bb 10 b7 27 bc 9b ef ae bb
       0.010072227 -0.002725993 -0.010236517 -0.005338622
0002a0 28 48 88 bc 11 66 16 3c 2a 1b 3d bc 98 05 b2 3b
       -0.01663597 0.009179608 -0.011542121 0.0054327957
0002b0 27 82 17 bb 59 f3 de bb 01 0a 05 3c 25 1c a1 3c
       -0.0023118348 -0.0068039116 0.008120061 0.01966674
0002c0 65 69 37 3c 39 7f ab bc 73 ab 57 3b d6 51 9a 3c
       0.011194562 -0.020934688 0.0032908588 0.01883785
0002d0 78 41 bf 3b 50 fe 9c 3c 39 7a f6 ba 1b 33 cf 3a
       0.005836662 0.019164234 -0.0018804736 0.0015808077
0002e0 28 18 a2 bb 95 18 e8 bb 04 4a 4c ba 91 23 43 bc
       -0.0049467273 -0.0070830085 -0.00077930116 -0.011910335
0002f0 11 89 07 3c 80 6a 34 3b f3 82 b1 3a 05 7e 32 bc
       0.008272425 0.00275293 0.0013543054 -0.010894303
000300 a6 8c 23 ba f7 1f d0 3b b5 0a a9 3b a5 e7 6f bb
       -0.0006238915 0.0063514668 0.005158747 -0.0036606577
000310 81 73 fc bb 30 19 dd 3b c9 d4 d8 3b e1 5d 32 3b
       -0.007704199 0.0067473873 0.006617163 0.00272166
000320 54 d9 e9 bb 52 e5 75 3c 31 e7 9c bb a2 db c1 b9
       -0.0071365032 0.0150082875 -0.0047883024 -0.00036975468
000330 2b e1 95 3a 71 5b c6 3b 53 6b 25 3b 48 a6 d7 bb
       0.0011434903 0.006053381 0.0025240972 -0.0065811016
000340 13 1f 80 bb a7 6a 82 bb 3d c5 58 3c e5 a4 10 bb
       -0.0039099543 -0.003979999 0.013230619 -0.002207094
000350 43 eb 51 bb f9 6e c7 bc 14 bb 85 bb 10 45 37 3c
       -0.0032031096 -0.024344908 -0.0040811393 0.011185899
000360 34 16 bf 3c 2e 66 d0 3b b1 43 85 3b 0f 83 5d bc
       0.023326017 0.006359837 0.0040669073 -0.013520016
000370 ed 09 cb bb 71 28 97 bb 38 0a fd bb cb c3 d5 ba
       -0.0061962516 -0.0046129753 -0.0077221654 -0.0016308961
000380 cd e2 14 3c 66 84 7a bb fa 96 49 bc dd 18 83 3c
       0.009087277 -0.0038225888 -0.012304062 0.016003067
000390 f2 d2 22 ba ca 7f f2 ba 0d a2 7d bb 12 eb 53 3b
       -0.0006211243 -0.0018501219 -0.0038701326 0.0032336158
0003a0 d7 f1 da 3a e1 28 fd 3b d6 09 02 3c db 94 8c bc
       0.0016704154 0.0077258204 0.007936915 -0.017160824
0003b0 d6 be 50 bb 36 64 8f 3a ee c3 9d b9 4c fc a7 ba
       -0.0031852028 0.0010939899 -0.00030091353 -0.0012816279
0003c0 56 3c ed ba c8 68 d4 bb 37 51 4b bc 0f bb 86 3c
       -0.0018099647 -0.0064822175 -0.0124095 0.016446618
0003d0 b4 76 d9 3b 28 ae cf 3b d7 c9 48 bc 13 c4 ad 3b
       0.006636465 0.0063378997 -0.012255154 0.005302915
0003e0 b3 ba 00 3c 80 06 0c 3c d1 96 09 3c c0 3d 6a bc
       0.007857013 0.008546472 0.008397774 -0.014296949
0003f0 b8 3e 64 3b 66 64 0f 3c 14 21 7d bb 20 40 82 3b
       0.0034827422 0.008751964 -0.0038624452 0.0039749295

action_model._discrete_distribution.branches.1.bias f4 [3]
000000 54 fa d7 b8 dc 11 2c bb ce af 05 3b
       -0.00010298626 -0.0026255762 0.0020398977

critic.network_body.linear_encoder.seq_layers.0.weight f4 [128, 24]
000000 9a bd 4f bd 80 ad 19 39 5e 00 c7 3d 37 ec b4 ba
       -0.050717928 0.00014655851 0.09716867 -0.0013803308
000010 d9 c5 68 3c bb 8b 38 3e 29 4f 2a be 7d 0a 92 bc
       0.014207327 0.18022053 -0.1663176 -0.017827267
000020 27 7f 18 be bf e1 14 bd da ff 28 3d 4f 80 40 be
       -0.14892255 -0.0363481 0.041259624 -0.18798946
000030 81 46 0a 3e 33 64 c8 be 86 35 fc bd a2 6c 93 be
       0.13503458 -0.39138946 -0.12314896 -0.28793818
000040 27 48 da 3d 79 21 e8 3e c9 7c b2 3d 99 ca f5 3d
       0.10658293 0.45338038 0.08715207 0.12001533
000050 79 d4 18 be 55 6b 81 be 1a 66 87 3d 9a d2 0d 3e
       -0.14924802 -0.252772 0.06611271 0.1384987
000060 0c 9e 48 3e 53 5f bd 3e e5 40 65 3e 7e f8 69 be
       0.1959154 0.3698679 0.22388037 -0.22848698
000070 a0 b5 b6 3d 06 ff 89 3d c6 d1 29 be b4 96 3f bd
       0.08921361 0.06738095 -0.16583928 -0.04677458
000080 65 92 4f 3e 12 f7 9c be 28 dd e7 3e 0d 01 8e bc
       0.20270689 -0.3065725 0.45285916 -0.017334485
000090 ac 71 d6 3c c1 88 3e bd 64 fc 2b be 95 e3 7d 3d
       0.02617725 -0.046517137 -0.16795498 0.061984617
0000a0 2e 5a a1 3e 11 59 f4 3c f8 d1 dc 3e f2 bb 2a 3e
       0.31514114 0.029827626 0.43128943 0.16673258
0000b0 b6 e1 ba be 1f e5 58 be c6 67 7c be 33 86 24 3d
       -0.3650033 -0.21181153 -0.24648961 0.040167045
0000c0 b2 3a 06 be 4c 7c 96 bd a7 7d c7 3e 24 c9 24 be
       -0.13108328 -0.073479265 0.38963053 -0.16092354
0000d0 6e 55 1c 3d af 05 4d be 22 62 95 3d 7b b0 84 be
       0.03816741 -0.200217 0.07294108 -0.25915894
0000e0 e0 0d a6 bc 6d c7 04 3e 91 3d 37 3e c8 4e 38 be
       -0.020270288 0.129667 0.1789458 -0.17998803
0000f0 08 5f 29 bd af 9f a3 be 00 48 61 3e 0d 88 1d 3e
       -0.041350394 -0.31957766 0.22000122 0.1538393
000100 57 89 98 3b b5 b4 a2 3d c0 5f 8c 3e 8a e4 52 be
       0.004655044 0.079446234 0.274168 -0.20594993
000110 96 43 f4 bd 6d 46 a5 3d 61 27 7d 3e 34 b7 41 be
       -0.119269535 0.08070073 0.24722053 -0.18917543
000120 62 a4 66 3e 68 72 92 bc 84 4a 18 3e 21 98 77 3e
       0.22523645 -0.017876819 0.14872175 0.24179126
000130 6a 26 91 3d e0 34 7d be 17 e4 c9 3e 04 d1 99 3d
       0.07087405 -0.24727201 0.3943183 0.0751057
000140 aa 65 21 bf 8d a2 34 be f6 8c 06 3e b8 55 ac 3c
       -0.6304575 -0.17640133 0.1313971 0.021036968
000150 ea 3f b7 3e cc 7c b4 be f2 74 06 bd 26 62 88 be
       0.3579095 -0.35251462 -0.03282637 -0.2663738
000160 9e 2e 5b be e3 10 52 3e 5b 5b dd bd 0b 77 07 3e
       -0.21404502 0.20514254 -0.1080844 0.13229005
000170 d1 d3 b8 3e 74 f6 de bc af 64 e7 ba 59 ef 26 3e
       0.36099103 -0.027217127 -0.0017653907 0.16302241
000180 47 93 3b bb 5f 10 65 3e 13 65 b2 3e 5e 46 43 3d
       -0.002862172 0.22369526 0.34842739 0.04767453
000190 da be b7 3e 83 6b 23 be d4 42 3b bd 97 3d f9 3d
       0.35887796 -0.15958981 -0.04571803 0.121699505
0001a0 28 7e 4a 3e 50 41 6d 3c 33 77 86 3e 0d 46 38 be
       0.19774687 0.014480904 0.26262817 -0.17995472
0001b0 63 95 41 be 36 ed 2e be 73 84 e9 3e 8f f4 6a be
       -0.18904643 -0.17082676 0.45608863 -0.22944854
0001c0 ac 3b 02 be a8 6e 13 3d 8c 4e a1 3d 25 b5 7b be
       -0.12718076 0.035994202 0.0787631 -0.2458082
0001d0 ec c5 a0 3d 7e 56 88 bc a7 4e 9a be ba 89 27 bd
       0.078502506 -0.016642805 -0.30138132 -0.04090283
0001e0 fe 44 fd bc 6a 36 be 3d b5 db 23 3e c2 71 62 bd
       -0.030916687 0.092877224 0.1600178 -0.05528427
0001f0 bd 88 06 3e 61 75 be 3d 8c 68 f7 3b 36 f6 b0 be
       0.13138099 0.09299732 0.0075503048 -0.34562844
000200 fd c6 c5 be ea 2c f9 be 11 26 50 be 8d ac 4c 3e
       -0.3862838 -0.4866708 -0.20327021 0.19987698
000210 b1 e3 b8 3e a0 04 e3 bc 15 c5 a5 3c fd e3 8d 3c
       0.36111215 -0.027712166 0.020235578 0.017320627
000220 5e 95 1f 3e e8 4b 95 be d2 58 5a 3e 33 0b 13 be
       0.15584323 -0.29159474 0.21322945 -0.14359741
000230 46 36 2d be 21 9f 19 be 39 57 90 be fd ce f6 3d
       -0.16915235 -0.15002109 -0.28191546 0.12051199
000240 b2 ed 14 be 11 84 45 3e 72 ad 72 3d fa f1 be bd
       -0.14543799 0.1928866 0.05924744 -0.09323497
000250 b5 ed 02 bd 29 8b 73 3e 0c 55 fc 3d 04 b4 86 3e
       -0.031964976 0.23783554 0.12320909 0.26309216
000260 af e0 32 3e af c8 1f be 8c fa 7f 3d 09 ba 8a 3e
       0.17468522 -0.15603898 0.0624948 0.2709506
000270 e5 f0 51 3e 0a f6 56 be 90 b2 67 be db d6 1e 3d
       0.2050205 -0.20992294 -0.2262671 0.03877912
000280 38 5e 09 bd 46 9d 0a be 0e fb 88 3d ac 41 83 be
       -0.03353712 -0.13536558 0.0668851 -0.2563604
000290 24 f3 a7 ba a5 e8 8f 3e b6 ec a2 3d d9 f4 a3 3e
       -0.001281355 0.2810718 0.07955305 0.3202274
0002a0 50 6b 24 be fd 53 73 3d 12 d1 19 3e a5 06 b1 3e
       -0.16056561 0.05940627 0.1502116 0.34575382
0002b0 2d cc 86 be bc 40 b6 3c 72 bf d0 3d 47 07 8d 3e
       -0.2632765 0.022247665 0.10192765 0.27544615
0002c0 ff 52 74 3e 6a 5b cb 3d 52 64 72 be 14 0c 4d 3e
       0.23859785 0.09929545 -0.23671082 0.20024139
0002d0 33 b8 4b 3d f5 79 6b 3d d8 34 67 3d 21 fe a7 3c
       0.049736213 0.057489354 0.05644688 0.02050692
0002e0 cd 0b 1b bd c4 cf 4a 3e 27 aa df bd a0 10 47 3e
       -0.03785305 0.19805819 -0.10921126 0.19439936
0002f0 fe 16 a7 bc e0 de a3 3e 7d 30 ff bd 1d 76 05 3d
       -0.020396706 0.32005978 -0.1246042 0.032583345
000300 72 9a f4 ba e6 ac b3 be b8 7e 51 be a3 d8 cb be
       -0.0018661751 -0.3509285 -0.20458496 -0.39813718
000310 f0 63 1f 3d 76 89 eb 3e 88 da 44 3e 63 00 00 be
       0.038913667 0.46003312 0.19223988 -0.12500148
000320 89 45 90 be b1 e8 91 bd fe 1d c4 3d 68 d1 77 be
       -0.2817805 -0.071244605 0.09576033 -0.24200976
000330 19 23 58 3d fe 59 9c bd 25 88 0e 3d c3 da 31 bd
       0.052767847 -0.07634352 0.034797806 -0.043421518
000340 1a 21 f9 bd 81 d6 a3 be 14 07 31 3d 46 0f 20 3e
       -0.12164517 -0.3199959 0.04321964 0.15630826
000350 c5 48 cb bc 30 8a dc be d1 50 90 3e 5e 9c 9b be
       -0.024814973 -0.4307418 0.28186658 -0.30392736
000360 1e 75 2b be c6 d4 9e 3d c9 0b 62 3d 0f 22 79 be
       -0.16743895 0.07755427 0.05518702 -0.24329399
000370 92 9b c0 3e d2 3e 62 be 23 51 a8 be 9d 83 87 3d
       0.3761869 -0.22094277 -0.32874402 0.066169
000380 b5 fa 93 3e 20 2e 05 3e ff e6 2b bd 8f 70 c3 bd
       0.28902212 0.13005877 -0.041968342 -0.09542953
000390 6c 39 87 be 72 5f b3 3d 76 3f 39 3e 61 39 23 bd
       -0.26410997 0.08758439 0.18090615 -0.039849643
0003a0 29 cf d6 3d f2 32 22 3e c3 5b 78 be ff 4f ec 3e
       0.104887314 0.15839747 -0.24253754 0.46154782
0003b0 54 f3 a8 3e 70 1e 4e bd 7e d0 de 3d 16 43 d0 be
       0.32998145 -0.050321996 0.108796105 -0.40676183
0003c0 72 9e 68 3e cb 49 8f bd 5d 92 e0 bb ea de f7 3d
       0.22716692 -0.06996497 -0.0068533854 0.12103064
0003d0 40 fb c9 3d f0 ae 94 bd cb d3 a0 bc 4d 67 b5 be
       0.09862375 -0.07259929 -0.01963224 -0.35430375
0003e0 f5 ed 82 be 0e c1 c4 bd 9e da 28 bd 29 fb dd be
       -0.25572172 -0.09607135 -0.041224115 -0.43355682
0003f0 5e a7 76 3e a8 7a d0 3d 1d 10 54 3e c3 1f 0d 3e
       0.24087283 0.10179645 0.20709272 0.13781647

critic.network_body.linear_encoder.seq_layers.0.bias f4 [128]
000000 0e 50 c2 ba ce 07 18 bb d5 8a 1d bb 7e 99 27 3a
       -0.0014824884 -0.0023198011 -0.002403905 0.00063934166
000010 a9 cf d8 bb 9a 16 7c bb 1a a2 9e bb 26 ed 9f bb
       -0.006616552 -0.003846562 -0.0048411014 -0.004880565
000020 d3 21 57 3b 7c aa 67 bb 48 ec e8 ba 6a 0d 5c bb
       0.0032826557 -0.003534942 -0.0017770613 -0.0033577331
000030 3b aa 65 bb 20 de d5 3a 69 68 d9 ba c5 70 d3 b9
       -0.0035044092 0.0016316809 -0.0016586903 -0.00040329076
000040 dc 11 7b b9 04 6c 0d bb 10 6b ad bb 15 85 15 bb
       -0.00023943878 -0.0021579275 -0.005292304 -0.0022814919
000050 48 bf 83 bb 46 e5 68 bb b8 45 ee b9 d1 b7 3e bb
       -0.0040206052 -0.0035537048 -0.00045446842 -0.0029101262
000060 8c e6 22 3b 31 ad b7 bb 6b cb d4 3a 2b bc b0 3b
       0.0024856655 -0.005605363 0.001623494 0.005393525
000070 1a 66 c8 ba cc e8 67 bb 90 8f fd ba 16 47 42 bb
       -0.0015289218 -0.003538656 -0.0019345153 -0.0029644421
000080 46 96 aa 3b f9 8c 85 ba 06 ce af b9 65 9f f4 ba
       0.0052059023 -0.0010189108 -0.000335321 -0.0018663226
000090 f0 e0 9d ba c6 c4 43 39 46 51 12 3b 94 72 0b bb
       -0.0012045186 0.00018669953 0.0022326275 -0.002127801
0000a0 66 25 ed ba 13 78 93 3a 6a 9b 8a 39 cb 36 ec ba
       -0.0018092811 0.0011250995 0.00026437204 -0.0018021701
0000b0 9a 1e 1e 3b 30 84 e6 bb 0f ec 81 bb 98 ed 62 bb
       0.0024127127 -0.007034801 -0.003964908 -0.003462648
0000c0 9a d4 95 ba cd 7c 86 bb 4f 12 37 ba 2b 14 bf 3a
       -0.0011431158 -0.004104233 -0.0006983624 0.0014578154
0000d0 bd 84 33 bb da 90 db ba 28 1e 83 3b 9e 0f 7d bb
       -0.002739235 -0.0016751543 0.0040013976 -0.0038614045
0000e0 f5 3f e6 b8 70 8f 70 37 7c 73 b2 bb 1e b8 b5 3a
       -0.000109791676 1.4338511e-05 -0.0054458957 0.0013864075
0000f0 49 29 f8 b9 cc 16 8a 3b 02 c8 32 3a 56 d0 a6 3a
       -0.00047333006 0.0042141434 0.00068199646 0.0012726884
000100 60 39 4a 3a 5d 4c 95 3b a0 b8 96 3b b9 dd aa ba
       0.0007714238 0.0045562224 0.0045996457 -0.0013036049
000110 64 c3 d4 b9 dc 91 93 3a bc 5d 18 3b 34 99 87 3b
       -0.00040581368 0.001125868 0.002324923 0.0041381363
000120 17 da c1 3a 47 1c 28 bb d1 94 af bb 3a 23 80 b9
       0.0014789727 -0.002565162 -0.0053583165 -0.00024440308
000130 52 09 26 ba 5e ca aa bb e3 cf 12 3a a6 b2 56 3a
       -0.00063337863 -0.0052121123 0.00056004355 0.0008190073
000140 99 0b b0 ba e3 b1 24 3b 38 57 2b 3b e7 af 46 bb
       -0.0013431191 0.0025130443 0.0026144516 -0.0030317248
000150 69 7b b7 3a 62 71 a4 bb 32 66 9f bb ab f9 49 ba
       0.0013998571 -0.005018399 -0.0048644776 -0.0007704745
000160 52 e5 52 bb 86 93 b7 bb a7 85 0f bb 21 45 4b bb
       -0.0032180143 -0.005602303 -0.0021899731 -0.0031016546
000170 a2 d5 1d ba 39 a5 01 bb 63 f8 81 ba 94 af c1 3a
       -0.00060209085 -0.0019782318 -0.0009915944 0.0014777058
000180 96 00 16 3a c7 cb 20 bb 08 94 1c bb 07 b2 29 3a
       0.0005722133 -0.0024535523 -0.0023891944 0.00064733665
000190 83 1d 6b ba a7 c8 bb bb 96 9a 7a ba f1 f0 4c bb
       -0.0008968936 -0.0057307067 -0.0009559778 -0.0031271542
0001a0 da 36 ce ba 77 65 3e bb 56 bd 2c b9 5e 98 b0 b8
       -0.00157329 -0.0029052177 -0.00016473731 -8.4207146e-05
0001b0 cc 5c e3 bb c1 aa 85 bb 76 a7 4e 3b ea 38 35 3b
       -0.0069385525 -0.0040791933 0.003153292 0.0027652332
0001c0 c7 c3 8a 3a 51 21 e9 3a 76 1e 93 3b 8a 18 87 b9
       0.0010586911 0.0017786418 0.004489715 -0.0002576749
0001d0 44 98 ca b9 e6 88 06 3a 45 56 0d bb 64 73 b0 bb
       -0.0003864189 0.0005132094 -0.0021566313 -0.0053848494
0001e0 08 44 68 bb f5 b9 3a ba d4 ea 76 bb e8 58 e6 39
       -0.003544094 -0.00071230467 -0.003767659 0.0004393526
0001f0 43 7b 01 3b b8 fe d1 ba a3 8d b6 bb a6 5c ab 39
       0.0019757308 -0.0016021347 -0.0055710836 0.0003268469
