mlagentlearn/results/02Run/airHockey/airHockey-2970.onnx (onnx, 85043 bytes, 8 tensors)

action_model._discrete_distribution.branches.0.bias f4 [3]
0	0x00000000	0.0
1	0x00000000	0.0
2	0x00000000	0.0

action_model._discrete_distribution.branches.0.weight f4 [3, 128]
0	0x3ae2b84b	0.0017297355
1	0x3b830d6c	0.0039994027
2	0x3c46887a	0.0121174995
3	0x3bffcce5	0.0078064078
4	0xbc1b2101	-0.009468318
5	0xbc41e1f3	-0.011833656
6	0xbb8268b3	-0.0039797663
7	0xbc001640	-0.007817805
8	0xbc262a88	-0.010141976
9	0xbc599337	-0.013279728
10	0xba99a91c	-0.0011723372
11	0xbbddecc2	-0.0067726085
12	0xbcc7096a	-0.024296481
13	0xbb2aa81f	-0.002604015
14	0x3b2d8c93	0.0026481494
15	0xbc62eeb2	-0.013850855
16	0x3b50babf	0.003184959
17	0xbacfc5cf	-0.0015851798
18	0xbb9386a7	-0.004502136
19	0x3b39eec7	0.0028371082
20	0x3c24fec3	0.010070506
21	0xbbf3c87b	-0.0074396706
22	0x3bec1c27	0.0072055045
23	0x3c31d6a3	0.010854396
24	0x3c62991b	0.0138304485
25	0x3aac835e	0.0013161709
26	0x3bdfc395	0.006828735
27	0x3bcde93b	0.0062839068
28	0xbbe77f12	-0.0070647085
29	0xb9b76a93	-0.00034983884
30	0x3b68be53	0.0035513833
31	0xbc1e0224	-0.009644065
32	0x3c375477	0.011189572
33	0x3c3a23ba	0.011361057
34	0xbc12301b	-0.008922602
35	0x3bc50623	0.0060126944
36	0x3c0916e7	0.008367277
37	0x3baedb33	0.005336189
38	0xbbfacc82	-0.0076537738
39	0x3bfe0d08	0.0077530183
40	0x3cb04c8b	0.021520874
41	0xbbc7b3b3	-0.00609442
42	0xbc1856ce	-0.00929804
43	0x3c7ef622	0.015561612
44	0xbc21c089	-0.009872564
45	0xbb211c3c	-0.002458348
46	0x3bc94012	0.006141671
47	0x3bd28bc5	0.006425353
48	0xbb394483	-0.0028269596
49	0xbc79105b	-0.015201653
50	0xbac2de26	-0.0014867231
51	0x3aa36fb2	0.0012469201
52	0xbb80d617	-0.0039317715
53	0xbb778aa5	-0.0037771848
54	0xbb90461f	-0.0044028903
55	0xbc1a2f49	-0.009410688
56	0xbad649bb	-0.0016348878
57	0xbbc7912c	-0.006090304
58	0x3c814ae1	0.015782775
59	0xbc4f7dab	-0.012664239
60	0xbb258c4e	-0.002526063
61	0xbb9446e3	-0.004525052
62	0x3c773fea	0.015090922
63	0x3cc0fe47	0.023558749
64	0x3b8402b1	0.004028641
65	0xbca89f1a	-0.020583678
66	0xbaf8ddbf	-0.0018986984
67	0x3c04ddfd	0.008109567
68	0xbc69d8e8	-0.014272906
69	0xbc425492	-0.011860983
70	0xbc3fa3e5	-0.01169679
71	0xbb9b0630	-0.004730962
72	0xbbb53c56	-0.0055308742
73	0xb9811117	-0.0002461753
74	0x3c348aee	0.011019452
75	0x3bc97d25	0.0061489516
76	0xbc5c8feb	-0.013462047
77	0x3bae66b6	0.0053223027
78	0xb69fac10	-4.7586e-06
79	0x3b093e7f	0.0020941792
80	0x3b53b675	0.0032304798
81	0x3b62e6bd	0.0034622394
82	0xb9db57bb	-0.000418363
83	0xbb1d46ba	-0.0023998455
84	0xbbc804cf	-0.006104089
85	0x3be43ae5	0.0069650286
86	0xb9bdf2dd	-0.00036229836
87	0x3b4fefe0	0.003172867
88	0xbb878add	-0.004136427
89	0x3c253a2c	0.01008467
90	0xbc2ab7db	-0.010419811
91	0x3c54c725	0.012986933
92	0x3c0a8e1f	0.008456736
93	0x3c53e9e3	0.012934181
94	0xbb355f8e	-0.0027675363
95	0xba821d6f	-0.0009926985
96	0x3b38ffc9	0.0028228632
97	0xbb8b8114	-0.0042573307
98	0x3c3e4559	0.011613213
99	0xbb8107f0	-0.003937714
100	0x3b3bb0b5	0.002863926
101	0x3c70b385	0.014691238
102	0x3b3f9c03	0.0029237277
103	0x3b88d335	0.0041755685
104	0x3b69c64d	0.0035671175
105	0xbb9feb2c	-0.0048803296
106	0x3ac4018b	0.0014954073
107	0x3bef16ef	0.007296435
108	0xbb38c5df	-0.0028194112
109	0x3bd1175a	0.0063809576
110	0xbc044cda	-0.008074963
111	0xbb4a393b	-0.0030856866
112	0x3b5bd1db	0.0033541832
113	0x3b68b2d8	0.003550699
114	0x3b88a6f7	0.0041702944
115	0x3b58990b	0.0033050205
116	0x3c325af7	0.0108859455
117	0x3c1774f1	0.00924419
118	0xbba714c0	-0.005098909
119	0xbc377fb2	-0.0111998785
120	0xbc084059	-0.008316123
121	0x3b72d81f	0.0037055088
122	0x3bfe09fb	0.0077526546
123	0x3c29c71f	0.010362416
124	0x3ca84587	0.020540966
125	0xbc70a6dd	-0.014688221
126	0xbc62c93a	-0.013841921
127	0x3aff7735	0.0019490483
128	0xbc0ac8fd	-0.008470771
129	0xbb53c272	-0.0032311943
130	0xbc541130	-0.012943551
131	0x3bd94760	0.006630823
132	0x3c25b88f	0.010114803
133	0xbc9c14ab	-0.019052824
134	0xbafb6e75	-0.0019182699
135	0xbc29d418	-0.0103655085
136	0x3a305a44	0.0006727318
137	0x3bda62b0	0.0066645965
138	0x3bdeeebb	0.0068033612
139	0x3bec4502	0.007210375
140	0x3b179b45	0.002313332
141	0x3c077da3	0.0082697
142	0x3bfa876f	0.0076455395
143	0xbb6dcfb2	-0.0036287126
144	0x3c29ace9	0.010356166
145	0x3b426c65	0.002966666
146	0xbc4de4bd	-0.0125667425
147	0x3bc280da	0.0059357705
148	0x3ce0999b	0.027416995
149	0xbb9c4e2f	-0.0047700624
150	0x3bfcf812	0.007720002
151	0x3c8689c7	0.01642312
152	0x3bbdaa60	0.0057881325
153	0xbbdceaed	-0.0067418725
154	0x3bc5a1bb	0.0060312427
155	0xbaa8112c	-0.00128225
156	0xbbb517ff	-0.005526542
157	0x3b6b79f0	0.0035930835
158	0xbac7977d	-0.0015227642
159	0xbc302307	-0.010750539
160	0x3c758d30	0.014987275
161	0xbbf73650	-0.0075443164
162	0x3c1cdff3	0.009574878
163	0xbba20e19	-0.004945528
164	0x3c5b588f	0.013387813
165	0x3c6ec945	0.014574354
166	0x3a4194c4	0.00073845335
167	0xbc165fb7	-0.009178094
168	0xbc2f724d	-0.010708404
169	0xbc5d0f9b	-0.01349249
170	0xbacd9648	-0.0015685046
171	0xbcc7f99b	-0.024411013
172	0xbbf21ca7	-0.0073886695
173	0xba6d7898	-0.00090588024
174	0xbb1e5d5e	-0.0024164538
175	0xbc1b94bf	-0.009495913
176	0xbc0860dc	-0.008323874
177	0xbc0d0899	-0.008608007
178	0x3c4e0cea	0.012576321
179	0x3c2d18ab	0.010564963
180	0x3c4f29f7	0.012644283
181	0xbbd37e4b	-0.0064542643
182	0xbc0602a0	-0.008179337
183	0x3b286cf5	0.002569971
184	0xbc0ae47f	-0.008477329
185	0xba284c4f	-0.0006420062
186	0xbc1cdc2e	-0.009573979
187	0xbc02122a	-0.007938901
188	0xbbaa38f1	-0.005194776
189	0x3bf9c34b	0.0076221577
190	0x3c1347cb	0.008989285
191	0xbc0773f1	-0.008267389
192	0xbbc7fae7	-0.006102908
193	0xbc134b7a	-0.008990163
194	0x3c56f15f	0.013119071
195	0x3b8a33c4	0.0042175967
196	0xbca8591b	-0.020550301
197	0x3a3b46b0	0.0007144017
198	0xba31d458	-0.0006783656
199	0x3c7dfdd8	0.015502416
200	0xbba3d419	-0.0049996492
201	0xbb9847bc	-0.0046472233
202	0x3bda728b	0.0066664866
203	0x3b89816b	0.004196336
204	0xbb81ec7a	-0.003964958
205	0xbc861072	-0.016365264
206	0x3b995df7	0.004680391
207	0x3a4aa0aa	0.0007729629
208	0xbb65112d	-0.0034952865
209	0xbb2e9440	-0.0026638657
210	0xbc85141e	-0.016244944
211	0x3c7cbe7b	0.015426273
212	0xbad6ab3b	-0.0016377935
213	0xbb030007	-0.001998903
214	0xbb8f365d	-0.0043704943
215	0x3a780dd7	0.00094625115
216	0xba6caf58	-0.0009028814
217	0x3c5d064b	0.01349027
218	0x3c0ec40d	0.008713734
219	0x399c786e	0.00029844366
220	0xbb2d38b9	-0.0026431514
221	0xbca4fed7	-0.020141048
222	0x3c4fb2c8	0.012676902
223	0xbb883edd	-0.0041578845
224	0x3b239318	0.00249595
225	0x39f0518d	0.00045837127
226	0xbc8c4ffe	-0.017127987
227	0xbc745037	-0.014911703
228	0xbb194ccb	-0.002339172
229	0xbc8a89e7	-0.01691146
230	0xbc02ec17	-0.0079908585
231	0xbc0eb395	-0.008709808
232	0x3ca2ca36	0.019871812
233	0xbb153355	-0.0022766192
234	0x3c541d4f	0.012946441
235	0xbca587ef	-0.02020642
236	0x3bda443a	0.0066609653
237	0x3bdc90cd	0.006731129
238	0x39bff69f	0.00036614106
239	0x3bb4c63f	0.005516797
240	0xbc6b8d53	-0.014376956
241	0x3ad7f9e3	0.001647767
242	0xbae2b2aa	-0.0017295678
243	0x3bade0af	0.0053063254
244	0xbc7b5423	-0.015339884
245	0x3b131f5f	0.0022449119
246	0x3c3c2311	0.01148297
247	0x3c99728c	0.018731378
248	0xbaedb7c3	-0.001813643
249	0x3ca44ebe	0.020057078
250	0x3c589865	0.013219927
251	0xbc0d6ab8	-0.008631401
252	0x3c9bbf6d	0.019012177
253	0x3abd85ff	0.001445949
254	0x39b4ab67	0.0003445998
255	0xbb9e4747	-0.0048302743

action_model._discrete_distribution.branches.1.bias f4 [3]
0	0x00000000	0.0
1	0x00000000	0.0
2	0x00000000	0.0

action_model._discrete_distribution.branches.1.weight f4 [3, 128]
0	0x3c0e4041	0.0086823115
1	0xbb918e7b	-0.004442034
2	0x3cd501e8	0.026001886
3	0xbbaca9d2	-0.0052692676
4	0x3c4f10b7	0.0126382625
5	0x3c04357e	0.008069394
6	0x3c6dfe77	0.014526001
7	0xbb9d608b	-0.0048027686
8	0xbb59a237	-0.003320826
9	0x3c235b43	0.009970489
10	0x3c0d1024	0.008609805
11	0x3b55e838	0.0032639634
12	0x3a67fe83	0.0008849876
13	0x384b9b64	4.854369e-05
14	0xbb8443bb	-0.0040363944
15	0xbc587a9f	-0.013212829
16	0x3b236a91	0.0024935345
17	0xbb37b989	-0.0028034172
18	0xbc48cd18	-0.012255929
19	0xbc69bc15	-0.014266034
20	0x3bd60122	0.0065308968
21	0x3b8bb419	0.0042634127
22	0xb94750a5	-0.00019008161
23	0x3bab9f57	0.0052375006
24	0x3baec4e7	0.005333531
25	0x3b455938	0.0030112993
26	0x3989fd1b	0.00026319255
27	0xb9311baf	-0.00016890348
28	0xbbcacd3c	-0.0061890166
29	0x3c19e379	0.009392613
30	0xbb34003d	-0.0027465962
31	0x3bf9bcd0	0.007621385
32	0x3b99b9b9	0.0046913293
33	0x3c2878cb	0.010282706
34	0xbc4672f4	-0.012112368
35	0x3c2eb010	0.010662094
36	0x3b786fdd	0.0037908473
37	0xbbafb5ca	-0.005362247
38	0xbc8dc3b7	-0.017305238
39	0x3bf5b222	0.0074980417
40	0x3a9e464c	0.0012075393
41	0xbb61d235	-0.0034457569
42	0xbaa4744f	-0.001254687
43	0x3bf7e33b	0.00756493
44	0x3c941253	0.018075144
45	0x3c368d81	0.011142136
46	0xb9b82f22	-0.00035130332
47	0x3bf9be5d	0.00762157
48	0x3c36be0f	0.011153712
49	0x3b5ce657	0.003370663
50	0xbbcfee03	-0.006345512
51	0x3bb6483f	0.0055628116
52	0x3a9dc68e	0.0012037323
53	0x39b5b95d	0.00034661117
54	0xba221b6b	-0.0006183895
55	0x3ba8db72	0.005153113
56	0x3be58fcf	0.0070056687
57	0xbaa9faa3	-0.0012968372
58	0x3b89055b	0.0041815466
59	0xbc87419f	-0.016510783
60	0xb95fdc88	-0.00021349092
61	0x3ba2f587	0.004973117
62	0x3b90a3fb	0.0044140792
63	0x39f69d8f	0.00047038167
64	0x3b1406e7	0.0022587122
65	0xbb6bfbb2	-0.0036008176
66	0xba0d03a1	-0.0005379264
67	0xbb2aee0b	-0.0026081826
68	0x3b085621	0.002080329
69	0x3c068c84	0.0082122125
70	0x3c27e744	0.010248009
71	0xbbb6aee7	-0.005575049
72	0xbc6689f7	-0.014070979
73	0x3c374b03	0.011187318
74	0xbb85be98	-0.0040815584
75	0x3c927c49	0.01788153
76	0x3a0d04ee	0.0005379458
77	0x3bcc665c	0.006237788
78	0x3c03be34	0.008040953
79	0x3be4e69b	0.006985498
80	0xbc823abc	-0.015897147
81	0xbc0eaf87	-0.008708841
82	0x3c5a8a82	0.013338687
83	0xbb006686	-0.0019592359
84	0x3b80e2c4	0.0039332826
85	0x3c1acf1b	0.009448792
86	0x3c32f254	0.010922033
87	0x3b13a795	0.0022530307
88	0x3b5a6540	0.003332451
89	0xbc6f181f	-0.014593153
90	0x3c15d3d5	0.009144743
91	0x3bfee8d3	0.0077792197
92	0x3bd70987	0.006562415
93	0x3c03884f	0.008028104
94	0xbc630de2	-0.01385829
95	0x3be5540d	0.006998545
96	0x3bfe2f83	0.0077571287
97	0xbc629012	-0.013828294
98	0xbc50f323	-0.012753281
99	0xbbb7db2a	-0.005610843
100	0x3bcb9a67	0.0062134746
101	0xbc549dcb	-0.012977074
102	0x3c0d2d9c	0.008616831
103	0x3befde5b	0.007320208
104	0xbb824cd1	-0.0039764424
105	0x3c4cdedb	0.012504305
106	0xbb6dfd43	-0.0036314286
107	0xbaa09a7a	-0.0012253069
108	0xbc092f18	-0.008373044
109	0x3c053d82	0.00813234
110	0x3b88566f	0.0041606943
111	0x3bc704cf	0.0060735713
112	0xbc4b0848	-0.012392111
113	0xbc934043	-0.017974978
114	0x3c1bc733	0.009507942
115	0xbb780d33	-0.0037849664
116	0x3b596977	0.0033174434
117	0x3b6f50c5	0.0036516648
118	0xbc30e9de	-0.010797946
119	0xbab20660	-0.0013582222
120	0xbc8b6577	-0.017016156
121	0x3b93d116	0.004511009
122	0x3cf4ca8a	0.029881734
123	0xbc97c45e	-0.018526252
124	0xbc570fa2	-0.013126286
125	0xbbff6fb7	-0.0077953
126	0xbc462d73	-0.012095797
127	0xbb77107f	-0.0037699041
128	0xbaab877a	-0.001308664
129	0x3c846222	0.016160075
130	0xbc40704c	-0.011745524
131	0xbc01260b	-0.007882605
132	0xbabcd5af	-0.0014406944
133	0x3c92dc5c	0.017927341
134	0xba85d4f3	-0.0010210559
135	0x3c2108fc	0.009828802
136	0x3c792093	0.01520552
137	0xbc6b15f0	-0.014348492
138	0x3c471534	0.012151051
139	0xbb5621ab	-0.0032673876
140	0x3c4d6cbd	0.012538132
141	0xbb8dd9bb	-0.004328934
142	0x3b6becbb	0.0035999257
143	0x3c461833	0.0120907305
144	0xbc0e96e8	-0.008702971
145	0x3c50e7b2	0.012750553
146	0x3c19215a	0.009346331
147	0xbc0ce3d1	-0.008599238
148	0x3bafa260	0.005359933
149	0xbc1dcacf	-0.009630873
150	0xbc5f5fbd	-0.013633666
151	0x3a85bb59	0.0010202929
152	0xbaa11cc5	-0.0012291899
153	0xbc228589	-0.009919533
154	0xbc6716f8	-0.014104597
155	0xbba562bf	-0.005047172
156	0x3c4b179d	0.012395767
157	0x398f917f	0.00027383488
158	0xbbc1fcf5	-0.0059200474
159	0x3cc14354	0.023591675
160	0xbb9b06e5	-0.0047310465
161	0x3c8afebf	0.016967176
162	0xbb02ddab	-0.001996855
163	0xba303564	-0.0006721823
164	0xbbb3dedb	-0.005489213
165	0xbc2ed41e	-0.01067069
166	0x3c2f1c0d	0.01068784
167	0x3bd9a912	0.006642469
168	0x3c529e45	0.012855117
169	0x3b8cc5db	0.004296047
170	0x3bef50e0	0.007303342
171	0x3bbc1513	0.005739817
172	0x3c47277f	0.012155413
173	0xbb6fce97	-0.0036591643
174	0x3ba40ca5	0.00500639
175	0xba457f3f	-0.0007533915
176	0xbbbd7264	-0.0057814587
177	0xbaa2f153	-0.0012431539
178	0x3c24febb	0.010070498
179	0x3b228330	0.0024797432
180	0xbac1cac9	-0.0014785166
181	0x3b8ecfd2	0.00435827
182	0xba9de43f	-0.0012046172
183	0xbb5420b8	-0.0032368135
184	0xbc16ca86	-0.009203559
185	0x3bc8b571	0.006125145
186	0xbb9fcedb	-0.004876954
187	0x3c01824c	0.0079046
188	0x3c9a9725	0.0188709
189	0xbc0757b8	-0.00826066
190	0x3bb9ae4b	0.0056665293
191	0x3c245801	0.010030747
192	0xbb6f823f	-0.0036546139
193	0xbbbc12c6	-0.0057395427
194	0xbc36f48f	-0.011166706
195	0xbae1c3ff	-0.0017224549
196	0xbc180e37	-0.009280733
197	0xbc11f027	-0.008907354
198	0x3a74d0b2	0.00093389594
199	0xbc412d97	-0.011790655
200	0xbc1a4483	-0.0094157485
201	0x3c3cb45b	0.0115176095
202	0xbb0006b2	-0.001953524
203	0x3aebbaaa	0.0017984707
204	0x3be9a575	0.0071303197
205	0x3c585218	0.013203166
206	0x3ceb8892	0.028751645
207	0x3b8c9a80	0.004290879
208	0xbb6fe847	-0.0036606954
209	0xbca20403	-0.019777304
210	0x3c341449	0.0109911645
211	0xbbc45fbf	-0.005992859
212	0xbc543b93	-0.012953657
213	0xbc96449b	-0.01834326
214	0x3c81d6be	0.015849467
215	0xbbc79aef	-0.0060914676
216	0xbc22f386	-0.009945756
217	0xbb5612dd	-0.0032665052
218	0x3aef9598	0.0018278835
219	0xbb9fe188	-0.0048791803
220	0x3bb608f1	0.005555265
221	0x3c53d07f	0.012928127
222	0x3b97ffe3	0.0046386584
223	0xbb51458b	-0.003193232
224	0xbcd1705a	-0.025566269
225	0xbc00d68a	-0.00786365
226	0xbb949fa8	-0.004535634
227	0x3c247f9d	0.010040191
228	0xba552395	-0.00081306073
229	0x3b6f6330	0.0036527626
230	0x3c42571c	0.011861589
231	0x3b8c5509	0.004282598
232	0xbbff5c4f	-0.0077929865
233	0xbc82f9bb	-0.015988221
234	0x3c5f99fa	0.013647551
235	0xbc19f630	-0.009397075
236	0xbb0a8027	-0.0021133514
237	0xbbcf7a55	-0.006331722
238	0x3a881eaa	0.0010385115
239	0x3c003a5f	0.007826417
240	0xbbfa6a3f	-0.00764206
241	0xbbb99c5f	-0.005664393
242	0xbc13ce52	-0.009021359
243	0x3b427e47	0.0029677318
244	0xbaeb0f05	-0.0017933553
245	0x3c18d800	0.009328842
246	0x3c807e2c	0.015685163
247	0xbb260cc3	-0.0025337196
248	0xbbd2076f	-0.0064095776
249	0xbc981f73	-0.018569684
250	0xbb825071	-0.0039768745
251	0x3c08840f	0.0083322665
252	0xbb2cec69	-0.0026386029
253	0xbbb24817	-0.0054407227
254	0x3c912dcd	0.017722035
255	0x3b2f2f80	0.0026731193

network_body.linear_encoder.seq_layers.0.bias f4 [128]
0	0x00000000	0.0
1	0x00000000	0.0
2	0x00000000	0.0
3	0x00000000	0.0
4	0x00000000	0.0
5	0x00000000	0.0
6	0x00000000	0.0
7	0x00000000	0.0
8	0x00000000	0.0
9	0x00000000	0.0
10	0x00000000	0.0
11	0x00000000	0.0
12	0x00000000	0.0
13	0x00000000	0.0
14	0x00000000	0.0
15	0x00000000	0.0
16	0x00000000	0.0
17	0x00000000	0.0
18	0x00000000	0.0
19	0x00000000	0.0
20	0x00000000	0.0
21	0x00000000	0.0
22	0x00000000	0.0
23	0x00000000	0.0
24	0x00000000	0.0
25	0x00000000	0.0
26	0x00000000	0.0
27	0x00000000	0.0
28	0x00000000	0.0
29	0x00000000	0.0
30	0x00000000	0.0
31	0x00000000	0.0
32	0x00000000	0.0
33	0x00000000	0.0
34	0x00000000	0.0
35	0x00000000	0.0
36	0x00000000	0.0
37	0x00000000	0.0
38	0x00000000	0.0
39	0x00000000	0.0
40	0x00000000	0.0
41	0x00000000	0.0
42	0x00000000	0.0
43	0x00000000	0.0
44	0x00000000	0.0
45	0x00000000	0.0
46	0x00000000	0.0
47	0x00000000	0.0
48	0x00000000	0.0
49	0x00000000	0.0
50	0x00000000	0.0
51	0x00000000	0.0
52	0x00000000	0.0
53	0x00000000	0.0
54	0x00000000	0.0
55	0x00000000	0.0
56	0x00000000	0.0
57	0x00000000	0.0
58	0x00000000	0.0
59	0x00000000	0.0
60	0x00000000	0.0
61	0x00000000	0.0
62	0x00000000	0.0
63	0x00000000	0.0
64	0x00000000	0.0
65	0x00000000	0.0
66	0x00000000	0.0
67	0x00000000	0.0
68	0x00000000	0.0
69	0x00000000	0.0
70	0x00000000	0.0
71	0x00000000	0.0
72	0x00000000	0.0
73	0x00000000	0.0
74	0x00000000	0.0
75	0x00000000	0.0
76	0x00000000	0.0
77	0x00000000	0.0
78	0x00000000	0.0
79	0x00000000	0.0
80	0x00000000	0.0
81	0x00000000	0.0
82	0x00000000	0.0
83	0x00000000	0.0
84	0x00000000	0.0
85	0x00000000	0.0
86	0x00000000	0.0
87	0x00000000	0.0
88	0x00000000	0.0
89	0x00000000	0.0
90	0x00000000	0.0
91	0x00000000	0.0
92	0x00000000	0.0
93	0x00000000	0.0
94	0x00000000	0.0
95	0x00000000	0.0
96	0x00000000	0.0
97	0x00000000	0.0
98	0x00000000	0.0
99	0x00000000	0.0
100	0x00000000	0.0
101	0x00000000	0.0
102	0x00000000	0.0
103	0x00000000	0.0
104	0x00000000	0.0
105	0x00000000	0.0
106	0x00000000	0.0
107	0x00000000	0.0
108	0x00000000	0.0
109	0x00000000	0.0
110	0x00000000	0.0
111	0x00000000	0.0
112	0x00000000	0.0
113	0x00000000	0.0
114	0x00000000	0.0
115	0x00000000	0.0
116	0x00000000	0.0
117	0x00000000	0.0
118	0x00000000	0.0
119	0x00000000	0.0
120	0x00000000	0.0
121	0x00000000	0.0
122	0x00000000	0.0
123	0x00000000	0.0
124	0x00000000	0.0
125	0x00000000	0.0
126	0x00000000	0.0
127	0x00000000	0.0

network_body.linear_encoder.seq_layers.0.weight f4 [128, 24]
0	0x3e9c60c9	0.3054259
1	0xbe065df3	-0.13121776
2	0x3e408f5b	0.18804686
3	0x3e1408da	0.14456502
4	0xbe820225	-0.2539226
5	0xbd3e946b	-0.04652826
6	0xbd44d80d	-0.048057605
7	0x3ee7e605	0.45292678
8	0xbe4ea9ee	-0.2018201
9	0xbe0287bf	-0.12747096
10	0xbe2716e6	-0.16317329
11	0x3eae7929	0.34076813
12	0x3e4d8afa	0.20072547
13	0xbe6d8be0	-0.2319789
14	0x3da4eb3f	0.08052682
15	0x3e43c23a	0.1911706
16	0x3dde09fe	0.108417496
17	0xbeb1a0e8	-0.34693074
18	0xbc906179	-0.017624604
19	0xbe840238	-0.25782943
20	0x3d79f103	0.061020862
21	0x3ee5fa49	0.44917515
22	0x3e61ad3a	0.22038737
23	0xbe2c9d25	-0.16856821
24	0xbe96084e	-0.2930321
25	0x3e1f2edc	0.15545219
26	0xbeba5bfc	-0.36398304
27	0xbcf88f6d	-0.030341828
28	0x3da37dee	0.079830036
29	0xbe39525b	-0.18097822
30	0x3e046bce	0.12931749
31	0x3d5af471	0.053455774
32	0x3da128ec	0.07869133
33	0xbe2d5eda	-0.16930714
34	0xbd34f934	-0.04418297
35	0xbda822b3	-0.08209743
36	0x3e22afe7	0.15887414
37	0xbda122bb	-0.078679524
38	0xbe395f0b	-0.18102662
39	0xbd94afa0	-0.0726006
40	0x3c4572e4	0.012051318
41	0xbd84f630	-0.06492269
42	0x3e378a46	0.17923841
43	0xbed4f3df	-0.4159231
44	0x3e6bc18e	0.23023054
45	0x3daa1fca	0.083068445
46	0x3e8f6668	0.28007817
47	0x3e3337ba	0.17501727
48	0xbe1599df	-0.14609478
49	0xbe290eac	-0.16509503
50	0x3e509859	0.20370616
51	0xbd63476f	-0.055488046
52	0xbe05d4fa	-0.13069525
53	0x3e55be5b	0.20873396
54	0x3d37804d	0.04480009
55	0x3d5bb2d7	0.05363735
56	0xbee1d3bb	-0.4410685
57	0x39ef4c5d	0.00045642527
58	0x3c421ab6	0.011847189
59	0xbd88fa33	-0.06688347
60	0x3d8e9992	0.06962885
61	0xb9fd6265	-0.0004832923
62	0xbe6d8d12	-0.23198345
63	0xbecbe11a	-0.39820176
64	0xbdecbb91	-0.11559213
65	0xbe8c2acd	-0.27376404
66	0x3e12ed72	0.1434839
67	0xbda06ec7	-0.07833629
68	0xbdc4a637	-0.096020155
69	0x3bbe86d7	0.005814414
70	0xbe37e828	-0.17959654
71	0xbe580e84	-0.21099287
72	0xbde0a55c	-0.1096904
73	0x3e0c25e5	0.1368633
74	0xbd21a12c	-0.039460346
75	0x3e8f249f	0.27957627
76	0x3f0eb5c0	0.5574608
77	0x3e495ec8	0.19665062
78	0x3e7d77a8	0.24752676
79	0xbe4c709a	-0.19964829
80	0xbe5c4e15	-0.21514161
81	0x3e2d064e	0.16896936
82	0x3e45b53c	0.19307417
83	0xbd275730	-0.040854633
84	0x3c41f4e5	0.011838173
85	0x3e6bcbed	0.2302701
86	0xbe19050c	-0.14943331
87	0xbc708d65	-0.014682149
88	0xbde492e0	-0.11160827
89	0x3e8a8a2b	0.2705854
90	0xbe142518	-0.14467275
91	0x3ea649f4	0.32478297
92	0x3e573294	0.21015388
93	0x3de3ad44	0.11117032
94	0x3e5f6452	0.21815613
95	0x3e90c73b	0.28277
96	0xbe40c891	-0.1882651
97	0xbc7ef8b7	-0.015562228
98	0xbe549348	-0.20759308
99	0xbe51d900	-0.20492935
100	0xbe5ad41f	-0.2136998
101	0x3dee6c84	0.116417915
102	0x3df56dcf	0.11983835
103	0xbe908631	-0.2822738
104	0xbcd05514	-0.025431193
105	0x3e180005	0.14843757
106	0xbde01d68	-0.10943109
107	0xbd051ff5	-0.03250118
108	0xbde5994d	-0.112108804
109	0x3e77f324	0.24213845
110	0x3e9af7d9	0.30267218
111	0x3dbaf152	0.091280594
112	0xbc5d23f7	-0.013497344
113	0x3e020150	0.12695813
114	0x3e0b671e	0.13613555
115	0xbe575eb1	-0.21032216
116	0xbdbd19fd	-0.092334725
117	0x3e05141e	0.12995955
118	0x3d939d84	0.07207778
119	0xbe4b38b1	-0.19845845
120	0x3d1619e5	0.03664579
121	0x3deca1c7	0.11554294
122	0xbe1b69d5	-0.1517709
123	0xbdb4932d	-0.08817134
124	0xbe94edc8	-0.29087663
125	0x3da3d6d2	0.07999958
126	0x3d4dc61a	0.050237752
127	0xbeadafb7	-0.33923122
128	0xbe41ee88	-0.18938649
129	0xbd0d5de3	-0.034513365
130	0x3d41b306	0.04728987
131	0x3e9f0cb2	0.31064373
132	0xbcf444ca	-0.029817957
133	0x3d8cabdf	0.06868719
134	0x3ed73dcf	0.42039344
135	0x3d1c3634	0.03813763
136	0x3ebcd745	0.36882988
137	0x3e496ba1	0.19669963
138	0xbec51d87	-0.3849909
139	0x3c72babe	0.014815031
140	0xbd3d713b	-0.046250563
141	0x3cde71b5	0.02715383
142	0x3de957a7	0.113936715
143	0x3d350f84	0.04420425
144	0x3d1e5e2f	0.03866404
145	0xbe915e7b	-0.28392395
146	0x3e1f67e4	0.15566975
147	0xbe4e21c3	-0.20130067
148	0x3e6092ad	0.21930952
149	0x3d8ad847	0.06779533
150	0xbcfb2303	-0.030656343
151	0x3e7a52cb	0.24445646
152	0x3d9f2cfc	0.07772252
153	0xbe05099b	-0.12991945
154	0xbde7c667	-0.11317139
155	0xbd0b4982	-0.03400565
156	0xbebe3d26	-0.37156028
157	0xbea893de	-0.32925314
158	0xbe30c4b8	-0.17262542
159	0x3dbfa8d4	0.09358373
160	0x3e60678c	0.219145
161	0xbda75df3	-0.08172216
162	0x3eaaa244	0.33326924
163	0x3d0058bc	0.031334624
164	0xbd523367	-0.051318552
165	0xbdefe6d4	-0.11713949
166	0xbdc87cb3	-0.097894095
167	0x3eab0773	0.3340412
168	0x3bfed815	0.007777224
169	0xbc28ba92	-0.010298388
170	0x3dddd22a	0.10831101
171	0x3ba01c77	0.004886206
172	0xbde3f37c	-0.11130425
173	0x3e1f9e01	0.15587617
174	0xbe9eff1c	-0.31054008
175	0x3c533672	0.012891399
176	0xbbe069dd	-0.0068485574
177	0xbdb7c5cd	-0.089732744
178	0x3e12cc41	0.14335729
179	0x3e5b8abf	0.21439646
180	0xbe829cc7	-0.25510237
181	0xbdf1f092	-0.11813463
182	0x3ca3ae15	0.01998047
183	0xbd0eff3e	-0.034911387
184	0x3e8d6909	0.27619198
185	0xbdbbb644	-0.09165624
186	0x3e969c40	0.29416084
187	0xbeb3c511	-0.35111287
188	0x3d18fccb	0.037350457
189	0xbe2c2b01	-0.1681328
190	0xbd95bd0b	-0.07311448
191	0xbf2298f1	-0.6351462
192	0xbe11014a	-0.14160648
193	0x3df4269e	0.11921428
194	0xbcfbd16b	-0.030739507
195	0xbc25b185	-0.010113125
196	0x3e29b7ca	0.16574016
197	0x3db093d6	0.086219475
198	0x3e8bf6d8	0.27336764
199	0x3deae9cb	0.11470374
200	0x3de86684	0.11347678
201	0x3e221508	0.15828335
202	0xbdd34916	-0.103166744
203	0x3db031de	0.086032614
204	0xbce9f215	-0.028557817
205	0x3e8802cb	0.2656463
206	0x3e0c5c13	0.13706999
207	0x3dd93a23	0.10606792
208	0xbe15eca5	-0.14641054
209	0xbe1c8eab	-0.15288799
210	0x3d381618	0.044942945
211	0xbd860121	-0.06543184
212	0xbc80e292	-0.015733037
213	0xbd2e7c44	-0.042598978
214	0x3dbbe1c3	0.0917392
215	0x3e9dfd2a	0.3085721
216	0x3d2264f0	0.039647043
217	0xbea7f832	-0.32806545
218	0xbdfb2a3e	-0.122639164
219	0x3e2b438a	0.16724983
220	0x3ef040df	0.46924493
221	0xbdecaab4	-0.115559965
222	0xbf023179	-0.5085674
223	0xbcdd209f	-0.026993094
224	0x3cdf6da9	0.02727397
225	0x3ddddefb	0.10833546
226	0x3eacebd2	0.33773667
227	0xbea66ff0	-0.32507277
228	0x3db64504	0.088998824
229	0xbdf4ae7d	-0.119473435
230	0xbd362284	-0.04446651
231	0xb996df24	-0.00028776482
232	0xbe3c6ebc	-0.18401617
233	0xbe04d3d0	-0.12971425
234	0x3e3af385	0.18256958
235	0xbe3ab9b5	-0.18234904
236	0x3d95cd9a	0.07314606
237	0xbecf5688	-0.40495706
238	0xbd54b105	-0.05192663
239	0xbd104c5d	-0.035229076
240	0xbe416d90	-0.18889451
241	0xbce3cdc6	-0.027808081
242	0xbd9d1e20	-0.076717615
243	0xbdb5bfa6	-0.08874445
244	0x3e81d1a4	0.25355256
245	0xbedd8e80	-0.4327278
246	0xbd9c7552	-0.076395646
247	0x3eab9492	0.33511788
248	0xbd986d62	-0.07442738
249	0xbd945d86	-0.07244401
250	0xbc97a5e9	-0.01851173
251	0xbe28a52c	-0.16469258
252	0x3d5190e1	0.051163558
253	0x3e16875b	0.14700072
254	0xbe0613fd	-0.13093562
255	0x3eda3d59	0.4262493

network_body.linear_encoder.seq_layers.2.bias f4 [128]
0	0x00000000	0.0
1	0x00000000	0.0
2	0x00000000	0.0
3	0x00000000	0.0
4	0x00000000	0.0
5	0x00000000	0.0
6	0x00000000	0.0
7	0x00000000	0.0
8	0x00000000	0.0
9	0x00000000	0.0
10	0x00000000	0.0
11	0x00000000	0.0
12	0x00000000	0.0
13	0x00000000	0.0
14	0x00000000	0.0
15	0x00000000	0.0
16	0x00000000	0.0
17	0x00000000	0.0
18	0x00000000	0.0
19	0x00000000	0.0
20	0x00000000	0.0
21	0x00000000	0.0
22	0x00000000	0.0
23	0x00000000	0.0
24	0x00000000	0.0
25	0x00000000	0.0
26	0x00000000	0.0
27	0x00000000	0.0
28	0x00000000	0.0
29	0x00000000	0.0
30	0x00000000	0.0
31	0x00000000	0.0
32	0x00000000	0.0
33	0x00000000	0.0
34	0x00000000	0.0
35	0x00000000	0.0
36	0x00000000	0.0
37	0x00000000	0.0
38	0x00000000	0.0
39	0x00000000	0.0
40	0x00000000	0.0
41	0x00000000	0.0
42	0x00000000	0.0
43	0x00000000	0.0
44	0x00000000	0.0
45	0x00000000	0.0
46	0x00000000	0.0
47	0x00000000	0.0
48	0x00000000	0.0
49	0x00000000	0.0
50	0x00000000	0.0
51	0x00000000	0.0
52	0x00000000	0.0
53	0x00000000	0.0
54	0x00000000	0.0
55	0x00000000	0.0
56	0x00000000	0.0
57	0x00000000	0.0
58	0x00000000	0.0
59	0x00000000	0.0
60	0x00000000	0.0
61	0x00000000	0.0
62	0x00000000	0.0
63	0x00000000	0.0
64	0x00000000	0.0
65	0x00000000	0.0
66	0x00000000	0.0
67	0x00000000	0.0
68	0x00000000	0.0
69	0x00000000	0.0
70	0x00000000	0.0
71	0x00000000	0.0
72	0x00000000	0.0
73	0x00000000	0.0
74	0x00000000	0.0
75	0x00000000	0.0
76	0x00000000	0.0
77	0x00000000	0.0
78	0x00000000	0.0
79	0x00000000	0.0
80	0x00000000	0.0
81	0x00000000	0.0
82	0x00000000	0.0
83	0x00000000	0.0
84	0x00000000	0.0
85	0x00000000	0.0
86	0x00000000	0.0
87	0x00000000	0.0
88	0x00000000	0.0
89	0x00000000	0.0
90	0x00000000	0.0
91	0x00000000	0.0
92	0x00000000	0.0
93	0x00000000	0.0
94	0x00000000	0.0
95	0x00000000	0.0
96	0x00000000	0.0
97	0x00000000	0.0
98	0x00000000	0.0
99	0x00000000	0.0
100	0x00000000	0.0
101	0x00000000	0.0
102	0x00000000	0.0
103	0x00000000	0.0
104	0x00000000	0.0
105	0x00000000	0.0
106	0x00000000	0.0
107	0x00000000	0.0
108	0x00000000	0.0
109	0x00000000	0.0
110	0x00000000	0.0
111	0x00000000	0.0
112	0x00000000	0.0
113	0x00000000	0.0
114	0x00000000	0.0
115	0x00000000	0.0
116	0x00000000	0.0
117	0x00000000	0.0
118	0x00000000	0.0
119	0x00000000	0.0
120	0x00000000	0.0
121	0x00000000	0.0
122	0x00000000	0.0
123	0x00000000	0.0
124	0x00000000	0.0
125	0x00000000	0.0
126	0x00000000	0.0
127	0x00000000	0.0

network_body.linear_encoder.seq_layers.2.weight f4 [128, 128]
0	0xbc8ccbd2	-0.017187033
1	0xbc55d220	-0.013050586
2	0x3da737d9	0.08164949
3	0x3d73725c	0.059435233
4	0x3cfc7214	0.030816115
5	0xbdc71be4	-0.097221166
6	0xbe09129a	-0.13386002
7	0xbdb686ce	-0.08912431
8	0xbe26192b	-0.16220538
9	0xbdbd04d3	-0.09229436
10	0x3d3f6c31	0.04673404
11	0xbd5dc54b	-0.05414323
12	0xbd191bda	-0.037380077
13	0x3d866682	0.065625206
14	0x39f32284	0.00046374288
15	0xbdbe155c	-0.09281418
16	0xbcb86298	-0.02250795
17	0xbd21f81a	-0.03954325
18	0x3d307ac0	0.043085814
19	0x3d1db778	0.038505048
20	0x3d10b780	0.03533125
21	0x3e00dbf3	0.12583904
22	0xbe0592a9	-0.13044228
23	0x3dd5e9d4	0.1044499
24	0xbc9f1bb3	-0.019422388
25	0xbe27a1ff	-0.1637039
26	0xbb758703	-0.0037464506
27	0x3dbf502e	0.09341465
28	0xbe088707	-0.13332759
29	0x3d21fb19	0.039546106
30	0xbd28da7b	-0.041223984
31	0xbd1d070e	-0.038336806
32	0x3ccebd28	0.025236681
33	0xbc6c43fb	-0.014420505
34	0x3db6f1e4	0.08932856
35	0x3c8741c7	0.016510857
36	0x3dd57846	0.10423331
37	0xbd1df17f	-0.038560387
38	0x3d3c8e6b	0.046034258
39	0x3d1353f8	0.03596875
40	0x3e4cd2c6	0.20002279
41	0x3d762b9c	0.060100183
42	0x3db1b3ac	0.08676848
43	0xbdaf8049	-0.0856939
44	0xbd9f70ff	-0.07785224
45	0xbcb457aa	-0.022014458
46	0xbdd0532d	-0.101721145
47	0x3d63bd6b	0.055600565
48	0xbda78bd1	-0.08180965
49	0x3d7b0303	0.06128217
50	0x3cc0dc02	0.023542408
51	0x3dc182fa	0.0944881
52	0xbd4c1e08	-0.049833328
53	0x3d43c697	0.047796812
54	0xbdb1232f	-0.08649289
55	0xbc322d3f	-0.010875045
56	0x3d6ebef0	0.05828756
57	0x3e668e6c	0.22515267
58	0x3dd3fba8	0.10350734
59	0x3e2180b6	0.15771756
60	0x3e12c0fc	0.1433143
61	0x3dc859d1	0.09782756
62	0xbe328333	-0.17432861
63	0x3c8fa000	0.017532349
64	0xbe211ee3	-0.15734439
65	0xbd6c8614	-0.057745054
66	0xbcab4250	-0.020905644
67	0x3d4ab1c4	0.049485937
68	0xbd7e2559	-0.062047336
69	0x3d01098b	0.03150324
70	0x3db41e02	0.08794786
71	0x3df7c206	0.12097554
72	0xbb3008e4	-0.0026860768
73	0xbd63ef5e	-0.0556482
74	0x3d5474eb	0.051869314
75	0x3be829c1	0.0070850556
76	0xbd68a368	-0.05679646
77	0x3b9bf95e	0.0047599515
78	0x3cdb21e8	0.026749566
79	0xbdf16655	-0.117870964
80	0x3e16ba49	0.147195
81	0x3e079584	0.1324063
82	0xbe00ad51	-0.12566115
83	0x3d2ae2e1	0.041720275
84	0xbda48471	-0.08033074
85	0xbd94219a	-0.072329715
86	0xbdcd3b6e	-0.10021101
87	0xbdd30c0d	-0.10305033
88	0x3d21e588	0.03952554
89	0x3d8dd3be	0.06925152
90	0xbe1579a7	-0.14597188
91	0x3de1c598	0.11024016
92	0x3d1e545f	0.03865468
93	0xbe1d17ce	-0.15341112
94	0x3d4863b2	0.0489232
95	0xbd38b0d2	-0.045090504
96	0x3dd5a269	0.10431368
97	0x3d81c02b	0.06335481
98	0x3e156f56	0.14593253
99	0xbe1bd964	-0.15219647
100	0xbd1aacaa	-0.03776232
101	0x3c26716c	0.010158878
102	0x3cb4e7d7	0.022083206
103	0xbdbf1c3a	-0.09331556
104	0x3e2427e5	0.16030844
105	0x3dad795e	0.084704146
106	0xbdf2a87b	-0.11848541
107	0xbd921b90	-0.071341634
108	0x3d912605	0.0708733
109	0xbe3f6157	-0.18689476
110	0xbcda6716	-0.026660483
111	0xbc88f4b3	-0.016718244
112	0xbce6ea4c	-0.028187893
113	0xbd9f7134	-0.07785264
114	0xbe6b5b5c	-0.2298407
115	0x3e045efc	0.12926859
116	0xbdbc8172	-0.09204377
117	0xbe0f68ac	-0.14004773
118	0x3cc7110f	0.024300126
119	0x3c50a363	0.012734267
120	0xbd3a2021	-0.045440797
121	0xbe18be61	-0.14916374
122	0xbd0491f8	-0.03236577
123	0x3e3a9766	0.18221816
124	0x3d9a9d91	0.07549585
125	0xbdf6d0af	-0.12051522
126	0x3c7f2913	0.015573758
127	0xbe12f17d	-0.14349933
128	0x3d8cf717	0.06883066
129	0xbc8ef67c	-0.017451517
130	0xbd634527	-0.05548587
131	0xbd9b41f7	-0.07580941
132	0x3d147d8d	0.036252547
133	0xbd93ed1f	-0.07222962
134	0xbb672619	-0.003527051
135	0x3cb60e97	0.022223754
136	0x3d438fbf	0.04774451
137	0xbd628fa7	-0.05531278
138	0xbdd7d165	-0.10537986
139	0x3d41e4d4	0.047337368
140	0x3c11eff5	0.008907308
141	0xbc77cb89	-0.01512421
142	0xbd1f670f	-0.038916644
143	0xbc9e2099	-0.019302653
144	0x3dbdc169	0.09265406
145	0xbcdb2ab5	-0.026753763
146	0x3d647e6a	0.05578462
147	0xbe0a37a6	-0.1349779
148	0x3d0f83ed	0.035037924
149	0xbdef73a2	-0.11691977
150	0xbd9682a2	-0.07349135
151	0xbe069224	-0.13141686
152	0x3e1eb62a	0.15499178
153	0x3b6f592d	0.0036521659
154	0xbe4296c7	-0.1900283
155	0x3dab3e5c	0.083615035
156	0x3d500347	0.050784376
157	0xbde55927	-0.11198645
158	0xbdfe2104	-0.12408641
159	0xbda10e41	-0.07864047
160	0xbdf5774c	-0.11985645
161	0x3d4615da	0.048360683
162	0xbca3b6fc	-0.019984715
163	0x3d1834e7	0.037159827
164	0xbd574576	-0.052556477
165	0x3c6a0f73	0.01428591
166	0x3cd197ea	0.025585134
167	0xbe6ea54c	-0.23305243
168	0xbda3113c	-0.079622716
169	0xbbc4f815	-0.006011019
170	0xbb57ab51	-0.003290851
171	0xbd57eca5	-0.052715916
172	0x3c40f2e3	0.011776659
173	0x3c84a90b	0.016193887
174	0xbd41e9b1	-0.047342006
175	0xbdbe54dc	-0.092935294
176	0xbda45fe2	-0.08026101
177	0xbdb8f605	-0.090312995
178	0xbd1b4482	-0.03790713
179	0xbbd6f9af	-0.0065605263
180	0xbdad1acf	-0.08452379
181	0xbdc5af92	-0.09652628
182	0xbdc98087	-0.09838968
183	0xbc12c053	-0.0089569865
184	0x3e13e65c	0.14443344
185	0x3d83bcef	0.064325206
186	0x3dca76a2	0.09885909
187	0xbb8c3dee	-0.0042798435
188	0x3dd44b8d	0.10365973
189	0xbd240c18	-0.040050596
190	0x3d7da022	0.061920293
191	0x3de64fed	0.112457134
192	0x3da1dc0a	0.07903297
193	0xbd9c8c69	-0.076439686
194	0xbc268f4c	-0.010166001
195	0xbd3cd5fa	-0.0461025
196	0xbe21d343	-0.15803246
197	0x3d128e92	0.035780497
198	0xbe019686	-0.12655076
199	0xbdaa5dd3	-0.08318677
200	0xbd4d7d18	-0.050168127
201	0xb9f449e6	-0.00046594365
202	0x3e168ef9	0.14702977
203	0xbc506357	-0.012718997
204	0xbc293543	-0.01032764
205	0xbd48a6d2	-0.048987217
206	0x3c498674	0.0123001225
207	0x3d37ae61	0.044844035
208	0x3e1a6f18	0.15081441
209	0x3de50ca1	0.111840494
210	0x3c23311f	0.009960442
211	0x3c1418e9	0.009039142
212	0x3d3b2839	0.045692656
213	0x3d5be7f9	0.053688023
214	0xbdb2fb47	-0.087393336
215	0xbd826ea5	-0.0636876
216	0xbdb8e2b2	-0.09027614
217	0xbc8492b5	-0.016183237
218	0xbde19db2	-0.11016406
219	0xbbf8a840	-0.0075884163
220	0x3c4aac6f	0.012370213
221	0x3cff8d3d	0.031195277
222	0xbd001fcd	-0.031280328
223	0xbbf3763e	-0.007429867
224	0xbdc50623	-0.09620311
225	0xbb5ef6a1	-0.0034021514
226	0xbe417eb8	-0.18895996
227	0x3ce8199d	0.028332526
228	0x3dd32c9e	0.103112444
229	0xbc20ee61	-0.009822459
230	0x3d84f4b3	0.06491985
231	0x3d9e625a	0.07733603
232	0x3e215d3d	0.15758224
233	0xbc85a0e4	-0.01631207
234	0xbdd3caa8	-0.10341388
235	0x3dc80adb	0.097676955
236	0xbbcf9ce0	-0.0063358396
237	0x3d5e3b9f	0.054256078
238	0xbdfddf59	-0.12396116
239	0xbd02ea7a	-0.031961896
240	0x3c3caaa7	0.011515296
241	0xbde15739	-0.110029645
242	0x3e1bbcdd	0.15208764
243	0x3bddef5b	0.006772918
244	0xbd2c2a24	-0.042032376
245	0xbc041ded	-0.0080637755
246	0xbce8a998	-0.028401181
247	0xbd7f8fa1	-0.062392835
248	0xbdc25868	-0.094895184
249	0x3c27cbd2	0.010241466
250	0xbdb9464d	-0.09046612
251	0xbccb2a1a	-0.024800349
252	0x3e504151	0.20337416
253	0x3d59067f	0.05298471
254	0xba976e90	-0.0011553336
255	0x3d0b02f7	0.033938374
