mlagentlearn/results/02Run/airHockey/airHockey-2970.pt (torch, 170113 bytes, 13 tensors)

network_body.linear_encoder.seq_layers.0.weight f4 [128, 24]
000000 96 24 ca be 52 63 76 be 9d 40 68 be 52 b6 2a 3e
       -0.39481038 -0.24061325 -0.22680898 0.16671112
000010 cd 72 ad 3e f6 6d dc bd 54 0a 95 be 3b d3 60 3d
       0.3387665 -0.10763161 -0.29109442 0.054888945
000020 a3 9c 85 3e b6 eb 3b be 54 97 01 be 34 eb a6 3d
       0.26096067 -0.18351635 -0.12655383 0.0815033
000030 0f 9c bf bc 42 00 89 3e 6b 38 08 3e 52 2d 0a bf
       -0.023389844 0.2675801 0.13302772 -0.53975403
000040 e2 b5 bf 3e c3 17 3d 3d 78 a0 64 3e e4 28 6a be
       0.37443453 0.04616524 0.22326839 -0.22867161
000050 81 df 52 be a8 02 37 bd 34 7e 91 bd 2f f4 57 3d
       -0.20593072 -0.044680268 -0.071041495 0.052723106
000060 43 35 cb 3e 31 94 51 3e 83 d0 79 3e 10 54 7a 3e
       0.39689073 0.20466687 0.24395947 0.2444613
000070 c0 c6 95 be 22 f2 27 3e 6c 32 5f 3e 3c f9 b4 bc
       -0.29253197 0.1640096 0.21796578 -0.0220915
000080 1a d1 82 3e 71 94 81 be 8b d8 3c 3e 7e ec 14 be
       0.25550157 -0.25308564 0.1844198 -0.1454334
000090 79 d0 aa 3b 3c d8 31 be ea ae 2c bd 54 3f 13 be
       0.00521284 -0.17367643 -0.042159 -0.14379627
0000a0 44 69 46 3e 35 2c 58 3e f2 08 c2 bc 38 fd 00 be
       0.19376093 0.21110614 -0.023685906 -0.12596595
0000b0 c6 e1 43 be 95 44 7c bd 60 4e c0 3d 05 d0 75 bd
       -0.19129094 -0.061588842 0.09389949 -0.060012836
0000c0 ff 73 a7 3d d5 46 e2 3e f9 00 b7 be 32 1d a7 be
       0.081764214 0.44194666 -0.3574293 -0.32639462
0000d0 a4 a4 ed bb 34 77 eb bd 45 f4 bb be fb 01 65 be
       -0.0072522927 -0.114973456 -0.367098 -0.22364037
0000e0 c4 70 66 3e c4 37 8a be 73 00 66 bd 78 14 74 3e
       0.22503954 -0.2699567 -0.056152772 0.23835933
0000f0 94 82 b1 bd 5a 18 4f 3e 31 a8 6b be 7e c2 c5 3d
       -0.08667484 0.20224133 -0.23013379 0.09656237
000100 4a 9f b5 be 7d 0f 5f be 84 91 e4 3d ca 49 29 be
       -0.3547309 -0.21783252 0.111605674 -0.16532055
000110 aa df 9e bc 72 0b b5 be fd fc 3c 3e 7b 6c 73 bd
       -0.01939376 -0.35360295 0.18455882 -0.059429627
000120 24 bf f7 3d eb 00 03 bf e6 25 cf bd 1d a9 67 3e
       0.12097004 -0.51173276 -0.101146504 0.22623105
000130 6a f2 c8 3e 3d 8b db 3e 13 56 8c 3d f6 17 56 3e
       0.39247447 0.42879668 0.06852355 0.20907578
000140 31 3f 83 3d a0 80 27 bd 83 d1 3f bd ac 8d 96 3d
       0.06408537 -0.04089415 -0.046830665 0.073512405
000150 2c 08 28 bd 94 4f d8 bc 80 28 5b be f8 4b b5 3e
       -0.04102342 -0.026405133 -0.21402168 0.35409522
000160 6d 56 00 be ad 58 5c 3e 72 7a 86 be b5 1f 9e 3d
       -0.12532969 0.21518202 -0.26265293 0.077208914
000170 ca ff 94 3e 14 4f db bc 19 af a5 be 6e 94 83 bd
       0.29101402 -0.026771106 -0.3236015 -0.06424795
000180 d1 1f e0 bd 98 6a bd 3e b1 dd ef 3e 28 79 97 bc
       -0.109435685 0.36995387 0.46848825 -0.018490389
000190 ca 8e d1 3d 59 1f b0 3d fc 4c 80 be 9b 89 50 3e
       0.10232313 0.08599729 -0.25058734 0.20364992
0001a0 8f 43 62 be 00 39 f3 be 88 e4 64 3d 01 02 29 be
       -0.22096084 -0.47504425 0.055882007 -0.1650467
0001b0 54 1f 89 3e 2c 5a 74 3e 44 93 1f bd 70 36 d7 be
       0.26781714 0.23862523 -0.038958803 -0.4203372
0001c0 db 02 dc 3e f2 69 97 bd 08 4c 52 3e 8d 06 7f be
       0.4297093 -0.07393254 0.20536816 -0.24904843
0001d0 5e e3 ee bd 2d 61 d4 ba 60 d2 be bd ec a6 6d be
       -0.116644606 -0.0016203277 -0.093174696 -0.23208207
0001e0 39 e6 8a 3e c1 be ae be d8 33 da bc 7e b1 b9 bd
       0.2712877 -0.3412991 -0.02663605 -0.09067057
0001f0 b8 f4 eb 3e 10 03 0d be 9f cc 10 bd 1d 48 4e be
       0.46085143 -0.137707 -0.035351392 -0.20144697
000200 80 ee 11 3e 72 14 10 3e 15 b8 d4 be e3 4b 40 3e
       0.14251137 0.140703 -0.41546693 0.18778948
000210 c3 c9 09 3d c5 bc ac 3e a7 51 83 b9 bc 1d bb 3e
       0.03363968 0.3373777 -0.00025047103 0.36546123
000220 ea f0 d5 3e 4c 9c 99 be cc df 85 be c5 54 82 3c
       0.41785365 -0.30002058 -0.26147306 0.015909562
000230 08 7f 0b be 02 22 d3 bd a9 99 79 be c0 38 3f bd
       -0.13622677 -0.10309221 -0.24375023 -0.04668498
000240 e5 8e 73 bd cf 2a 17 be 56 9d 2e 3e 8c 93 e9 be
       -0.059462447 -0.14762424 0.17052206 -0.45620382
000250 3a a8 82 be a2 3c c5 3d f6 b8 94 3e c4 fe 60 3e
       -0.25518972 0.096307054 0.29047364 0.21972185
000260 31 12 01 bd 19 dc 6d 3e b3 99 6b 3e d5 66 11 be
       -0.03151149 0.23228492 0.2300785 -0.14199384
000270 f0 84 e4 bd 98 54 a9 bd 87 7b 76 3e 5e 31 47 be
       -0.11158168 -0.08268088 0.2407056 -0.19452426
000280 06 ff 84 be 24 20 ca 3e ac 98 95 3c 7f 31 51 bd
       -0.25975817 0.39477646 0.018261276 -0.051072594
000290 fd a1 d1 bd 6e e3 4e be 84 59 89 be 9a 01 90 bd
       -0.10235975 -0.20203945 -0.26826108 -0.070315555
0002a0 5f ad 62 bd a1 3b f9 bd 0f 95 e3 3d bb 4d 2b 3e
       -0.05534112 -0.121695764 0.11112415 0.1672887
0002b0 99 a7 07 be d1 8d 32 3e 3a ff dd 3d ee 47 be 3e
       -0.13247527 0.17436911 0.10839696 0.37164253
0002c0 a6 34 af be 49 d3 2c bd 09 31 5d be fe a8 86 be
       -0.34219855 -0.042193685 -0.21600737 -0.26300806
0002d0 0f 2a d6 be c5 ec e0 3e a8 ef cf 3a 3f 24 99 be
       -0.41828963 0.4393064 0.001586427 -0.29910466
0002e0 56 e0 ee be ea 1e 4e be 68 4a 32 3e af c4 10 bf
       -0.4665553 -0.2012898 0.17411196 -0.56550115
0002f0 38 1a 41 be 73 91 20 3d 05 34 c6 bd 40 4c 5c bd
       -0.18857658 0.03920121 -0.09677891 -0.053783655
000300 c3 de b3 3e ea 73 82 bb a3 ce 95 3e 20 c5 03 3e
       0.3513089 -0.003981103 0.29259214 0.12868166
000310 e8 48 ca 3d c7 f6 31 bd ff 47 06 3e 00 88 d3 bd
       0.09877187 -0.043448236 0.13113402 -0.10328674
000320 13 11 21 be fb 61 8c bd eb c6 41 3d 0a 69 06 be
       -0.1572917 -0.06854626 0.047308844 -0.13126007
000330 7b ae 9b bd 98 17 0a be d0 f4 8f be b8 4a 2b bd
       -0.07601639 -0.13485563 -0.28116465 -0.041819304
000340 7f f6 3c be 61 74 e5 3b ef 77 e2 bd a0 43 82 bd
       -0.18453406 0.007002399 -0.11058032 -0.06360555
000350 d3 1d fe 3d 38 6d 46 bd f3 58 68 3b 28 bd 9e 3e
       0.12408032 -0.048444003 0.0035453408 0.3100369
000360 f3 e6 c4 3d e3 fa ae 3d 20 91 90 3c 53 d5 18 be
       0.096143626 0.085439466 0.017647326 -0.14925127
000370 ef 29 88 3d ff b1 4e 3e b3 68 c5 3d f7 98 8f 3e
       0.06648623 0.20185088 0.096391104 0.2804639
000380 23 ed b5 be 33 e8 78 3e 4d 78 1a 3e 9f 23 58 be
       -0.35532483 0.24307327 0.15084954 -0.21107338
000390 80 17 37 be 96 5a 26 be 69 f8 0c be 3e 97 8b 3e
       -0.17880058 -0.16245493 -0.13766636 0.27263826
0003a0 3e 05 20 3e 80 81 35 3e b2 82 cb 3d b5 93 9d be
       0.15627 0.17725182 0.099370375 -0.30776754
0003b0 fe 9f 58 3e ef 89 09 3e a2 e5 19 be 68 4e 8b 3e
       0.21154782 0.13431524 -0.15029004 0.27208257
0003c0 98 4c 7e bd fe b1 32 3d a1 62 32 bc e9 4b ec 3c
       -0.062084764 0.043626778 -0.010887773 0.02884479
0003d0 00 38 31 be 38 ca 97 3d 4c d7 f1 be 08 1f c9 be
       -0.17306519 0.07411617 -0.4723457 -0.39281487
0003e0 5e c3 50 bd 2d 9e 70 3d 10 12 c9 3d 6c 40 fb bd
       -0.050967567 0.0587446 0.09817898 -0.12268147
0003f0 e2 73 80 be 66 35 28 be d7 1a 12 be 62 9f ce bd
       -0.25088412 -0.1642662 -0.14268051 -0.100889936

network_body.linear_encoder.seq_layers.0.bias f4 [128]
000000 00 00 00 00 00 00 00 00 00 00 00 00 00 00 00 00
       0.0 0.0 0.0 0.0
000010 00 00 00 00 00 00 00 00 00 00 00 00 00 00 00 00
       0.0 0.0 0.0 0.0
000020 00 00 00 00 00 00 00 00 00 00 00 00 00 00 00 00
       0.0 0.0 0.0 0.0
000030 00 00 00 00 00 00 00 00 00 00 00 00 00 00 00 00
       0.0 0.0 0.0 0.0
000040 00 00 00 00 00 00 00 00 00 00 00 00 00 00 00 00
       0.0 0.0 0.0 0.0
000050 00 00 00 00 00 00 00 00 00 00 00 00 00 00 00 00
       0.0 0.0 0.0 0.0
000060 00 00 00 00 00 00 00 00 00 00 00 00 00 00 00 00
       0.0 0.0 0.0 0.0
000070 00 00 00 00 00 00 00 00 00 00 00 00 00 00 00 00
       0.0 0.0 0.0 0.0
000080 00 00 00 00 00 00 00 00 00 00 00 00 00 00 00 00
       0.0 0.0 0.0 0.0
000090 00 00 00 00 00 00 00 00 00 00 00 00 00 00 00 00
       0.0 0.0 0.0 0.0
0000a0 00 00 00 00 00 00 00 00 00 00 00 00 00 00 00 00
       0.0 0.0 0.0 0.0
0000b0 00 00 00 00 00 00 00 00 00 00 00 00 00 00 00 00
       0.0 0.0 0.0 0.0
0000c0 00 00 00 00 00 00 00 00 00 00 00 00 00 00 00 00
       0.0 0.0 0.0 0.0
0000d0 00 00 00 00 00 00 00 00 00 00 00 00 00 00 00 00
       0.0 0.0 0.0 0.0
0000e0 00 00 00 00 00 00 00 00 00 00 00 00 00 00 00 00
       0.0 0.0 0.0 0.0
0000f0 00 00 00 00 00 00 00 00 00 00 00 00 00 00 00 00
       0.0 0.0 0.0 0.0
000100 00 00 00 00 00 00 00 00 00 00 00 00 00 00 00 00
       0.0 0.0 0.0 0.0
000110 00 00 00 00 00 00 00 00 00 00 00 00 00 00 00 00
       0.0 0.0 0.0 0.0
000120 00 00 00 00 00 00 00 00 00 00 00 00 00 00 00 00
       0.0 0.0 0.0 0.0
000130 00 00 00 00 00 00 00 00 00 00 00 00 00 00 00 00
       0.0 0.0 0.0 0.0
000140 00 00 00 00 00 00 00 00 00 00 00 00 00 00 00 00
       0.0 0.0 0.0 0.0
000150 00 00 00 00 00 00 00 00 00 00 00 00 00 00 00 00
       0.0 0.0 0.0 0.0
000160 00 00 00 00 00 00 00 00 00 00 00 00 00 00 00 00
       0.0 0.0 0.0 0.0
000170 00 00 00 00 00 00 00 00 00 00 00 00 00 00 00 00
       0.0 0.0 0.0 0.0
000180 00 00 00 00 00 00 00 00 00 00 00 00 00 00 00 00
       0.0 0.0 0.0 0.0
000190 00 00 00 00 00 00 00 00 00 00 00 00 00 00 00 00
       0.0 0.0 0.0 0.0
0001a0 00 00 00 00 00 00 00 00 00 00 00 00 00 00 00 00
       0.0 0.0 0.0 0.0
0001b0 00 00 00 00 00 00 00 00 00 00 00 00 00 00 00 00
       0.0 0.0 0.0 0.0
0001c0 00 00 00 00 00 00 00 00 00 00 00 00 00 00 00 00
       0.0 0.0 0.0 0.0
0001d0 00 00 00 00 00 00 00 00 00 00 00 00 00 00 00 00
       0.0 0.0 0.0 0.0
0001e0 00 00 00 00 00 00 00 00 00 00 00 00 00 00 00 00
       0.0 0.0 0.0 0.0
0001f0 00 00 00 00 00 00 00 00 00 00 00 00 00 00 00 00
       0.0 0.0 0.0 0.0

network_body.linear_encoder.seq_layers.2.weight f4 [128, 128]
000000 82 ff ca bc 42 fb a0 3d bc c6 06 bd fa 40 3c 3d
       -0.024780039 0.078604236 -0.03290437 0.045960404
000010 06 f3 18 3d 7a a8 af ba 89 16 99 ba 3f 32 a7 3c
       0.03734114 -0.001340165 -0.001167969 0.020409701
000020 eb 29 fa bd a6 38 bc 3d 41 c9 f5 3d 12 78 0a bd
       -0.122150265 0.09190492 0.12001277 -0.033805914
000030 d4 81 66 bd c5 58 bb bc 44 a7 1a 3e ab 61 a5 3c
       -0.056276157 -0.022869477 0.1510287 0.020188173
000040 69 af 94 bc e4 69 05 be 88 44 7a bd 0f a8 11 3d
       -0.018150048 -0.13028675 -0.061100513 0.035560664
000050 2e 74 37 bd 41 1e 3d bd 02 a9 05 be 06 ef 1b bd
       -0.044788532 -0.04617143 -0.13052753 -0.038069747
000060 73 f9 fd 3b 10 51 ac bb 11 3a 03 be 12 5f 07 3d
       0.007750684 -0.005258687 -0.1281512 0.03304965
000070 b6 7b fa bd 1a cd 26 be f3 ba b9 bd 0f 46 34 bc
       -0.12230627 -0.16289178 -0.09068861 -0.011003031
000080 2a 61 07 be 1f 5c 36 bd a4 7e e8 bc 26 91 0f be
       -0.13220659 -0.044521447 -0.0283807 -0.14020213
000090 c1 7b 91 3d 46 b5 98 bd 82 54 9f bd b8 8f cb bd
       0.07103682 -0.0745645 -0.077797905 -0.099395216
0000a0 fd bc 5c 3d 3b 72 1a bc 48 57 c3 bd f5 03 cf 3b
       0.05389117 -0.009426649 -0.09538132 0.0063176104
0000b0 da 24 81 3d 02 60 38 3c 7b 7e a4 3d 74 2c dd 3c
       0.06305857 0.011253359 0.08031937 0.026998736
0000c0 57 f6 17 3e 5f b4 b5 3d 73 f7 d2 3d 2a c0 76 3d
       0.14840065 0.08872294 0.103011034 0.060241856
0000d0 b0 87 cf bd 94 6e f6 3c 40 4d d8 3b f2 b2 2d 3e
       -0.10133302 0.030082025 0.006601006 0.16962793
0000e0 90 35 99 bd c9 45 08 3e 8a 11 5a bb 33 2e cf 3d
       -0.07480919 0.13307871 -0.0033274614 0.10116234
0000f0 90 42 13 3d 9b 47 03 3e 7b c0 0e bd 70 0b 18 3d
       0.03595215 0.12820284 -0.034851532 0.037120283
000100 60 d1 39 3c 65 a3 1a be 40 01 8e 3d a6 f6 e3 3d
       0.011341423 -0.15101393 0.06933832 0.11131029
000110 eb 95 da 3d 8b 62 73 3d 4f 28 b3 3c 9b 4c 3d be
       0.10673126 0.05942015 0.021869807 -0.18486254
000120 cd fe 7f 3c 9a 2e a9 3d 40 66 e7 bc 51 02 ed 3d
       0.015624714 0.08260842 -0.028246999 0.115727074
000130 59 92 8e 3d 21 72 c4 3d 04 d8 94 3c cf b1 c3 3c
       0.06961507 0.09592081 0.01816941 0.023888497
000140 c9 ba 83 bd bb 98 ba bd 29 98 90 3c cf 55 13 be
       -0.06432111 -0.09111162 0.01765068 -0.14388202
000150 5e 70 c1 3d 29 c8 a9 3d b9 18 d3 bd ec 76 90 bd
       0.094452605 0.08290131 -0.1030745 -0.070539325
000160 92 f6 b2 3d bf 4e 00 be de ca 8e 3c 4a 90 0a be
       0.08738436 -0.12530039 0.017430719 -0.13531604
000170 e1 f0 5b 3d 63 03 0f 3d b1 a4 3f bb 51 df c5 3c
       0.053696517 0.03491534 -0.002924245 0.024154337
000180 eb e5 97 3b 7a 66 a1 bd cb 15 9b bd 58 53 ad 3c
       0.0046355627 -0.07880874 -0.07572516 0.021157905
000190 35 8e 79 3d f9 3a 05 bd 96 a2 f8 bd 63 48 57 bc
       0.060926635 -0.032526944 -0.12140386 -0.013139817
0001a0 f5 6b 53 bc fd d4 5f 3b 3d 36 91 bb 40 3f db 3d
       -0.012904157 0.003415405 -0.0044315145 0.10705423
0001b0 51 f1 cd bc 4b 50 98 3b 1f 54 5c bd 83 99 da bd
       -0.025139483 0.0046482435 -0.05379116 -0.10673811
0001c0 27 07 68 bd 53 92 30 3c 00 43 10 bd f1 1b b1 bd
       -0.056647446 0.010777074 -0.035220146 -0.086479075
0001d0 4e 30 ab bd 05 05 ed 3d 2e de cd 3d 87 51 14 3e
       -0.08358823 0.11573223 0.10052143 0.14484225
0001e0 f0 8c c2 bc 47 1f f3 bd 8b fb ad bb 4a 4f 0b 3e
       -0.023748845 -0.118712 -0.0053095273 0.13604465
0001f0 db d8 08 be 8b 45 7c 3c 94 8f 1e 3d 0a a3 2e bd
       -0.13363974 0.01539744 0.038711146 -0.042635955
000200 5e e9 f5 bd 9e 27 9b bd 00 f7 47 bd 5e c7 65 bc
       -0.12007402 -0.07575916 -0.048819542 -0.014024584
000210 81 c3 3c 3b 61 84 86 bd db f0 9c bd 40 91 26 3d
       0.0028803053 -0.06568218 -0.07663127 0.040665865
000220 df b7 f5 bd 03 d8 b2 3d 77 11 4e bd ad 0f a8 3c
       -0.11997961 0.08732607 -0.050309625 0.020515287
000230 b2 d7 88 3d bb e7 70 bc a6 28 52 3d 4c 09 b7 3d
       0.066817656 -0.014703686 0.051308297 0.0893732
000240 bf af 5b 3c 8b 88 da bb bd b5 74 be 32 3c 3f bc
       0.0134086 -0.006669109 -0.23897453 -0.0116720665
000250 bb af fc 3d 07 78 e6 3d 4d e3 48 be f3 cd 5c 3d
       0.123382054 0.11253362 -0.19617958 0.053907346
000260 67 d3 5d bd ca 37 3c bd 86 ff 0d bd 18 e3 42 be
       -0.054156687 -0.045951642 -0.034667514 -0.19031942
000270 85 0c f7 3c e8 1c af 3a 4c e2 83 3d 05 94 e8 bc
       0.030157337 0.0013360055 0.06439647 -0.028390894
000280 0b be a9 3d 50 c5 16 bb 90 51 ba bc 89 7f 3b bd
       0.08288201 -0.002300579 -0.02274397 -0.045775924
000290 a7 06 f3 bc 62 a8 00 3d 66 f2 32 3c 30 cd 43 3d
       -0.029666258 0.031410582 0.01092205 0.047803104
0002a0 88 20 b9 bd da 3e 00 3e 6d 3d f3 bd ac dd 5a bd
       -0.09039408 0.12523976 -0.118769504 -0.05343406
0002b0 d0 29 5d bd fa 43 35 be 2b fd c2 3d a1 dc 38 bc
       -0.053994954 -0.17701712 0.09520944 -0.011283071
0002c0 05 c1 7a 3d ab ff 93 bd 2b e2 c9 3d e2 02 ce bd
       0.061219234 -0.07226499 0.09857591 -0.100591436
0002d0 30 ad 3a be ad 3f dd bc 9c 4c b5 bc 66 6e 3c 3c
       -0.18230128 -0.027007902 -0.022131257 0.01150093
0002e0 c5 6a 80 3d 25 f1 07 be e8 5c ce 3d a1 0b 09 3e
       0.06270365 -0.13275583 0.10076314 0.13383342
0002f0 a3 bd 32 3d d6 57 e4 3c e3 6e db bd 3d 1f 8c bd
       0.043637883 0.027873915 -0.10714509 -0.06841896
000300 c8 c7 e2 bd 51 50 a3 3d 64 0c cc 3b f4 68 bf 3d
       -0.110732615 0.079743035 0.006227063 0.0934619
000310 e3 57 1d 3e 6a 3a 2d be 49 a4 b7 bd 85 0a 10 bd
       0.15365557 -0.16916814 -0.08966882 -0.035166282
000320 95 14 ff bd 5c a0 10 3d 84 66 e4 3d 8c 4f d4 bd
       -0.124550976 0.03530918 0.11152366 -0.10366735
000330 a4 83 6a bb 14 d9 26 bd 57 a9 c6 3d 76 61 86 bd
       -0.003578403 -0.040734366 0.09700268 -0.06561558
000340 7a d1 1f be aa ec 95 3c 2b f1 ef 3a af 44 3b bd
       -0.15607253 0.018301327 0.0018306127 -0.0457198
000350 8f 3d 91 bd 8a 59 fa 3d 2a e9 5f bd a8 bc 28 3d
       -0.070918195 0.122241095 -0.054665722 0.04119554
000360 3e db 7b bd a6 d2 47 bc 60 8e a0 bd d0 02 01 be
       -0.061488383 -0.012196219 -0.07839656 -0.12598729
000370 cb 6e ed 3b 9d ce 11 3e 93 da e6 bd 09 72 35 3d
       0.0072458736 0.14238973 -0.112721585 0.044298206
000380 0f 58 3a bd b0 48 37 bd 3a 2c 05 3e b8 19 a3 bc
       -0.045494135 -0.044747055 0.13005152 -0.019909725
000390 f5 c0 2f 3e 2b 13 62 bd 25 64 0d 3d 13 99 12 bc
       0.17163451 -0.05519406 0.034519333 -0.008947629
0003a0 66 14 a8 bc 40 32 79 3c c7 ea ac bd 0d 25 37 bb
       -0.02051754 0.015209734 -0.08443218 -0.0027945668
0003b0 8c 30 22 be 6f d7 00 3d 5c 0e b0 3d 84 b6 82 3d
       -0.15838832 0.031455453 0.08596489 0.06382468
0003c0 c1 f3 4a bd 86 3f 48 bd d1 d4 b3 bd 31 c0 1a 3c
       -0.049548868 -0.048888706 -0.08780826 0.009445236
0003d0 59 da 40 3d b4 c1 f3 3c 97 4d d4 3d 4f 18 b4 3b
       0.047083233 0.02975545 0.103663616 0.005496062
0003e0 7a 12 07 3d 6f a9 54 3c ca 7f a5 3d 05 b2 6e bb
       0.032976605 0.012979849 0.080810145 -0.0036422026
0003f0 98 50 cf bd 5a 5e 2e 3d 9f 84 f3 3c 71 7d 8e 3c
       -0.10122794 0.04257045 0.029726325 0.0173938

network_body.linear_encoder.seq_layers.2.bias f4 [128]
000000 00 00 00 00 00 00 00 00 00 00 00 00 00 00 00 00
       0.0 0.0 0.0 0.0
000010 00 00 00 00 00 00 00 00 00 00 00 00 00 00 00 00
       0.0 0.0 0.0 0.0
000020 00 00 00 00 00 00 00 00 00 00 00 00 00 00 00 00
       0.0 0.0 0.0 0.0
000030 00 00 00 00 00 00 00 00 00 00 00 00 00 00 00 00
       0.0 0.0 0.0 0.0
000040 00 00 00 00 00 00 00 00 00 00 00 00 00 00 00 00
       0.0 0.0 0.0 0.0
000050 00 00 00 00 00 00 00 00 00 00 00 00 00 00 00 00
       0.0 0.0 0.0 0.0
000060 00 00 00 00 00 00 00 00 00 00 00 00 00 00 00 00
       0.0 0.0 0.0 0.0
000070 00 00 00 00 00 00 00 00 00 00 00 00 00 00 00 00
       0.0 0.0 0.0 0.0
000080 00 00 00 00 00 00 00 00 00 00 00 00 00 00 00 00
       0.0 0.0 0.0 0.0
000090 00 00 00 00 00 00 00 00 00 00 00 00 00 00 00 00
       0.0 0.0 0.0 0.0
0000a0 00 00 00 00 00 00 00 00 00 00 00 00 00 00 00 00
       0.0 0.0 0.0 0.0
0000b0 00 00 00 00 00 00 00 00 00 00 00 00 00 00 00 00
       0.0 0.0 0.0 0.0
0000c0 00 00 00 00 00 00 00 00 00 00 00 00 00 00 00 00
       0.0 0.0 0.0 0.0
0000d0 00 00 00 00 00 00 00 00 00 00 00 00 00 00 00 00
       0.0 0.0 0.0 0.0
0000e0 00 00 00 00 00 00 00 00 00 00 00 00 00 00 00 00
       0.0 0.0 0.0 0.0
0000f0 00 00 00 00 00 00 00 00 00 00 00 00 00 00 00 00
       0.0 0.0 0.0 0.0
000100 00 00 00 00 00 00 00 00 00 00 00 00 00 00 00 00
       0.0 0.0 0.0 0.0
000110 00 00 00 00 00 00 00 00 00 00 00 00 00 00 00 00
       0.0 0.0 0.0 0.0
000120 00 00 00 00 00 00 00 00 00 00 00 00 00 00 00 00
       0.0 0.0 0.0 0.0
000130 00 00 00 00 00 00 00 00 00 00 00 00 00 00 00 00
       0.0 0.0 0.0 0.0
000140 00 00 00 00 00 00 00 00 00 00 00 00 00 00 00 00
       0.0 0.0 0.0 0.0
000150 00 00 00 00 00 00 00 00 00 00 00 00 00 00 00 00
       0.0 0.0 0.0 0.0
000160 00 00 00 00 00 00 00 00 00 00 00 00 00 00 00 00
       0.0 0.0 0.0 0.0
000170 00 00 00 00 00 00 00 00 00 00 00 00 00 00 00 00
       0.0 0.0 0.0 0.0
000180 00 00 00 00 00 00 00 00 00 00 00 00 00 00 00 00
       0.0 0.0 0.0 0.0
000190 00 00 00 00 00 00 00 00 00 00 00 00 00 00 00 00
       0.0 0.0 0.0 0.0
0001a0 00 00 00 00 00 00 00 00 00 00 00 00 00 00 00 00
       0.0 0.0 0.0 0.0
0001b0 00 00 00 00 00 00 00 00 00 00 00 00 00 00 00 00
       0.0 0.0 0.0 0.0
0001c0 00 00 00 00 00 00 00 00 00 00 00 00 00 00 00 00
       0.0 0.0 0.0 0.0
0001d0 00 00 00 00 00 00 00 00 00 00 00 00 00 00 00 00
       0.0 0.0 0.0 0.0
0001e0 00 00 00 00 00 00 00 00 00 00 00 00 00 00 00 00
       0.0 0.0 0.0 0.0
0001f0 00 00 00 00 00 00 00 00 00 00 00 00 00 00 00 00
       0.0 0.0 0.0 0.0

action_model._discrete_distribution.branches.0.weight f4 [3, 128]
000000 2d a6 c2 3a 48 66 f4 ba 53 10 5c bc 42 2f 34 3b
       0.001485055 -0.0018646205 -0.013431626 0.0027493988
000010 61 95 91 bb 0f 58 72 3c c6 8c 49 bc f5 24 2a bb
       -0.004442856 0.014791503 -0.012301629 -0.002596197
000020 ea ef 85 bb 4d b0 8d bc ca c2 f0 bb 99 48 3a bc
       -0.004087438 -0.01729598 -0.0073474394 -0.011369848
000030 a2 06 7e 3c 3f dc 4d bc a2 6c 19 3c a8 57 f0 bb
       0.015504511 -0.012564718 0.009364279 -0.007334668
000040 bf 3c 11 bc 47 c9 86 bb 7f e6 97 3b a9 20 8a 3b
       -0.008864581 -0.0041133496 0.0046356316 0.004215319
000050 d2 de 29 3b 00 8c 32 3b ec 42 41 3c 72 ad ee 3b
       0.0025920165 0.002724409 0.011795741 0.00728386
000060 50 f8 aa 3b 4a ee 2f 3c ba ee fe 3b 33 b6 fc 3a
       0.0052175894 0.010737965 0.0077799233 0.0019280374
000070 76 a0 cb ba cb 5a 7b 3c 33 fb 90 39 7d b0 95 bb
       -0.0015535492 0.015341471 0.00027652978 -0.004568158
000080 10 8a 2f bb fa f0 f1 bb 7a b3 50 3b 10 21 4f 3b
       -0.0026785173 -0.007383463 0.0031845258 0.00316054
000090 fc 7b a9 bb 83 64 4b 3c 35 72 67 3b 73 fc 42 3c
       -0.005172251 0.012414101 0.0035315875 0.011901009
0000a0 57 ac 97 3b f5 b7 7a 39 67 2c 19 bb 5b 06 27 bb
       0.004628699 0.00023910387 -0.0023372413 -0.0025485966
0000b0 3f 69 cb bb bb 2c 48 bc df 0f 18 bc d3 24 bb 3b
       -0.0062076147 -0.012217696 -0.009281128 0.005711177
0000c0 98 f5 82 bb 67 97 81 3c 3b 20 51 3c f7 71 06 bc
       -0.003996562 0.015819265 0.012764032 -0.008205882
0000d0 ed 9e 6a bb 8a 0c 79 3a 0f 84 da bb 42 93 7b 3b
       -0.0035800294 0.00095004647 -0.0066685746 0.0038387333
0000e0 59 3b 42 bb 50 54 5d 39 6c 3b 8b 3b 35 d0 ee 3b
       -0.0029637425 0.00021107611 0.004249027 0.007288004
0000f0 cb 23 00 3c 65 f9 41 3a 17 fe da 3a 0d b6 d5 3a
       0.007821034 0.00073995284 0.0016707805 0.0016304866
000100 28 1b 4e bc d3 05 2d bc 12 b1 8e 3b 45 5a d4 ba
       -0.012579717 -0.010560471 0.0043546045 -0.0016201219
000110 2d a3 92 bb ea da 0d bc 7f bc ce ba ba f8 45 bc
       -0.0044750185 -0.00865815 -0.0015772729 -0.012083227
000120 4c 00 2d 3c 23 f1 83 bc 5c 05 9d 3b 13 6c 52 bc
       0.010559153 -0.016106194 0.0047918987 -0.01284315
000130 36 d3 9a 3c a7 e3 43 3a 43 5e 9e 3b 22 7b 32 bb
       0.018899541 0.00074725825 0.004833014 -0.0027234037
000140 2a 8d ff 3a 8b 65 5f bb ab a1 a1 3b 8d 94 4d b8
       0.0019497026 -0.0034087624 0.0049326024 -4.9014157e-05
000150 00 f4 4c 3b 80 b1 76 bc e3 7d 1c 3c 27 ec ab 3b
       0.0031273365 -0.015056968 0.009551498 0.0052466574
000160 f5 f2 1f bc 7b b7 9f bb 73 f6 1a 3c 39 8a 88 3c
       -0.009762515 -0.0048741675 0.009458172 0.016667472
000170 b7 f7 2f ba 80 bf bc 3a ba c7 fa bb 93 d6 ba bb
       -0.00067126326 0.0014400333 -0.007653204 -0.005701849
000180 cc 59 b0 bb ae 63 38 3b d3 09 0b 3c a0 db 6b 3c
       -0.0053817984 0.0028135586 0.008486229 0.014395624
000190 64 b2 92 ba 0f f6 e7 3b f5 b1 f7 bb 85 6a 51 3c
       -0.001119208 0.007078893 -0.007559056 0.012781744
0001a0 38 a4 99 3b 4d b1 12 3b f5 98 61 3b c0 55 5b bc
       0.004688766 0.0022383512 0.0034423445 -0.013387144
0001b0 30 88 1f bc d7 f0 cb bb eb d4 ef 3a 0d 3c f4 ba
       -0.0097370595 -0.0062237787 0.0018297707 -0.0018633619
0001c0 87 4d 1a 3b fb 84 50 bb 4f d6 b6 bc f8 3a 14 bc
       0.0023544745 -0.0031817544 -0.022318987 -0.009047262
0001d0 7a 69 4e bc 8a 74 f4 3b cd e8 ea bb 6d c9 ff bb
       -0.01259839 0.0074601816 -0.0071688653 -0.0078059942
0001e0 be ba c7 ba d4 d0 26 bc a4 ce 2d bc 75 e2 28 3c
       -0.0015238149 -0.010181624 -0.010608349 0.010307898
0001f0 e3 63 92 3a 6b 81 18 3c 97 b8 73 bc 43 f0 b2 bc
       0.0011168685 0.009308199 -0.014875553 -0.021843081
000200 51 3d 88 bc c0 60 62 ba 6d 2c 0c 3b 9f a9 a3 bb
       -0.0166308 -0.00086356327 0.0021388785 -0.0049945856
000210 88 33 7c 3c 23 35 e4 3b 70 3f e8 3a 32 0f 61 3b
       0.015393145 0.006964342 0.0017719101 0.0034341333
000220 ab ee 81 3b 88 5c 72 bb 18 17 de bb 35 ef 92 bb
       0.003965219 -0.0036981422 -0.0067776553 -0.004484082
000230 0c 7e 24 bc d3 3b 1c 3c cd c6 93 bb 8d d3 1a 3c
       -0.010039818 0.009535748 -0.004509783 0.009449852
000240 6a 99 aa 3c 3b 75 95 bb 88 fd 71 3c e1 2f 86 3a
       0.020825107 -0.004561094 0.014769919 0.0010237658
000250 77 a3 09 bc 0c 8d 80 3b e2 8f 0e bb 22 34 e2 bb
       -0.008400789 0.003923064 -0.0021753241 -0.0069031874
000260 f2 eb 81 b9 67 12 10 3c 96 08 9e 3c b9 f6 af 3a
       -0.0002478059 0.00879345 0.019291203 0.001342497
000270 08 d6 de ba 3a 13 ca bb 0f 58 1c bc 11 f4 b2 3b
       -0.0017001042 -0.0061668428 -0.009542479 0.005461224
000280 cb 64 12 3c 15 6b 5d bc 73 f9 68 3b e8 23 58 bc
       0.008935164 -0.0135143 0.0035549074 -0.0131921545
000290 13 69 dd bb 7d f3 5b bb 94 63 b9 bb eb 20 96 bc
       -0.0067569106 -0.0033561878 -0.0056576226 -0.018326243
0002a0 e7 f6 0a 3c f9 0a 48 bc 33 a4 7e 3a 9f b2 2b 3c
       0.008481718 -0.012209647 0.00097137986 0.010479598
0002b0 17 e6 77 3b f5 34 38 3c f3 89 31 bc 55 de c9 bb
       0.0037826353 0.011243095 -0.010836112 -0.0061605372
0002c0 4b 21 91 39 82 9a 62 3c 93 55 d4 ba 02 63 64 3b
       0.0002768136 0.013830783 -0.001619982 0.0034849052
0002d0 5c 59 05 b9 1b 7f be bc 65 70 a9 3b 8d db 60 bc
       -0.00012717157 -0.023253968 0.005170869 -0.01372422
0002e0 35 3e f3 3b 23 d2 82 bc a9 6e 94 bc de 59 85 3b
       0.007423187 -0.015969342 -0.018119173 0.004069551
0002f0 f7 45 42 3b 18 ae 0f bc 33 cb 57 bc ad e0 cd 39
       0.0029643753 -0.0087695345 -0.013171005 0.00039268043
000300 cb 4e 86 bb 1b c0 8a 3c 9b eb ba 3a 76 46 33 bc
       -0.0040987483 0.016937306 0.001426089 -0.010942092
000310 63 27 c5 ba 2b 33 b2 3a a4 8f 80 3b d1 f9 1a 3c
       -0.0015041645 0.0013595572 0.0039233733 0.009458975
000320 f7 09 df 3b df 8f a8 3b 2f 91 cd ba c7 97 bb b9
       0.006806608 0.005144104 -0.0015683527 -0.00035780502
000330 30 aa e3 3b 54 35 2a ba 1a 61 62 bb 79 db 44 bb
       0.006947778 -0.0006492932 -0.003454274 -0.0030038042
000340 72 b6 f0 ba b3 0c 2b 3c 88 bd eb 3b c4 98 31 bc
       -0.001836492 0.010440039 0.0071942247 -0.010839645
000350 d1 d1 3a 3c 78 f1 86 bb ba 3a 8c bb 77 c9 77 bb
       0.011402563 -0.004118141 -0.0042794617 -0.0037809291
000360 a9 90 21 3c 2b 2f 06 bc bd 8a 5a bc 52 24 88 bb
       0.00986115 -0.008189957 -0.013338742 -0.0041547203
000370 ad 37 08 3c 0c 66 06 bc 7f 50 12 3b 67 d2 c7 bb
       0.008314055 -0.008203041 0.0022325811 -0.00609808
000380 f5 a5 f7 bb 6f 45 48 3a 23 1c 42 bc 54 e1 0b bc
       -0.0075576254 0.0007639741 -0.011847529 -0.008537609
000390 0a 11 55 bc d9 9b 98 bb 46 69 0f 3b f8 6a e7 3a
       -0.013004551 -0.0046572504 0.0021882816 0.001765578
0003a0 0f 64 95 b9 df 5f 98 b9 38 1b bf bb 9a 15 8f ba
       -0.00028494044 -0.0002906313 -0.005832102 -0.0010916472
0003b0 c7 ff 42 3c c8 f0 93 bc bb 45 3d 3c 27 53 16 3b
       0.011901802 -0.01805915 0.01155227 0.0022937746
0003c0 85 2a 40 38 19 58 16 3b 77 eb 75 bc 4f af 4d ba
       4.5815967e-05 0.0022940694 -0.0150097525 -0.00078462524
0003d0 d5 bd 9b 3b f5 05 d1 3a e7 f7 2d ba 0e 07 39 bc
       0.0047528544 0.001594721 -0.00066363666 -0.011293186
0003e0 b2 1a 2d bc 1b 89 20 3b ed a2 81 bb 25 e2 f4 b9
       -0.010565447 0.0024495784 -0.00395619 -0.00046707797
0003f0 02 46 e8 bb dd 34 b8 3a 37 59 c0 3a 12 a6 86 3b
       -0.0070884237 0.001405384 0.0014675026 0.0041091526

action_model._discrete_distribution.branches.0.bias f4 [3]
000000 00 00 00 00 00 00 00 00 00 00 00 00
       0.0 0.0 0.0

action_model._discrete_distribution.branches.1.weight f4 [3, 128]
000000 2b 82 07 bb 75 c3 11 3c 71 3a 16 3b 01 f0 a6 3b
       -0.0020676951 0.008896698 0.0022923017 0.0050945287
000010 8e e3 49 3b c3 ba 43 ba 42 9e f8 3b 1b fd 86 bb
       0.00308058 -0.00074664893 0.007587225 -0.004119528
000020 34 91 85 ba e7 ea 9b 3c fa 8c 09 bb 4a 3f 41 3a
       -0.0010190369 0.019032909 -0.002098857 0.00073717965
000030 50 7e ff 3b d3 4b e7 bb 9b 3e f5 3b a2 ad 85 bc
       0.00779704 -0.0070585995 0.00748427 -0.016318146
000040 5f ce 40 bc 92 d2 4a bc 96 2d 03 3c 8a 6e b0 3b
       -0.011767953 -0.012379305 0.008006474 0.005384271
000050 b2 7f e7 3a 80 ee 65 bb 6e c7 9c 39 87 6f 9b bb
       0.0017661958 -0.0035084784 0.00029903225 -0.0047435197
000060 c0 33 ea bb 9d 03 22 bc 6d cf a5 ba 9d cb ac bc
       -0.0071472824 -0.009888557 -0.0012650319 -0.021093184
000070 9f b5 2c 3c 7b bc 1a bc ad 4b db ba 0f 6c ad 3b
       0.010541349 -0.009444351 -0.0016730927 0.0052924226
000080 20 f7 72 bb e3 1a 81 b9 af ee da 3b 55 0e 6d bc
       -0.0037073568 -0.0002462483 0.0066812853 -0.014468749
000090 43 52 38 3c 33 72 0d bc 73 d2 83 bb 61 d9 ae 3c
       0.0112500815 -0.008633184 -0.0040228902 0.021343889
0000a0 06 4d 96 3b ea 0a d9 3a 0a 2c 26 bc 97 3b 75 bb
       0.0045868186 0.0016559039 -0.010142336 -0.0037419552
0000b0 07 af 31 bb 7f b4 a3 bb 4c 49 13 3b 53 ea 3e bb
       -0.002711238 -0.004995882 0.0022474108 -0.0029131367
0000c0 48 56 2e 3c 43 0e 4f bc e4 11 aa 3a f3 13 a8 3b
       0.010640688 -0.012637678 0.0012975303 0.0051293313
0000d0 0b f2 85 3b 58 c5 87 bb 13 00 2f 3b 82 be 40 3c
       0.0040876917 -0.0041433983 0.0026702925 0.011764171
0000e0 24 cf 0e bc 2f e1 d3 3b bf 84 2e 3a 43 44 01 3c
       -0.008716378 0.006466053 0.0006657354 0.00788981
0000f0 48 41 78 bc 88 fc cc ba e2 2b 03 3b 91 3b a4 3a
       -0.015152283 -0.0015639225 0.002001517 0.0012529959
000100 88 e5 0a 3c 4f fc 28 bc ae 80 18 3b 66 17 98 3b
       0.008477576 -0.010314061 0.0023270058 0.004641461
000110 53 2a 08 3c f8 d4 3e 3b 6f 81 90 3b 2a 69 60 3c
       0.008310872 0.0029118638 0.004409961 0.013696948
000120 a5 ef 9d 3b d3 56 6f 3b 88 8d b6 bb e3 aa d0 bb
       0.0048198276 0.0036520257 -0.005571071 -0.0063680275
000130 9b 7b 79 3c 23 2b b1 bb 48 c7 06 3c 4b 97 94 bc
       0.015227224 -0.0054067536 0.008226223 -0.018138548
000140 6d 13 a8 3b 28 e8 49 bc bf 30 35 3c b5 c5 27 ba
       0.005129269 -0.012323417 0.011058985 -0.0006400005
000150 10 f7 88 3c 1a 71 c1 3b e0 35 b2 bb bf d5 41 ba
       0.016719371 0.0059033753 -0.0054385513 -0.00073942164
000160 10 2c 80 bc 9d 47 4e ba 71 f5 90 3b 7f 34 f8 3b
       -0.01564601 -0.00078689476 0.00442379 0.0075746174
000170 13 26 80 3b 15 e3 f9 bb ad 62 3a 3b 63 02 87 3b
       0.003910789 -0.0076259472 0.0028440163 0.0041201576
000180 00 d9 02 3c 4f 21 a3 3a 5f 62 88 3b d0 75 7c 3b
       0.007986307 0.001244584 0.0041621174 0.003852237
000190 9b 7c 29 bb 02 b4 f2 3b d3 f1 52 3c 12 1f d0 bb
       -0.0025861624 0.0074067125 0.012875038 -0.00635136
0001a0 bf 3d 68 bb 25 f7 dc bb aa da 65 b9 0a 6c c8 b9
       -0.0035437194 -0.006743329 -0.000219206 -0.00038227468
0001b0 13 f6 95 bb 44 5e 81 bc 00 18 32 38 e3 30 1d 3a
       -0.0045764535 -0.01579202 4.246086e-05 0.00059963594
0001c0 47 78 82 bb 95 ea 7d 3c 26 30 28 bc 1a d8 91 bb
       -0.0039816233 0.015497823 -0.010265386 -0.00445081
0001d0 0c 6b 45 ba 96 fe 99 bb 50 b6 f9 3b ed 6d fa bb
       -0.0007530905 -0.0046995385 0.0076206103 -0.0076424987
0001e0 55 b7 3a bb 7a 82 d6 3b 7d e8 34 3c fd 46 11 bc
       -0.0028490622 0.0065463157 0.011041758 -0.008867023
0001f0 0c 63 ba 3b 2f 28 2a bb cb 04 c5 bc 92 94 fa bb
       0.005688077 -0.0025963893 -0.024050137 -0.0076471055
000200 c7 eb 48 ba c9 9e 12 bb a8 15 56 bc bc 7d 38 bc
       -0.0007664528 -0.0022372475 -0.013066687 -0.011260446
000210 44 3c 81 bb 26 10 a6 3a 6e f1 39 bb 52 29 8f bc
       -0.003943952 0.0012669608 -0.0028372663 -0.017475758
000220 af 48 f8 39 4d f3 19 3b af 6f b8 3b 20 09 12 3c
       0.000473564 0.0023490966 0.005628548 0.008913308
000230 15 9e 82 bc b9 13 35 3b ef eb a0 3b 43 b3 36 bb
       -0.01594452 0.0027630164 0.004910938 -0.0027877844
000240 20 73 2c bc 3d 1e 65 bb cd 29 82 3a 6d 3d cb 3b
       -0.010525495 -0.003496065 0.000993067 0.006202391
000250 37 0b b1 ba 11 b2 80 3c 2f c5 c9 bb b9 a6 34 bc
       -0.0013507371 0.015709909 -0.0061575393 -0.011026078
000260 b5 8a 1c bc 33 1d e5 3b 57 8a 55 3c 93 b6 cf 3c
       -0.009554555 0.006992006 0.013033471 0.025355613
000270 d2 c8 cd 3a 67 ff 91 3b 1a 7d b6 3c b5 99 af ba
       0.0015700108 0.004455495 0.02227645 -0.0013397249
000280 17 c1 b2 3b b2 46 4d 3c 7f 52 e5 bb ef ca 2b 3c
       0.005455147 0.012529062 -0.0069983597 0.010485395
000290 f6 f9 85 3c 67 78 a3 b7 ff 81 86 3c 85 4c 4e bc
       0.016354542 -1.948718e-05 0.016419409 -0.012591486
0002a0 c8 28 e9 bb 33 72 0c 3c af 03 ab 3b fc 04 47 3b
       -0.007115457 0.008572149 0.005218945 0.003036796
0002b0 df cb 82 3b 4b 92 8b 3a cf d9 81 bb 29 24 9a bc
       0.0039915885 0.0010648457 -0.0039627324 -0.01881607
0002c0 fa 42 26 bc 84 93 11 bb a8 ce 33 3a b0 20 76 3b
       -0.010147804 -0.002221317 0.0006859102 0.0037556104
0002d0 7b 65 59 3c 07 02 65 bc 59 cc 0d 3c 08 10 e4 bb
       0.013268824 -0.013977534 0.008654677 -0.006959919
0002e0 86 5d a0 bb ac ed b0 bb 72 6a d4 ba db 21 ec bb
       -0.0048939614 -0.0053994264 -0.001620604 -0.0072061843
0002f0 ed 09 71 3c 3f e8 59 bb cb a8 37 39 ad 1b e3 3c
       0.014711839 -0.0033250002 0.0001751512 0.027723158
000300 c9 0d 2a ba 0b b5 3d bc 86 84 10 3b 33 d3 8f bb
       -0.00064870395 -0.011578809 0.0022051646 -0.0043891906
000310 a3 a6 73 3b f7 ab 6b bc af 01 b4 38 b5 33 4e bb
       0.003717818 -0.014384261 8.5833824e-05 -0.0031463925
000320 0d 1c dc bb eb 49 a9 bc 45 cb 4d bc 8f b7 5c bc
       -0.006717211 -0.02066513 -0.01256067 -0.013471498
000330 67 a0 0e bc 33 13 13 3b 4f ab 0d bc a3 2b 43 bb
       -0.008705235 0.0022441864 -0.0086468 -0.0029780648
000340 3f cd 75 bb dc 83 a8 bb 18 86 fa bb 6a 39 8d 3a
       -0.003750637 -0.005142672 -0.0076453798 0.0010774557
000350 fe 68 bb b9 ff c9 b4 3a fb f3 96 bc 2d 0c c9 3b
       -0.00035745645 0.001379311 -0.018426886 0.0061354847
000360 b0 74 0a 3c 61 47 3b bc 57 8f 02 3c 90 62 5c 3a
       0.008450672 -0.011430592 0.007968745 0.0008407021
000370 d8 f6 cc b9 6a e1 00 3c 23 01 27 3a ee f4 c6 3b
       -0.00039093825 0.007866243 0.0006370714 0.0060716784
000380 92 66 54 ba fe 42 0e bb cf f5 84 3c bf 6b f6 3b
       -0.00081024424 -0.002170741 0.016230492 0.0075201686
000390 20 56 c0 ba e2 54 82 bb f8 b5 21 bb f2 51 57 ba
       -0.0014674105 -0.003977404 -0.0024675112 -0.000821381
0003a0 a0 c8 1f bc 6a 81 df 3a f3 4a 98 bb 51 a9 1d bc
       -0.009752423 0.0017052118 -0.0046476065 -0.009622888
0003b0 d8 8e ca 37 5f ab 29 bc cb f6 b3 3b 9d c3 df 3b
       2.4146793e-05 -0.010355799 0.0054920665 0.006828739
0003c0 1c fc 11 3c 4b b0 26 bc b3 19 73 bc a4 bf 0c bc
       0.008910205 -0.010173867 -0.01483767 -0.008590613
0003d0 0c e8 94 3a 6f 06 97 3b 3c 7c 3f bc bf 87 7b bc
       0.0011360659 0.0046089212 -0.011687335 -0.015352189
0003e0 8d 45 41 3a 53 83 0c 3c 47 d5 66 b9 66 7b ac 3c
       0.00073727296 0.008576232 -0.00022013961 0.021054935
0003f0 f5 be c7 3b ef 5b c8 bc 1a 81 0b bb 36 f9 ac 3a
       0.006095762 -0.0244579 -0.0021286667 0.0013196829

action_model._discrete_distribution.branches.1.bias f4 [3]
000000 00 00 00 00 00 00 00 00 00 00 00 00
       0.0 0.0 0.0

critic.network_body.linear_encoder.seq_layers.0.weight f4 [128, 24]
000000 60 10 a4 be 8a 10 8f 3e 4e 75 8c be 27 e4 13 be
       -0.32043743 0.27942306 -0.27433246 -0.14442502
000010 d1 86 34 bb f4 25 fe 3d 09 54 03 3e c6 59 e3 3d
       -0.0027546177 0.12409583 0.12825026 0.11101107
000020 6d e9 92 be 0a 33 46 bd dd 26 bf 3d c0 3b 30 be
       -0.28693715 -0.04838852 0.093335845 -0.17210293
000030 c8 ec 8f be 7f cc b9 3e 61 7f 98 bd cb e1 ba be
       -0.28110337 0.3628883 -0.074461706 -0.3650039
000040 05 39 fb 3b 84 92 b0 bd 85 ac 81 be 6c 91 66 3e
       0.0076667094 -0.08621696 -0.25326934 0.22516412
000050 b1 f5 76 3e 67 41 36 bd 70 df 0e bf 40 47 18 bb
       0.24117161 -0.044495966 -0.5580969 -0.0023235828
000060 8e c6 8b bd 78 e3 91 3d 0b ed 87 be 40 fc da 3d
       -0.06824981 0.07123464 -0.26548037 0.10692644
000070 76 cb 16 3e 88 aa 05 3c 59 76 44 3e 45 d4 67 3e
       0.14726052 0.008158334 0.19185771 0.22639568
000080 51 7f d6 bd cb ff b3 3e 51 bb 2a be 15 7d 3d be
       -0.104735024 0.35156092 -0.16673018 -0.18504746
000090 3d cb 56 be b5 7d f4 be dc 25 11 be a0 8d c2 3d
       -0.20975967 -0.47752157 -0.14174598 0.09499669
0000a0 60 41 f3 bc d0 86 9e be 91 09 18 3e e9 cb ef bc
       -0.02969426 -0.3096223 0.148474 -0.029272037
0000b0 65 3b 8e be 2f a2 6d bd dc d9 da be f8 cc 3f bd
       -0.2777969 -0.058016 -0.4274434 -0.046826333
0000c0 6b 75 1f be 9a 8e c9 be 4d 26 93 3e 47 98 00 3d
       -0.15572135 -0.3936661 0.2874016 0.031395223
0000d0 a1 18 0f 3e ae e0 fc bd 19 28 06 3d ed c3 d2 3d
       0.13974239 -0.12347542 0.032753084 0.10291276
0000e0 c6 58 45 3e bb 29 df 3d c0 ce c1 bd 49 1c 4a be
       0.19272146 0.10896631 -0.094632626 -0.19737352
0000f0 1b 6b 81 bc cc c9 58 3e 81 30 85 3e 12 bb 15 3e
       -0.015798142 0.2117073 0.26013568 0.14622143
000100 32 bb 54 3d c3 85 39 be c2 97 b2 be 91 d7 97 3a
       0.051936336 -0.18117432 -0.34881407 0.001158463
000110 bc 92 ca 3d c3 72 65 be 23 68 24 bd b8 60 5f bd
       0.098912686 -0.2240706 -0.040138375 -0.054535598
000120 a6 10 93 be 1c 8a 60 3e 02 e1 c5 be 2c be ec bd
       -0.2872364 0.21927685 -0.3864823 -0.1155971
000130 64 76 c8 bd 42 16 b1 be 86 02 59 bc 1b 6d d0 3d
       -0.09788206 -0.34587294 -0.013245231 0.1017706
000140 4a cb 05 be 36 44 b3 3c d8 fa 86 be 18 31 89 be
       -0.1306583 0.021883111 -0.26363254 -0.26795268
000150 c2 82 33 bc 3c cc b5 3d 6e cb ff bd af 8a 89 be
       -0.010956468 0.08876845 -0.12489973 -0.2686362
000160 63 2c 6f 3d 40 f6 52 3e 67 66 45 bd 91 7d a1 3d
       0.05839194 0.2060175 -0.04819336 0.07885278
000170 c8 63 6c bd e3 b3 cb bd 29 ff 69 be 71 d7 f3 3d
       -0.057712346 -0.0994642 -0.22851242 0.119063266
000180 9a a3 bd bd 8b 95 44 3d 49 c0 38 be dd 53 4f 3d
       -0.0925972 0.047994178 -0.18042101 0.050617088
000190 fa 46 3c be 10 73 6d bc 50 03 0b 3d 99 ec 90 3e
       -0.1838645 -0.014492765 0.033938706 0.2830551
0001a0 84 7f c4 be da fb a0 3d 4e 81 97 bd 46 49 e9 3e
       -0.38378537 0.07860537 -0.0739771 0.45563716
0001b0 8c 14 4b 3e 85 85 fe 3e 64 cb 85 3e b0 72 88 be
       0.19832057 0.49711242 0.26131737 -0.2665
0001c0 c5 de 2d 3e 2c d6 8d 3c 7c 69 55 3e 21 04 88 bd
       0.16979511 0.01731404 0.2084102 -0.066414125
0001d0 c1 fd 23 3e 67 78 28 3e 1a 84 3a bc e3 1d bd be
       0.16014768 0.1645218 -0.0113840345 -0.36936864
0001e0 49 7b 88 bc 96 4e 9e 3d 54 ae 19 3e 0a 3a 4d bd
       -0.01666035 0.07729833 0.15007907 -0.05010418
0001f0 bb ba e6 bd 01 fd b4 3e d4 dc c8 bd 38 61 34 be
       -0.11266085 0.35349277 -0.098077446 -0.17615211
000200 32 06 99 be b0 3c b8 3d c9 b4 0a be 6a 5e 54 3e
       -0.2988754 0.0899595 -0.13545527 0.20739141
000210 19 e2 fb bd 71 82 c8 bd 4a 26 1f be ba 94 a6 3e
       -0.12298984 -0.09790505 -0.1554195 0.32535344
000220 c9 22 e3 bc 21 13 54 3e d6 03 83 3e f9 9a 31 3e
       -0.027726548 0.20710422 0.25588864 0.17344274
000230 15 5d e1 3c a0 33 6f 3d 77 8d 3c be a4 02 96 3e
       0.027510205 0.058398843 -0.1841334 0.2929889
000240 28 2e ae 3e 46 88 5f be 41 71 0a be 35 d2 ca 3e
       0.3401959 -0.21829328 -0.13519765 0.396135
000250 27 56 2f 3e 84 e8 97 3d ad 3d 2f be 3a 02 9a bd
       0.17122708 0.07417396 -0.17113371 -0.07519956
000260 2b fb 83 3d 3b cc c9 bd b5 e2 98 3d 08 73 7b bd
       0.06444391 -0.09853407 0.07465116 -0.061389
000270 5d 18 2e 3e d4 96 0c 3d 2b 6f a5 bd 6c 51 64 3d
       0.17001481 0.03432353 -0.08077844 0.055741712
000280 2a fd f7 bd 7c f1 2e 3d 18 4d 8b 3e 4f 56 a7 3c
       -0.12108834 0.042710766 0.27207255 0.020426897
000290 38 13 62 3c 1f f4 c4 bd 8a ef b0 bc 44 c8 e9 bb
       0.013798527 -0.09616875 -0.021598596 -0.007134469
0002a0 4a a4 37 3e b4 28 1b be 73 64 8b 3e d2 d0 dd bb
       0.17933765 -0.15152246 0.27225074 -0.006769278
0002b0 b6 48 37 be 69 53 03 be 7c 7d f2 bc d9 74 45 bc
       -0.17898831 -0.12824787 -0.029600851 -0.012051784
0002c0 2c 1a 7f be 15 a9 c8 3d 47 23 cd 3d c4 cf 41 bd
       -0.24912328 0.09797875 0.10016494 -0.04731728
0002d0 35 c0 c3 bd 36 a4 b1 3e 1d b8 1c 3d e7 66 43 3e
       -0.09558145 0.34695596 0.03826152 0.19082223
0002e0 19 be 64 be cf e6 90 3d f6 4f 8b 3b 6a 7d 3c bd
       -0.22338142 0.07075273 0.0042514754 -0.04601804
0002f0 51 8c 09 3d 59 18 be be e2 8b 84 be c6 07 d5 3e
       0.03358108 -0.3712795 -0.25887972 0.41607493
000300 38 6e 57 3d 64 48 1d 3e 02 50 bd 3e 43 0d 54 3e
       0.052595347 0.15359646 0.36975104 0.20708184
000310 4e 1a 75 3e e6 6e 7a be 8a 53 e6 3d 95 d0 60 be
       0.23935816 -0.24456367 0.112464026 -0.21954568
000320 58 c9 37 3e c6 4f 33 3e eb 4d 74 3e 8d a8 9e 3e
       0.179479 0.175109 0.23857848 0.3098797
000330 d4 61 71 3e 5c f8 a4 3c 5f a7 33 3e 8d 24 d9 3b
       0.23572475 0.020137958 0.17544316 0.0066266716
000340 93 66 bb be cb 7f 55 3c fb f3 a9 3d d6 2a fd 3d
       -0.36601695 0.0130309565 0.08298489 0.12361686
000350 31 7c 39 3e 5e 60 13 3d 37 72 9c bd 27 b7 34 3e
       0.18113782 0.035980575 -0.07638972 0.17647992
000360 e3 6a 94 bd 03 63 88 be 92 00 23 bd dd b6 85 bd
       -0.072469495 -0.2663804 -0.039795466 -0.06529019
000370 e0 78 a1 3e 09 00 67 be 0b d8 c8 bd 8e 41 59 be
       0.31537533 -0.22558607 -0.09806832 -0.21216413
000380 b4 59 4a be 2b 32 10 3e 06 28 aa bd 28 36 6f 3e
       -0.19760782 0.14081638 -0.08308415 0.23360503
000390 80 01 a6 3e 66 91 52 3c b3 8d e9 3d 09 a3 d0 bc
       0.3242302 0.0128520485 0.1140398 -0.025468366
0003a0 8a fa 18 3d 6f 71 4c 3c c6 2e 27 be 9f 67 35 be
       0.037348308 0.012478217 -0.16326436 -0.1771531
0003b0 14 d0 54 3e ed ad f2 bc 4e b4 5b bd 06 8a 8f 3e
       0.207825 -0.02962395 -0.05363875 0.2803499
0003c0 6b 02 1d 3e 79 03 85 bd 41 c6 01 3e 85 b0 fe 3d
       0.15332954 -0.06494803 0.12673284 0.12436012
0003d0 8a 0b a2 3e bc 94 21 be 15 01 73 3d 15 7e 87 be
       0.3164943 -0.15779394 0.059327204 -0.2646338
0003e0 5b 3b 16 3e b5 2d 53 be f3 9f f4 3d ab 8d e6 be
       0.1467108 -0.20622905 0.119445704 -0.4502996
0003f0 85 47 ce bd 1c aa 97 be 06 17 cc be 8b dd c0 bd
       -0.10072235 -0.2962197 -0.39861315 -0.09417256

critic.network_body.linear_encoder.seq_layers.0.bias f4 [128]
000000 00 00 00 00 00 00 00 00 00 00 00 00 00 00 00 00
       0.0 0.0 0.0 0.0
000010 00 00 00 00 00 00 00 00 00 00 00 00 00 00 00 00
       0.0 0.0 0.0 0.0
000020 00 00 00 00 00 00 00 00 00 00 00 00 00 00 00 00
       0.0 0.0 0.0 0.0
000030 00 00 00 00 00 00 00 00 00 00 00 00 00 00 00 00
       0.0 0.0 0.0 0.0
000040 00 00 00 00 00 00 00 00 00 00 00 00 00 00 00 00
       0.0 0.0 0.0 0.0
000050 00 00 00 00 00 00 00 00 00 00 00 00 00 00 00 00
       0.0 0.0 0.0 0.0
000060 00 00 00 00 00 00 00 00 00 00 00 00 00 00 00 00
       0.0 0.0 0.0 0.0
000070 00 00 00 00 00 00 00 00 00 00 00 00 00 00 00 00
       0.0 0.0 0.0 0.0
000080 00 00 00 00 00 00 00 00 00 00 00 00 00 00 00 00
       0.0 0.0 0.0 0.0
000090 00 00 00 00 00 00 00 00 00 00 00 00 00 00 00 00
       0.0 0.0 0.0 0.0
0000a0 00 00 00 00 00 00 00 00 00 00 00 00 00 00 00 00
       0.0 0.0 0.0 0.0
0000b0 00 00 00 00 00 00 00 00 00 00 00 00 00 00 00 00
       0.0 0.0 0.0 0.0
0000c0 00 00 00 00 00 00 00 00 00 00 00 00 00 00 00 00
       0.0 0.0 0.0 0.0
0000d0 00 00 00 00 00 00 00 00 00 00 00 00 00 00 00 00
       0.0 0.0 0.0 0.0
0000e0 00 00 00 00 00 00 00 00 00 00 00 00 00 00 00 00
       0.0 0.0 0.0 0.0
0000f0 00 00 00 00 00 00 00 00 00 00 00 00 00 00 00 00
       0.0 0.0 0.0 0.0
000100 00 00 00 00 00 00 00 00 00 00 00 00 00 00 00 00
       0.0 0.0 0.0 0.0
000110 00 00 00 00 00 00 00 00 00 00 00 00 00 00 00 00
       0.0 0.0 0.0 0.0
000120 00 00 00 00 00 00 00 00 00 00 00 00 00 00 00 00
       0.0 0.0 0.0 0.0
000130 00 00 00 00 00 00 00 00 00 00 00 00 00 00 00 00
       0.0 0.0 0.0 0.0
000140 00 00 00 00 00 00 00 00 00 00 00 00 00 00 00 00
       0.0 0.0 0.0 0.0
000150 00 00 00 00 00 00 00 00 00 00 00 00 00 00 00 00
       0.0 0.0 0.0 0.0
000160 00 00 00 00 00 00 00 00 00 00 00 00 00 00 00 00
       0.0 0.0 0.0 0.0
000170 00 00 00 00 00 00 00 00 00 00 00 00 00 00 00 00
       0.0 0.0 0.0 0.0
000180 00 00 00 00 00 00 00 00 00 00 00 00 00 00 00 00
       0.0 0.0 0.0 0.0
000190 00 00 00 00 00 00 00 00 00 00 00 00 00 00 00 00
       0.0 0.0 0.0 0.0
0001a0 00 00 00 00 00 00 00 00 00 00 00 00 00 00 00 00
       0.0 0.0 0.0 0.0
0001b0 00 00 00 00 00 00 00 00 00 00 00 00 00 00 00 00
       0.0 0.0 0.0 0.0
0001c0 00 00 00 00 00 00 00 00 00 00 00 00 00 00 00 00
       0.0 0.0 0.0 0.0
0001d0 00 00 00 00 00 00 00 00 00 00 00 00 00 00 00 00
       0.0 0.0 0.0 0.0
0001e0 00 00 00 00 00 00 00 00 00 00 00 00 00 00 00 00
       0.0 0.0 0.0 0.0
0001f0 00 00 00 00 00 00 00 00 00 00 00 00 00 00 00 00
       0.0 0.0 0.0 0.0
